…
I0709 13:42:45.929134  1916 net.cpp:313] The NetState phase (0) differed from the phase (1) specified by a rule in layer data
I0709 13:42:45.929168  1916 net.cpp:313] The NetState phase (0) differed from the phase (1) specified by a rule in layer accuracy
I0709 13:42:45.929327  1916 net.cpp:49] Initializing net from parameters: 
name: "Model2"
state {
  phase: TRAIN
}
layer {
  name: "data"
  type: "Data"
  top: "data"
  top: "label"
  include {
    phase: TRAIN
  }
  transform_param {
    mirror: true
    mean_file: "../lmdb/mean_file.binaryproto"
  }
  data_param {
    source: "../lmdb/train_lmdb"
    batch_size: 256
    backend: LMDB
  }
}
layer {
  name: "conv1"
  type: "Convolution"
  bottom: "data"
  top: "conv1"
  param {
    lr_mult: 1
    decay_mult: 0
  }
  param {
    lr_mult: 2
    decay_mult: 0
  }
  convolution_param {
    num_output: 64
    kernel_size: 7
    stride: 2
    weight_filler {
      type: "xavier"
    }
    bias_filler {
      type: "constant"
      value: 0.1
    }
  }
}
layer {
  name: "relu1"
  type: "ReLU"
  bottom: "conv1"
  top: "conv1"
}
layer {
  name: "pool1"
  type: "Pooling"
  bottom: "conv1"
  top: "pool1"
  pooling_param {
    pool: MAX
    kernel_size: 3
    stride: 2
  }
}
layer {
  name: "conv2"
  type: "Convolution"
  bottom: "pool1"
  top: "conv2"
  param {
    lr_mult: 1
    decay_mult: 0
  }
  param {
    lr_mult: 2
    decay_mult: 0
  }
  convolution_param {
    num_output: 128
    kernel_size: 5
    stride: 2
    weight_filler {
      type: "xavier"
    }
    bias_filler {
      type: "constant"
      value: 0.1
    }
  }
}
layer {
  name: "relu2"
  type: "ReLU"
  bottom: "conv2"
  top: "conv2"
}
layer {
  name: "conv3"
  type: "Convolution"
  bottom: "conv2"
  top: "conv3"
  param {
    lr_mult: 1
    decay_mult: 0
  }
  param {
    lr_mult: 2
    decay_mult: 0
  }
  convolution_param {
    num_output: 256
    kernel_size: 3
    stride: 1
    weight_filler {
      type: "xavier"
    }
    bias_filler {
      type: "constant"
      value: 0.1
    }
  }
}
layer {
  name: "relu3"
  type: "ReLU"
  bottom: "conv3"
  top: "conv3"
}
layer {
  name: "pool3"
  type: "Pooling"
  bottom: "conv3"
  top: "pool3"
  pooling_param {
    pool: MAX
    kernel_size: 3
    stride: 2
  }
}
layer {
  name: "fc4"
  type: "InnerProduct"
  bottom: "pool3"
  top: "fc4"
  param {
    lr_mult: 1
    decay_mult: 0
  }
  param {
    lr_mult: 2
    decay_mult: 0
  }
  inner_product_param {
    num_output: 1024
    weight_filler {
      type: "xavier"
    }
    bias_filler {
      type: "constant"
      value: 0
    }
  }
}
layer {
  name: "relu4"
  type: "ReLU"
  bottom: "fc4"
  top: "fc4"
}
layer {
  name: "dropout4"
  type: "Dropout"
  bottom: "fc4"
  top: "fc4"
  dropout_param {
    dropout_ratio: 0.5
  }
}
layer {
  name: "fc5"
  type: "InnerProduct"
  bottom: "fc4"
  top: "fc5"
  param {
    lr_mult: 1
    decay_mult: 0
  }
  param {
    lr_mult: 2
    decay_mult: 0
  }
  inner_product_param {
    num_output: 20
    weight_filler {
      type: "xavier"
    }
    bias_filler {
      type: "constant"
      value: 0
    }
  }
}
layer {
  name: "loss"
  type: "SoftmaxWithLoss"
  bottom: "fc5"
  bottom: "label"
  top: "loss"
}
layer {
  name: "accuracy"
  type: "Accuracy"
  bottom: "fc5"
  bottom: "label"
  top: "accuracy"
  include {
    phase: TRAIN
  }
}
I0709 13:42:45.929477  1916 layer_factory.hpp:77] Creating layer data
I0709 13:42:45.930482  1916 net.cpp:91] Creating Layer data
I0709 13:42:45.930522  1916 net.cpp:399] data -> data
I0709 13:42:45.930564  1916 net.cpp:399] data -> label
I0709 13:42:45.930605  1916 data_transformer.cpp:25] Loading mean file from: ../lmdb/mean_file.binaryproto
I0709 13:42:45.931237  1923 db_lmdb.cpp:35] Opened lmdb ../lmdb/train_lmdb
I0709 13:42:45.944216  1916 data_layer.cpp:41] output data size: 256,3,128,128
I0709 13:42:46.032078  1916 net.cpp:141] Setting up data
I0709 13:42:46.032135  1916 net.cpp:148] Top shape: 256 3 128 128 (12582912)
I0709 13:42:46.032145  1916 net.cpp:148] Top shape: 256 (256)
I0709 13:42:46.032150  1916 net.cpp:156] Memory required for data: 50332672
I0709 13:42:46.032165  1916 layer_factory.hpp:77] Creating layer label_data_1_split
I0709 13:42:46.032183  1916 net.cpp:91] Creating Layer label_data_1_split
I0709 13:42:46.032191  1916 net.cpp:425] label_data_1_split <- label
I0709 13:42:46.032209  1916 net.cpp:399] label_data_1_split -> label_data_1_split_0
I0709 13:42:46.032223  1916 net.cpp:399] label_data_1_split -> label_data_1_split_1
I0709 13:42:46.032274  1916 net.cpp:141] Setting up label_data_1_split
I0709 13:42:46.032290  1916 net.cpp:148] Top shape: 256 (256)
I0709 13:42:46.032297  1916 net.cpp:148] Top shape: 256 (256)
I0709 13:42:46.032301  1916 net.cpp:156] Memory required for data: 50334720
I0709 13:42:46.032310  1916 layer_factory.hpp:77] Creating layer conv1
I0709 13:42:46.032335  1916 net.cpp:91] Creating Layer conv1
I0709 13:42:46.032340  1916 net.cpp:425] conv1 <- data
I0709 13:42:46.032348  1916 net.cpp:399] conv1 -> conv1
I0709 13:42:46.209524  1916 net.cpp:141] Setting up conv1
I0709 13:42:46.209564  1916 net.cpp:148] Top shape: 256 64 61 61 (60964864)
I0709 13:42:46.209570  1916 net.cpp:156] Memory required for data: 294194176
I0709 13:42:46.209595  1916 layer_factory.hpp:77] Creating layer relu1
I0709 13:42:46.209610  1916 net.cpp:91] Creating Layer relu1
I0709 13:42:46.209617  1916 net.cpp:425] relu1 <- conv1
I0709 13:42:46.209625  1916 net.cpp:386] relu1 -> conv1 (in-place)
I0709 13:42:46.209777  1916 net.cpp:141] Setting up relu1
I0709 13:42:46.209797  1916 net.cpp:148] Top shape: 256 64 61 61 (60964864)
I0709 13:42:46.209803  1916 net.cpp:156] Memory required for data: 538053632
I0709 13:42:46.209808  1916 layer_factory.hpp:77] Creating layer pool1
I0709 13:42:46.209820  1916 net.cpp:91] Creating Layer pool1
I0709 13:42:46.209825  1916 net.cpp:425] pool1 <- conv1
I0709 13:42:46.209833  1916 net.cpp:399] pool1 -> pool1
I0709 13:42:46.209892  1916 net.cpp:141] Setting up pool1
I0709 13:42:46.209909  1916 net.cpp:148] Top shape: 256 64 30 30 (14745600)
I0709 13:42:46.209914  1916 net.cpp:156] Memory required for data: 597036032
I0709 13:42:46.209919  1916 layer_factory.hpp:77] Creating layer conv2
I0709 13:42:46.209934  1916 net.cpp:91] Creating Layer conv2
I0709 13:42:46.209940  1916 net.cpp:425] conv2 <- pool1
I0709 13:42:46.209949  1916 net.cpp:399] conv2 -> conv2
I0709 13:42:46.212741  1916 net.cpp:141] Setting up conv2
I0709 13:42:46.212765  1916 net.cpp:148] Top shape: 256 128 13 13 (5537792)
I0709 13:42:46.212772  1916 net.cpp:156] Memory required for data: 619187200
I0709 13:42:46.212785  1916 layer_factory.hpp:77] Creating layer relu2
I0709 13:42:46.212793  1916 net.cpp:91] Creating Layer relu2
I0709 13:42:46.212798  1916 net.cpp:425] relu2 <- conv2
I0709 13:42:46.212806  1916 net.cpp:386] relu2 -> conv2 (in-place)
I0709 13:42:46.213042  1916 net.cpp:141] Setting up relu2
I0709 13:42:46.213063  1916 net.cpp:148] Top shape: 256 128 13 13 (5537792)
I0709 13:42:46.213068  1916 net.cpp:156] Memory required for data: 641338368
I0709 13:42:46.213073  1916 layer_factory.hpp:77] Creating layer conv3
I0709 13:42:46.213086  1916 net.cpp:91] Creating Layer conv3
I0709 13:42:46.213091  1916 net.cpp:425] conv3 <- conv2
I0709 13:42:46.213100  1916 net.cpp:399] conv3 -> conv3
I0709 13:42:46.216542  1916 net.cpp:141] Setting up conv3
I0709 13:42:46.216567  1916 net.cpp:148] Top shape: 256 256 11 11 (7929856)
I0709 13:42:46.216572  1916 net.cpp:156] Memory required for data: 673057792
I0709 13:42:46.216585  1916 layer_factory.hpp:77] Creating layer relu3
I0709 13:42:46.216595  1916 net.cpp:91] Creating Layer relu3
I0709 13:42:46.216601  1916 net.cpp:425] relu3 <- conv3
I0709 13:42:46.216626  1916 net.cpp:386] relu3 -> conv3 (in-place)
I0709 13:42:46.216863  1916 net.cpp:141] Setting up relu3
I0709 13:42:46.216884  1916 net.cpp:148] Top shape: 256 256 11 11 (7929856)
I0709 13:42:46.216891  1916 net.cpp:156] Memory required for data: 704777216
I0709 13:42:46.216895  1916 layer_factory.hpp:77] Creating layer pool3
I0709 13:42:46.216904  1916 net.cpp:91] Creating Layer pool3
I0709 13:42:46.216909  1916 net.cpp:425] pool3 <- conv3
I0709 13:42:46.216917  1916 net.cpp:399] pool3 -> pool3
I0709 13:42:46.216965  1916 net.cpp:141] Setting up pool3
I0709 13:42:46.216984  1916 net.cpp:148] Top shape: 256 256 5 5 (1638400)
I0709 13:42:46.216989  1916 net.cpp:156] Memory required for data: 711330816
I0709 13:42:46.216994  1916 layer_factory.hpp:77] Creating layer fc4
I0709 13:42:46.217031  1916 net.cpp:91] Creating Layer fc4
I0709 13:42:46.217046  1916 net.cpp:425] fc4 <- pool3
I0709 13:42:46.217056  1916 net.cpp:399] fc4 -> fc4
I0709 13:42:46.274643  1916 net.cpp:141] Setting up fc4
I0709 13:42:46.274689  1916 net.cpp:148] Top shape: 256 1024 (262144)
I0709 13:42:46.274696  1916 net.cpp:156] Memory required for data: 712379392
I0709 13:42:46.274709  1916 layer_factory.hpp:77] Creating layer relu4
I0709 13:42:46.274722  1916 net.cpp:91] Creating Layer relu4
I0709 13:42:46.274729  1916 net.cpp:425] relu4 <- fc4
I0709 13:42:46.274739  1916 net.cpp:386] relu4 -> fc4 (in-place)
I0709 13:42:46.274967  1916 net.cpp:141] Setting up relu4
I0709 13:42:46.274987  1916 net.cpp:148] Top shape: 256 1024 (262144)
I0709 13:42:46.274992  1916 net.cpp:156] Memory required for data: 713427968
I0709 13:42:46.274998  1916 layer_factory.hpp:77] Creating layer dropout4
I0709 13:42:46.275012  1916 net.cpp:91] Creating Layer dropout4
I0709 13:42:46.275017  1916 net.cpp:425] dropout4 <- fc4
I0709 13:42:46.275027  1916 net.cpp:386] dropout4 -> fc4 (in-place)
I0709 13:42:46.275063  1916 net.cpp:141] Setting up dropout4
I0709 13:42:46.275084  1916 net.cpp:148] Top shape: 256 1024 (262144)
I0709 13:42:46.275090  1916 net.cpp:156] Memory required for data: 714476544
I0709 13:42:46.275095  1916 layer_factory.hpp:77] Creating layer fc5
I0709 13:42:46.275109  1916 net.cpp:91] Creating Layer fc5
I0709 13:42:46.275113  1916 net.cpp:425] fc5 <- fc4
I0709 13:42:46.275121  1916 net.cpp:399] fc5 -> fc5
I0709 13:42:46.275390  1916 net.cpp:141] Setting up fc5
I0709 13:42:46.275408  1916 net.cpp:148] Top shape: 256 20 (5120)
I0709 13:42:46.275414  1916 net.cpp:156] Memory required for data: 714497024
I0709 13:42:46.275427  1916 layer_factory.hpp:77] Creating layer fc5_fc5_0_split
I0709 13:42:46.275439  1916 net.cpp:91] Creating Layer fc5_fc5_0_split
I0709 13:42:46.275444  1916 net.cpp:425] fc5_fc5_0_split <- fc5
I0709 13:42:46.275450  1916 net.cpp:399] fc5_fc5_0_split -> fc5_fc5_0_split_0
I0709 13:42:46.275460  1916 net.cpp:399] fc5_fc5_0_split -> fc5_fc5_0_split_1
I0709 13:42:46.275497  1916 net.cpp:141] Setting up fc5_fc5_0_split
I0709 13:42:46.275514  1916 net.cpp:148] Top shape: 256 20 (5120)
I0709 13:42:46.275521  1916 net.cpp:148] Top shape: 256 20 (5120)
I0709 13:42:46.275527  1916 net.cpp:156] Memory required for data: 714537984
I0709 13:42:46.275530  1916 layer_factory.hpp:77] Creating layer loss
I0709 13:42:46.275542  1916 net.cpp:91] Creating Layer loss
I0709 13:42:46.275547  1916 net.cpp:425] loss <- fc5_fc5_0_split_0
I0709 13:42:46.275552  1916 net.cpp:425] loss <- label_data_1_split_0
I0709 13:42:46.275559  1916 net.cpp:399] loss -> loss
…
I0709 13:42:46.276799  1916 net.cpp:313] The NetState phase (1) differed from the phase (0) specified by a rule in layer data
I0709 13:42:46.276825  1916 net.cpp:313] The NetState phase (1) differed from the phase (0) specified by a rule in layer accuracy
I0709 13:42:46.276963  1916 net.cpp:49] Initializing net from parameters: 
name: "Model2"
state {
  phase: TEST
}
layer {
  name: "data"
  type: "Data"
  top: "data"
  top: "label"
  include {
    phase: TEST
  }
  transform_param {
    mirror: false
    mean_file: "../lmdb/mean_file.binaryproto"
  }
  data_param {
    source: "../lmdb/val_lmdb"
    batch_size: 128
    backend: LMDB
  }
}
layer {
  name: "conv1"
  type: "Convolution"
  bottom: "data"
  top: "conv1"
  param {
    lr_mult: 1
    decay_mult: 0
  }
  param {
    lr_mult: 2
    decay_mult: 0
  }
  convolution_param {
    num_output: 64
    kernel_size: 7
    stride: 2
    weight_filler {
      type: "xavier"
    }
    bias_filler {
      type: "constant"
      value: 0.1
    }
  }
}
layer {
  name: "relu1"
  type: "ReLU"
  bottom: "conv1"
  top: "conv1"
}
layer {
  name: "pool1"
  type: "Pooling"
  bottom: "conv1"
  top: "pool1"
  pooling_param {
    pool: MAX
    kernel_size: 3
    stride: 2
  }
}
layer {
  name: "conv2"
  type: "Convolution"
  bottom: "pool1"
  top: "conv2"
  param {
    lr_mult: 1
    decay_mult: 0
  }
  param {
    lr_mult: 2
    decay_mult: 0
  }
  convolution_param {
    num_output: 128
    kernel_size: 5
    stride: 2
    weight_filler {
      type: "xavier"
    }
    bias_filler {
      type: "constant"
      value: 0.1
    }
  }
}
layer {
  name: "relu2"
  type: "ReLU"
  bottom: "conv2"
  top: "conv2"
}
layer {
  name: "conv3"
  type: "Convolution"
  bottom: "conv2"
  top: "conv3"
  param {
    lr_mult: 1
    decay_mult: 0
  }
  param {
    lr_mult: 2
    decay_mult: 0
  }
  convolution_param {
    num_output: 256
    kernel_size: 3
    stride: 1
    weight_filler {
      type: "xavier"
    }
    bias_filler {
      type: "constant"
      value: 0.1
    }
  }
}
layer {
  name: "relu3"
  type: "ReLU"
  bottom: "conv3"
  top: "conv3"
}
layer {
  name: "pool3"
  type: "Pooling"
  bottom: "conv3"
  top: "pool3"
  pooling_param {
    pool: MAX
    kernel_size: 3
    stride: 2
  }
}
layer {
  name: "fc4"
  type: "InnerProduct"
  bottom: "pool3"
  top: "fc4"
  param {
    lr_mult: 1
    decay_mult: 0
  }
  param {
    lr_mult: 2
    decay_mult: 0
  }
  inner_product_param {
    num_output: 1024
    weight_filler {
      type: "xavier"
    }
    bias_filler {
      type: "constant"
      value: 0
    }
  }
}
layer {
  name: "relu4"
  type: "ReLU"
  bottom: "fc4"
  top: "fc4"
}
layer {
  name: "dropout4"
  type: "Dropout"
  bottom: "fc4"
  top: "fc4"
  dropout_param {
    dropout_ratio: 0.5
  }
}
layer {
  name: "fc5"
  type: "InnerProduct"
  bottom: "fc4"
  top: "fc5"
  param {
    lr_mult: 1
    decay_mult: 0
  }
  param {
    lr_mult: 2
    decay_mult: 0
  }
  inner_product_param {
    num_output: 20
    weight_filler {
      type: "xavier"
    }
    bias_filler {
      type: "constant"
      value: 0
    }
  }
}
layer {
  name: "loss"
  type: "SoftmaxWithLoss"
  bottom: "fc5"
  bottom: "label"
  top: "loss"
}
layer {
  name: "accuracy"
  type: "Accuracy"
  bottom: "fc5"
  bottom: "label"
  top: "accuracy"
  include {
    phase: TEST
  }
}
I0709 13:42:46.277086  1916 layer_factory.hpp:77] Creating layer data
I0709 13:42:46.277264  1916 net.cpp:91] Creating Layer data
I0709 13:42:46.277279  1916 net.cpp:399] data -> data
I0709 13:42:46.277292  1916 net.cpp:399] data -> label
I0709 13:42:46.277302  1916 data_transformer.cpp:25] Loading mean file from: ../lmdb/mean_file.binaryproto
I0709 13:42:46.277936  1925 db_lmdb.cpp:35] Opened lmdb ../lmdb/val_lmdb
I0709 13:42:46.278115  1916 data_layer.cpp:41] output data size: 128,3,128,128
I0709 13:42:46.322425  1916 net.cpp:141] Setting up data
I0709 13:42:46.322468  1916 net.cpp:148] Top shape: 128 3 128 128 (6291456)
I0709 13:42:46.322476  1916 net.cpp:148] Top shape: 128 (128)
I0709 13:42:46.322480  1916 net.cpp:156] Memory required for data: 25166336
I0709 13:42:46.322489  1916 layer_factory.hpp:77] Creating layer label_data_1_split
I0709 13:42:46.322505  1916 net.cpp:91] Creating Layer label_data_1_split
I0709 13:42:46.322510  1916 net.cpp:425] label_data_1_split <- label
I0709 13:42:46.322521  1916 net.cpp:399] label_data_1_split -> label_data_1_split_0
I0709 13:42:46.322535  1916 net.cpp:399] label_data_1_split -> label_data_1_split_1
I0709 13:42:46.322602  1916 net.cpp:141] Setting up label_data_1_split
I0709 13:42:46.322618  1916 net.cpp:148] Top shape: 128 (128)
I0709 13:42:46.322623  1916 net.cpp:148] Top shape: 128 (128)
I0709 13:42:46.322628  1916 net.cpp:156] Memory required for data: 25167360
I0709 13:42:46.322633  1916 layer_factory.hpp:77] Creating layer conv1
I0709 13:42:46.322650  1916 net.cpp:91] Creating Layer conv1
I0709 13:42:46.322655  1916 net.cpp:425] conv1 <- data
I0709 13:42:46.322664  1916 net.cpp:399] conv1 -> conv1
I0709 13:42:46.326799  1916 net.cpp:141] Setting up conv1
I0709 13:42:46.326823  1916 net.cpp:148] Top shape: 128 64 61 61 (30482432)
I0709 13:42:46.326829  1916 net.cpp:156] Memory required for data: 147097088
I0709 13:42:46.326843  1916 layer_factory.hpp:77] Creating layer relu1
I0709 13:42:46.326853  1916 net.cpp:91] Creating Layer relu1
I0709 13:42:46.326858  1916 net.cpp:425] relu1 <- conv1
I0709 13:42:46.326864  1916 net.cpp:386] relu1 -> conv1 (in-place)
I0709 13:42:46.327019  1916 net.cpp:141] Setting up relu1
I0709 13:42:46.327039  1916 net.cpp:148] Top shape: 128 64 61 61 (30482432)
I0709 13:42:46.327044  1916 net.cpp:156] Memory required for data: 269026816
I0709 13:42:46.327049  1916 layer_factory.hpp:77] Creating layer pool1
I0709 13:42:46.327060  1916 net.cpp:91] Creating Layer pool1
I0709 13:42:46.327064  1916 net.cpp:425] pool1 <- conv1
I0709 13:42:46.327072  1916 net.cpp:399] pool1 -> pool1
I0709 13:42:46.327121  1916 net.cpp:141] Setting up pool1
I0709 13:42:46.327136  1916 net.cpp:148] Top shape: 128 64 30 30 (7372800)
I0709 13:42:46.327142  1916 net.cpp:156] Memory required for data: 298518016
I0709 13:42:46.327147  1916 layer_factory.hpp:77] Creating layer conv2
I0709 13:42:46.327159  1916 net.cpp:91] Creating Layer conv2
I0709 13:42:46.327188  1916 net.cpp:425] conv2 <- pool1
I0709 13:42:46.327198  1916 net.cpp:399] conv2 -> conv2
I0709 13:42:46.329993  1916 net.cpp:141] Setting up conv2
I0709 13:42:46.330018  1916 net.cpp:148] Top shape: 128 128 13 13 (2768896)
I0709 13:42:46.330024  1916 net.cpp:156] Memory required for data: 309593600
I0709 13:42:46.330037  1916 layer_factory.hpp:77] Creating layer relu2
I0709 13:42:46.330045  1916 net.cpp:91] Creating Layer relu2
I0709 13:42:46.330050  1916 net.cpp:425] relu2 <- conv2
I0709 13:42:46.330059  1916 net.cpp:386] relu2 -> conv2 (in-place)
I0709 13:42:46.330302  1916 net.cpp:141] Setting up relu2
I0709 13:42:46.330323  1916 net.cpp:148] Top shape: 128 128 13 13 (2768896)
I0709 13:42:46.330329  1916 net.cpp:156] Memory required for data: 320669184
I0709 13:42:46.330335  1916 layer_factory.hpp:77] Creating layer conv3
I0709 13:42:46.330348  1916 net.cpp:91] Creating Layer conv3
I0709 13:42:46.330353  1916 net.cpp:425] conv3 <- conv2
I0709 13:42:46.330361  1916 net.cpp:399] conv3 -> conv3
I0709 13:42:46.333922  1916 net.cpp:141] Setting up conv3
I0709 13:42:46.333952  1916 net.cpp:148] Top shape: 128 256 11 11 (3964928)
I0709 13:42:46.333958  1916 net.cpp:156] Memory required for data: 336528896
I0709 13:42:46.333971  1916 layer_factory.hpp:77] Creating layer relu3
I0709 13:42:46.333986  1916 net.cpp:91] Creating Layer relu3
I0709 13:42:46.333992  1916 net.cpp:425] relu3 <- conv3
I0709 13:42:46.333999  1916 net.cpp:386] relu3 -> conv3 (in-place)
I0709 13:42:46.334239  1916 net.cpp:141] Setting up relu3
I0709 13:42:46.334260  1916 net.cpp:148] Top shape: 128 256 11 11 (3964928)
I0709 13:42:46.334266  1916 net.cpp:156] Memory required for data: 352388608
I0709 13:42:46.334271  1916 layer_factory.hpp:77] Creating layer pool3
I0709 13:42:46.334280  1916 net.cpp:91] Creating Layer pool3
I0709 13:42:46.334285  1916 net.cpp:425] pool3 <- conv3
I0709 13:42:46.334297  1916 net.cpp:399] pool3 -> pool3
I0709 13:42:46.334352  1916 net.cpp:141] Setting up pool3
I0709 13:42:46.334368  1916 net.cpp:148] Top shape: 128 256 5 5 (819200)
I0709 13:42:46.334373  1916 net.cpp:156] Memory required for data: 355665408
I0709 13:42:46.334378  1916 layer_factory.hpp:77] Creating layer fc4
I0709 13:42:46.334393  1916 net.cpp:91] Creating Layer fc4
I0709 13:42:46.334398  1916 net.cpp:425] fc4 <- pool3
I0709 13:42:46.334408  1916 net.cpp:399] fc4 -> fc4
I0709 13:42:46.392351  1916 net.cpp:141] Setting up fc4
I0709 13:42:46.392393  1916 net.cpp:148] Top shape: 128 1024 (131072)
I0709 13:42:46.392400  1916 net.cpp:156] Memory required for data: 356189696
I0709 13:42:46.392412  1916 layer_factory.hpp:77] Creating layer relu4
I0709 13:42:46.392427  1916 net.cpp:91] Creating Layer relu4
I0709 13:42:46.392434  1916 net.cpp:425] relu4 <- fc4
I0709 13:42:46.392443  1916 net.cpp:386] relu4 -> fc4 (in-place)
I0709 13:42:46.392822  1916 net.cpp:141] Setting up relu4
I0709 13:42:46.392843  1916 net.cpp:148] Top shape: 128 1024 (131072)
I0709 13:42:46.392848  1916 net.cpp:156] Memory required for data: 356713984
I0709 13:42:46.392853  1916 layer_factory.hpp:77] Creating layer dropout4
I0709 13:42:46.392863  1916 net.cpp:91] Creating Layer dropout4
I0709 13:42:46.392868  1916 net.cpp:425] dropout4 <- fc4
I0709 13:42:46.392877  1916 net.cpp:386] dropout4 -> fc4 (in-place)
I0709 13:42:46.392906  1916 net.cpp:141] Setting up dropout4
I0709 13:42:46.392922  1916 net.cpp:148] Top shape: 128 1024 (131072)
I0709 13:42:46.392927  1916 net.cpp:156] Memory required for data: 357238272
I0709 13:42:46.392932  1916 layer_factory.hpp:77] Creating layer fc5
I0709 13:42:46.392945  1916 net.cpp:91] Creating Layer fc5
I0709 13:42:46.392949  1916 net.cpp:425] fc5 <- fc4
I0709 13:42:46.392957  1916 net.cpp:399] fc5 -> fc5
I0709 13:42:46.393246  1916 net.cpp:141] Setting up fc5
I0709 13:42:46.393265  1916 net.cpp:148] Top shape: 128 20 (2560)
I0709 13:42:46.393270  1916 net.cpp:156] Memory required for data: 357248512
I0709 13:42:46.393283  1916 layer_factory.hpp:77] Creating layer fc5_fc5_0_split
I0709 13:42:46.393292  1916 net.cpp:91] Creating Layer fc5_fc5_0_split
I0709 13:42:46.393318  1916 net.cpp:425] fc5_fc5_0_split <- fc5
I0709 13:42:46.393328  1916 net.cpp:399] fc5_fc5_0_split -> fc5_fc5_0_split_0
I0709 13:42:46.393337  1916 net.cpp:399] fc5_fc5_0_split -> fc5_fc5_0_split_1
I0709 13:42:46.393379  1916 net.cpp:141] Setting up fc5_fc5_0_split
I0709 13:42:46.393395  1916 net.cpp:148] Top shape: 128 20 (2560)
I0709 13:42:46.393402  1916 net.cpp:148] Top shape: 128 20 (2560)
I0709 13:42:46.393406  1916 net.cpp:156] Memory required for data: 357268992
I0709 13:42:46.393411  1916 layer_factory.hpp:77] Creating layer loss
I0709 13:42:46.393422  1916 net.cpp:91] Creating Layer loss
I0709 13:42:46.393427  1916 net.cpp:425] loss <- fc5_fc5_0_split_0
I0709 13:42:46.393434  1916 net.cpp:425] loss <- label_data_1_split_0
I0709 13:42:46.393440  1916 net.cpp:399] loss -> loss
…
