…
I0709 14:41:20.559687  1981 net.cpp:313] The NetState phase (0) differed from the phase (1) specified by a rule in layer data
I0709 14:41:20.559720  1981 net.cpp:313] The NetState phase (0) differed from the phase (1) specified by a rule in layer accuracy
I0709 14:41:20.559885  1981 net.cpp:49] Initializing net from parameters: 
name: "Model2"
state {
  phase: TRAIN
}
layer {
  name: "data"
  type: "Data"
  top: "data"
  top: "label"
  include {
    phase: TRAIN
  }
  transform_param {
    mirror: true
    mean_file: "../lmdb/mean_file.binaryproto"
  }
  data_param {
    source: "../lmdb/train_lmdb"
    batch_size: 256
    backend: LMDB
  }
}
layer {
  name: "conv1"
  type: "Convolution"
  bottom: "data"
  top: "conv1"
  param {
    lr_mult: 1
    decay_mult: 0
  }
  param {
    lr_mult: 2
    decay_mult: 0
  }
  convolution_param {
    num_output: 64
    kernel_size: 7
    stride: 2
    weight_filler {
      type: "xavier"
    }
    bias_filler {
      type: "constant"
      value: 0.1
    }
  }
}
layer {
  name: "relu1"
  type: "ReLU"
  bottom: "conv1"
  top: "conv1"
}
layer {
  name: "pool1"
  type: "Pooling"
  bottom: "conv1"
  top: "pool1"
  pooling_param {
    pool: MAX
    kernel_size: 3
    stride: 2
  }
}
layer {
  name: "conv2"
  type: "Convolution"
  bottom: "pool1"
  top: "conv2"
  param {
    lr_mult: 1
    decay_mult: 0
  }
  param {
    lr_mult: 2
    decay_mult: 0
  }
  convolution_param {
    num_output: 128
    kernel_size: 5
    stride: 2
    weight_filler {
      type: "xavier"
    }
    bias_filler {
      type: "constant"
      value: 0.1
    }
  }
}
layer {
  name: "relu2"
  type: "ReLU"
  bottom: "conv2"
  top: "conv2"
}
layer {
  name: "conv3"
  type: "Convolution"
  bottom: "conv2"
  top: "conv3"
  param {
    lr_mult: 1
    decay_mult: 0
  }
  param {
    lr_mult: 2
    decay_mult: 0
  }
  convolution_param {
    num_output: 256
    kernel_size: 3
    stride: 1
    weight_filler {
      type: "xavier"
    }
    bias_filler {
      type: "constant"
      value: 0.1
    }
  }
}
layer {
  name: "relu3"
  type: "ReLU"
  bottom: "conv3"
  top: "conv3"
}
layer {
  name: "pool3"
  type: "Pooling"
  bottom: "conv3"
  top: "pool3"
  pooling_param {
    pool: MAX
    kernel_size: 3
    stride: 2
  }
}
layer {
  name: "fc4"
  type: "InnerProduct"
  bottom: "pool3"
  top: "fc4"
  param {
    lr_mult: 1
    decay_mult: 0
  }
  param {
    lr_mult: 2
    decay_mult: 0
  }
  inner_product_param {
    num_output: 1024
    weight_filler {
      type: "xavier"
    }
    bias_filler {
      type: "constant"
      value: 0
    }
  }
}
layer {
  name: "relu4"
  type: "ReLU"
  bottom: "fc4"
  top: "fc4"
}
layer {
  name: "dropout4"
  type: "Dropout"
  bottom: "fc4"
  top: "fc4"
  dropout_param {
    dropout_ratio: 0.5
  }
}
layer {
  name: "fc5"
  type: "InnerProduct"
  bottom: "fc4"
  top: "fc5"
  param {
    lr_mult: 1
    decay_mult: 0
  }
  param {
    lr_mult: 2
    decay_mult: 0
  }
  inner_product_param {
    num_output: 20
    weight_filler {
      type: "xavier"
    }
    bias_filler {
      type: "constant"
      value: 0
    }
  }
}
layer {
  name: "loss"
  type: "SoftmaxWithLoss"
  bottom: "fc5"
  bottom: "label"
  top: "loss"
}
layer {
  name: "accuracy"
  type: "Accuracy"
  bottom: "fc5"
  bottom: "label"
  top: "accuracy"
  include {
    phase: TRAIN
  }
}
I0709 14:41:20.560030  1981 layer_factory.hpp:77] Creating layer data
I0709 14:41:20.560667  1981 net.cpp:91] Creating Layer data
I0709 14:41:20.560693  1981 net.cpp:399] data -> data
I0709 14:41:20.560726  1981 net.cpp:399] data -> label
I0709 14:41:20.560755  1981 data_transformer.cpp:25] Loading mean file from: ../lmdb/mean_file.binaryproto
I0709 14:41:20.561424  1988 db_lmdb.cpp:35] Opened lmdb ../lmdb/train_lmdb
I0709 14:41:20.574265  1981 data_layer.cpp:41] output data size: 256,3,128,128
I0709 14:41:20.662351  1981 net.cpp:141] Setting up data
I0709 14:41:20.662422  1981 net.cpp:148] Top shape: 256 3 128 128 (12582912)
I0709 14:41:20.662442  1981 net.cpp:148] Top shape: 256 (256)
I0709 14:41:20.662451  1981 net.cpp:156] Memory required for data: 50332672
I0709 14:41:20.662463  1981 layer_factory.hpp:77] Creating layer label_data_1_split
I0709 14:41:20.662483  1981 net.cpp:91] Creating Layer label_data_1_split
I0709 14:41:20.662500  1981 net.cpp:425] label_data_1_split <- label
I0709 14:41:20.662518  1981 net.cpp:399] label_data_1_split -> label_data_1_split_0
I0709 14:41:20.662542  1981 net.cpp:399] label_data_1_split -> label_data_1_split_1
I0709 14:41:20.662595  1981 net.cpp:141] Setting up label_data_1_split
I0709 14:41:20.662612  1981 net.cpp:148] Top shape: 256 (256)
I0709 14:41:20.662618  1981 net.cpp:148] Top shape: 256 (256)
I0709 14:41:20.662623  1981 net.cpp:156] Memory required for data: 50334720
I0709 14:41:20.662628  1981 layer_factory.hpp:77] Creating layer conv1
I0709 14:41:20.662653  1981 net.cpp:91] Creating Layer conv1
I0709 14:41:20.662665  1981 net.cpp:425] conv1 <- data
I0709 14:41:20.662674  1981 net.cpp:399] conv1 -> conv1
I0709 14:41:20.837415  1981 net.cpp:141] Setting up conv1
I0709 14:41:20.837458  1981 net.cpp:148] Top shape: 256 64 61 61 (60964864)
I0709 14:41:20.837465  1981 net.cpp:156] Memory required for data: 294194176
I0709 14:41:20.837491  1981 layer_factory.hpp:77] Creating layer relu1
I0709 14:41:20.837505  1981 net.cpp:91] Creating Layer relu1
I0709 14:41:20.837512  1981 net.cpp:425] relu1 <- conv1
I0709 14:41:20.837520  1981 net.cpp:386] relu1 -> conv1 (in-place)
I0709 14:41:20.837687  1981 net.cpp:141] Setting up relu1
I0709 14:41:20.837707  1981 net.cpp:148] Top shape: 256 64 61 61 (60964864)
I0709 14:41:20.837713  1981 net.cpp:156] Memory required for data: 538053632
I0709 14:41:20.837718  1981 layer_factory.hpp:77] Creating layer pool1
I0709 14:41:20.837733  1981 net.cpp:91] Creating Layer pool1
I0709 14:41:20.837738  1981 net.cpp:425] pool1 <- conv1
I0709 14:41:20.837748  1981 net.cpp:399] pool1 -> pool1
I0709 14:41:20.837870  1981 net.cpp:141] Setting up pool1
I0709 14:41:20.837889  1981 net.cpp:148] Top shape: 256 64 30 30 (14745600)
I0709 14:41:20.837894  1981 net.cpp:156] Memory required for data: 597036032
I0709 14:41:20.837899  1981 layer_factory.hpp:77] Creating layer conv2
I0709 14:41:20.837918  1981 net.cpp:91] Creating Layer conv2
I0709 14:41:20.837924  1981 net.cpp:425] conv2 <- pool1
I0709 14:41:20.837934  1981 net.cpp:399] conv2 -> conv2
I0709 14:41:20.840812  1981 net.cpp:141] Setting up conv2
I0709 14:41:20.840847  1981 net.cpp:148] Top shape: 256 128 13 13 (5537792)
I0709 14:41:20.840852  1981 net.cpp:156] Memory required for data: 619187200
I0709 14:41:20.840868  1981 layer_factory.hpp:77] Creating layer relu2
I0709 14:41:20.840881  1981 net.cpp:91] Creating Layer relu2
I0709 14:41:20.840888  1981 net.cpp:425] relu2 <- conv2
I0709 14:41:20.840898  1981 net.cpp:386] relu2 -> conv2 (in-place)
I0709 14:41:20.841147  1981 net.cpp:141] Setting up relu2
I0709 14:41:20.841171  1981 net.cpp:148] Top shape: 256 128 13 13 (5537792)
I0709 14:41:20.841177  1981 net.cpp:156] Memory required for data: 641338368
I0709 14:41:20.841183  1981 layer_factory.hpp:77] Creating layer conv3
I0709 14:41:20.841199  1981 net.cpp:91] Creating Layer conv3
I0709 14:41:20.841204  1981 net.cpp:425] conv3 <- conv2
I0709 14:41:20.841215  1981 net.cpp:399] conv3 -> conv3
I0709 14:41:20.845026  1981 net.cpp:141] Setting up conv3
I0709 14:41:20.845057  1981 net.cpp:148] Top shape: 256 256 11 11 (7929856)
I0709 14:41:20.845063  1981 net.cpp:156] Memory required for data: 673057792
I0709 14:41:20.845082  1981 layer_factory.hpp:77] Creating layer relu3
I0709 14:41:20.845094  1981 net.cpp:91] Creating Layer relu3
I0709 14:41:20.845100  1981 net.cpp:425] relu3 <- conv3
I0709 14:41:20.845125  1981 net.cpp:386] relu3 -> conv3 (in-place)
I0709 14:41:20.845392  1981 net.cpp:141] Setting up relu3
I0709 14:41:20.845415  1981 net.cpp:148] Top shape: 256 256 11 11 (7929856)
I0709 14:41:20.845420  1981 net.cpp:156] Memory required for data: 704777216
I0709 14:41:20.845427  1981 layer_factory.hpp:77] Creating layer pool3
I0709 14:41:20.845438  1981 net.cpp:91] Creating Layer pool3
I0709 14:41:20.845443  1981 net.cpp:425] pool3 <- conv3
I0709 14:41:20.845454  1981 net.cpp:399] pool3 -> pool3
I0709 14:41:20.845509  1981 net.cpp:141] Setting up pool3
I0709 14:41:20.845525  1981 net.cpp:148] Top shape: 256 256 5 5 (1638400)
I0709 14:41:20.845530  1981 net.cpp:156] Memory required for data: 711330816
I0709 14:41:20.845535  1981 layer_factory.hpp:77] Creating layer fc4
I0709 14:41:20.845552  1981 net.cpp:91] Creating Layer fc4
I0709 14:41:20.845568  1981 net.cpp:425] fc4 <- pool3
I0709 14:41:20.845577  1981 net.cpp:399] fc4 -> fc4
I0709 14:41:20.906721  1981 net.cpp:141] Setting up fc4
I0709 14:41:20.906770  1981 net.cpp:148] Top shape: 256 1024 (262144)
I0709 14:41:20.906790  1981 net.cpp:156] Memory required for data: 712379392
I0709 14:41:20.906802  1981 layer_factory.hpp:77] Creating layer relu4
I0709 14:41:20.906816  1981 net.cpp:91] Creating Layer relu4
I0709 14:41:20.906821  1981 net.cpp:425] relu4 <- fc4
I0709 14:41:20.906833  1981 net.cpp:386] relu4 -> fc4 (in-place)
I0709 14:41:20.907045  1981 net.cpp:141] Setting up relu4
I0709 14:41:20.907064  1981 net.cpp:148] Top shape: 256 1024 (262144)
I0709 14:41:20.907069  1981 net.cpp:156] Memory required for data: 713427968
I0709 14:41:20.907074  1981 layer_factory.hpp:77] Creating layer dropout4
I0709 14:41:20.907089  1981 net.cpp:91] Creating Layer dropout4
I0709 14:41:20.907094  1981 net.cpp:425] dropout4 <- fc4
I0709 14:41:20.907104  1981 net.cpp:386] dropout4 -> fc4 (in-place)
I0709 14:41:20.907137  1981 net.cpp:141] Setting up dropout4
I0709 14:41:20.907153  1981 net.cpp:148] Top shape: 256 1024 (262144)
I0709 14:41:20.907158  1981 net.cpp:156] Memory required for data: 714476544
I0709 14:41:20.907163  1981 layer_factory.hpp:77] Creating layer fc5
I0709 14:41:20.907173  1981 net.cpp:91] Creating Layer fc5
I0709 14:41:20.907178  1981 net.cpp:425] fc5 <- fc4
I0709 14:41:20.907191  1981 net.cpp:399] fc5 -> fc5
I0709 14:41:20.907471  1981 net.cpp:141] Setting up fc5
I0709 14:41:20.907490  1981 net.cpp:148] Top shape: 256 20 (5120)
I0709 14:41:20.907495  1981 net.cpp:156] Memory required for data: 714497024
I0709 14:41:20.907507  1981 layer_factory.hpp:77] Creating layer fc5_fc5_0_split
I0709 14:41:20.907516  1981 net.cpp:91] Creating Layer fc5_fc5_0_split
I0709 14:41:20.907521  1981 net.cpp:425] fc5_fc5_0_split <- fc5
I0709 14:41:20.907531  1981 net.cpp:399] fc5_fc5_0_split -> fc5_fc5_0_split_0
I0709 14:41:20.907539  1981 net.cpp:399] fc5_fc5_0_split -> fc5_fc5_0_split_1
I0709 14:41:20.907582  1981 net.cpp:141] Setting up fc5_fc5_0_split
I0709 14:41:20.907596  1981 net.cpp:148] Top shape: 256 20 (5120)
I0709 14:41:20.907603  1981 net.cpp:148] Top shape: 256 20 (5120)
I0709 14:41:20.907608  1981 net.cpp:156] Memory required for data: 714537984
I0709 14:41:20.907611  1981 layer_factory.hpp:77] Creating layer loss
I0709 14:41:20.907625  1981 net.cpp:91] Creating Layer loss
I0709 14:41:20.907630  1981 net.cpp:425] loss <- fc5_fc5_0_split_0
I0709 14:41:20.907636  1981 net.cpp:425] loss <- label_data_1_split_0
I0709 14:41:20.907644  1981 net.cpp:399] loss -> loss
…
I0709 14:41:20.908879  1981 net.cpp:313] The NetState phase (1) differed from the phase (0) specified by a rule in layer data
I0709 14:41:20.908915  1981 net.cpp:313] The NetState phase (1) differed from the phase (0) specified by a rule in layer accuracy
I0709 14:41:20.909055  1981 net.cpp:49] Initializing net from parameters: 
name: "Model2"
state {
  phase: TEST
}
layer {
  name: "data"
  type: "Data"
  top: "data"
  top: "label"
  include {
    phase: TEST
  }
  transform_param {
    mirror: false
    mean_file: "../lmdb/mean_file.binaryproto"
  }
  data_param {
    source: "../lmdb/val_lmdb"
    batch_size: 128
    backend: LMDB
  }
}
layer {
  name: "conv1"
  type: "Convolution"
  bottom: "data"
  top: "conv1"
  param {
    lr_mult: 1
    decay_mult: 0
  }
  param {
    lr_mult: 2
    decay_mult: 0
  }
  convolution_param {
    num_output: 64
    kernel_size: 7
    stride: 2
    weight_filler {
      type: "xavier"
    }
    bias_filler {
      type: "constant"
      value: 0.1
    }
  }
}
layer {
  name: "relu1"
  type: "ReLU"
  bottom: "conv1"
  top: "conv1"
}
layer {
  name: "pool1"
  type: "Pooling"
  bottom: "conv1"
  top: "pool1"
  pooling_param {
    pool: MAX
    kernel_size: 3
    stride: 2
  }
}
layer {
  name: "conv2"
  type: "Convolution"
  bottom: "pool1"
  top: "conv2"
  param {
    lr_mult: 1
    decay_mult: 0
  }
  param {
    lr_mult: 2
    decay_mult: 0
  }
  convolution_param {
    num_output: 128
    kernel_size: 5
    stride: 2
    weight_filler {
      type: "xavier"
    }
    bias_filler {
      type: "constant"
      value: 0.1
    }
  }
}
layer {
  name: "relu2"
  type: "ReLU"
  bottom: "conv2"
  top: "conv2"
}
layer {
  name: "conv3"
  type: "Convolution"
  bottom: "conv2"
  top: "conv3"
  param {
    lr_mult: 1
    decay_mult: 0
  }
  param {
    lr_mult: 2
    decay_mult: 0
  }
  convolution_param {
    num_output: 256
    kernel_size: 3
    stride: 1
    weight_filler {
      type: "xavier"
    }
    bias_filler {
      type: "constant"
      value: 0.1
    }
  }
}
layer {
  name: "relu3"
  type: "ReLU"
  bottom: "conv3"
  top: "conv3"
}
layer {
  name: "pool3"
  type: "Pooling"
  bottom: "conv3"
  top: "pool3"
  pooling_param {
    pool: MAX
    kernel_size: 3
    stride: 2
  }
}
layer {
  name: "fc4"
  type: "InnerProduct"
  bottom: "pool3"
  top: "fc4"
  param {
    lr_mult: 1
    decay_mult: 0
  }
  param {
    lr_mult: 2
    decay_mult: 0
  }
  inner_product_param {
    num_output: 1024
    weight_filler {
      type: "xavier"
    }
    bias_filler {
      type: "constant"
      value: 0
    }
  }
}
layer {
  name: "relu4"
  type: "ReLU"
  bottom: "fc4"
  top: "fc4"
}
layer {
  name: "dropout4"
  type: "Dropout"
  bottom: "fc4"
  top: "fc4"
  dropout_param {
    dropout_ratio: 0.5
  }
}
layer {
  name: "fc5"
  type: "InnerProduct"
  bottom: "fc4"
  top: "fc5"
  param {
    lr_mult: 1
    decay_mult: 0
  }
  param {
    lr_mult: 2
    decay_mult: 0
  }
  inner_product_param {
    num_output: 20
    weight_filler {
      type: "xavier"
    }
    bias_filler {
      type: "constant"
      value: 0
    }
  }
}
layer {
  name: "loss"
  type: "SoftmaxWithLoss"
  bottom: "fc5"
  bottom: "label"
  top: "loss"
}
layer {
  name: "accuracy"
  type: "Accuracy"
  bottom: "fc5"
  bottom: "label"
  top: "accuracy"
  include {
    phase: TEST
  }
}
I0709 14:41:20.909173  1981 layer_factory.hpp:77] Creating layer data
I0709 14:41:20.909330  1981 net.cpp:91] Creating Layer data
I0709 14:41:20.909344  1981 net.cpp:399] data -> data
I0709 14:41:20.909355  1981 net.cpp:399] data -> label
I0709 14:41:20.909368  1981 data_transformer.cpp:25] Loading mean file from: ../lmdb/mean_file.binaryproto
I0709 14:41:20.910058  1990 db_lmdb.cpp:35] Opened lmdb ../lmdb/val_lmdb
I0709 14:41:20.910238  1981 data_layer.cpp:41] output data size: 128,3,128,128
I0709 14:41:20.955171  1981 net.cpp:141] Setting up data
I0709 14:41:20.955212  1981 net.cpp:148] Top shape: 128 3 128 128 (6291456)
I0709 14:41:20.955220  1981 net.cpp:148] Top shape: 128 (128)
I0709 14:41:20.955225  1981 net.cpp:156] Memory required for data: 25166336
I0709 14:41:20.955234  1981 layer_factory.hpp:77] Creating layer label_data_1_split
I0709 14:41:20.955250  1981 net.cpp:91] Creating Layer label_data_1_split
I0709 14:41:20.955255  1981 net.cpp:425] label_data_1_split <- label
I0709 14:41:20.955265  1981 net.cpp:399] label_data_1_split -> label_data_1_split_0
I0709 14:41:20.955279  1981 net.cpp:399] label_data_1_split -> label_data_1_split_1
I0709 14:41:20.955457  1981 net.cpp:141] Setting up label_data_1_split
I0709 14:41:20.955481  1981 net.cpp:148] Top shape: 128 (128)
I0709 14:41:20.955487  1981 net.cpp:148] Top shape: 128 (128)
I0709 14:41:20.955492  1981 net.cpp:156] Memory required for data: 25167360
I0709 14:41:20.955497  1981 layer_factory.hpp:77] Creating layer conv1
I0709 14:41:20.955520  1981 net.cpp:91] Creating Layer conv1
I0709 14:41:20.955530  1981 net.cpp:425] conv1 <- data
I0709 14:41:20.955540  1981 net.cpp:399] conv1 -> conv1
I0709 14:41:20.959695  1981 net.cpp:141] Setting up conv1
I0709 14:41:20.959733  1981 net.cpp:148] Top shape: 128 64 61 61 (30482432)
I0709 14:41:20.959738  1981 net.cpp:156] Memory required for data: 147097088
I0709 14:41:20.959756  1981 layer_factory.hpp:77] Creating layer relu1
I0709 14:41:20.959769  1981 net.cpp:91] Creating Layer relu1
I0709 14:41:20.959774  1981 net.cpp:425] relu1 <- conv1
I0709 14:41:20.959782  1981 net.cpp:386] relu1 -> conv1 (in-place)
I0709 14:41:20.959938  1981 net.cpp:141] Setting up relu1
I0709 14:41:20.959955  1981 net.cpp:148] Top shape: 128 64 61 61 (30482432)
I0709 14:41:20.959961  1981 net.cpp:156] Memory required for data: 269026816
I0709 14:41:20.959966  1981 layer_factory.hpp:77] Creating layer pool1
I0709 14:41:20.959977  1981 net.cpp:91] Creating Layer pool1
I0709 14:41:20.959982  1981 net.cpp:425] pool1 <- conv1
I0709 14:41:20.959990  1981 net.cpp:399] pool1 -> pool1
I0709 14:41:20.960039  1981 net.cpp:141] Setting up pool1
I0709 14:41:20.960055  1981 net.cpp:148] Top shape: 128 64 30 30 (7372800)
I0709 14:41:20.960060  1981 net.cpp:156] Memory required for data: 298518016
I0709 14:41:20.960065  1981 layer_factory.hpp:77] Creating layer conv2
I0709 14:41:20.960080  1981 net.cpp:91] Creating Layer conv2
I0709 14:41:20.960113  1981 net.cpp:425] conv2 <- pool1
I0709 14:41:20.960124  1981 net.cpp:399] conv2 -> conv2
I0709 14:41:20.963143  1981 net.cpp:141] Setting up conv2
I0709 14:41:20.963176  1981 net.cpp:148] Top shape: 128 128 13 13 (2768896)
I0709 14:41:20.963181  1981 net.cpp:156] Memory required for data: 309593600
I0709 14:41:20.963196  1981 layer_factory.hpp:77] Creating layer relu2
I0709 14:41:20.963207  1981 net.cpp:91] Creating Layer relu2
I0709 14:41:20.963212  1981 net.cpp:425] relu2 <- conv2
I0709 14:41:20.963220  1981 net.cpp:386] relu2 -> conv2 (in-place)
I0709 14:41:20.963470  1981 net.cpp:141] Setting up relu2
I0709 14:41:20.963491  1981 net.cpp:148] Top shape: 128 128 13 13 (2768896)
I0709 14:41:20.963497  1981 net.cpp:156] Memory required for data: 320669184
I0709 14:41:20.963502  1981 layer_factory.hpp:77] Creating layer conv3
I0709 14:41:20.963516  1981 net.cpp:91] Creating Layer conv3
I0709 14:41:20.963522  1981 net.cpp:425] conv3 <- conv2
I0709 14:41:20.963531  1981 net.cpp:399] conv3 -> conv3
I0709 14:41:20.967255  1981 net.cpp:141] Setting up conv3
I0709 14:41:20.967289  1981 net.cpp:148] Top shape: 128 256 11 11 (3964928)
I0709 14:41:20.967294  1981 net.cpp:156] Memory required for data: 336528896
I0709 14:41:20.967314  1981 layer_factory.hpp:77] Creating layer relu3
I0709 14:41:20.967327  1981 net.cpp:91] Creating Layer relu3
I0709 14:41:20.967334  1981 net.cpp:425] relu3 <- conv3
I0709 14:41:20.967344  1981 net.cpp:386] relu3 -> conv3 (in-place)
I0709 14:41:20.967599  1981 net.cpp:141] Setting up relu3
I0709 14:41:20.967622  1981 net.cpp:148] Top shape: 128 256 11 11 (3964928)
I0709 14:41:20.967628  1981 net.cpp:156] Memory required for data: 352388608
I0709 14:41:20.967633  1981 layer_factory.hpp:77] Creating layer pool3
I0709 14:41:20.967643  1981 net.cpp:91] Creating Layer pool3
I0709 14:41:20.967648  1981 net.cpp:425] pool3 <- conv3
I0709 14:41:20.967654  1981 net.cpp:399] pool3 -> pool3
I0709 14:41:20.967712  1981 net.cpp:141] Setting up pool3
I0709 14:41:20.967730  1981 net.cpp:148] Top shape: 128 256 5 5 (819200)
I0709 14:41:20.967735  1981 net.cpp:156] Memory required for data: 355665408
I0709 14:41:20.967739  1981 layer_factory.hpp:77] Creating layer fc4
I0709 14:41:20.967752  1981 net.cpp:91] Creating Layer fc4
I0709 14:41:20.967757  1981 net.cpp:425] fc4 <- pool3
I0709 14:41:20.967767  1981 net.cpp:399] fc4 -> fc4
I0709 14:41:21.028702  1981 net.cpp:141] Setting up fc4
I0709 14:41:21.028745  1981 net.cpp:148] Top shape: 128 1024 (131072)
I0709 14:41:21.028751  1981 net.cpp:156] Memory required for data: 356189696
I0709 14:41:21.028764  1981 layer_factory.hpp:77] Creating layer relu4
I0709 14:41:21.028776  1981 net.cpp:91] Creating Layer relu4
I0709 14:41:21.028784  1981 net.cpp:425] relu4 <- fc4
I0709 14:41:21.028800  1981 net.cpp:386] relu4 -> fc4 (in-place)
I0709 14:41:21.029206  1981 net.cpp:141] Setting up relu4
I0709 14:41:21.029227  1981 net.cpp:148] Top shape: 128 1024 (131072)
I0709 14:41:21.029233  1981 net.cpp:156] Memory required for data: 356713984
I0709 14:41:21.029238  1981 layer_factory.hpp:77] Creating layer dropout4
I0709 14:41:21.029248  1981 net.cpp:91] Creating Layer dropout4
I0709 14:41:21.029253  1981 net.cpp:425] dropout4 <- fc4
I0709 14:41:21.029263  1981 net.cpp:386] dropout4 -> fc4 (in-place)
I0709 14:41:21.029295  1981 net.cpp:141] Setting up dropout4
I0709 14:41:21.029311  1981 net.cpp:148] Top shape: 128 1024 (131072)
I0709 14:41:21.029316  1981 net.cpp:156] Memory required for data: 357238272
I0709 14:41:21.029321  1981 layer_factory.hpp:77] Creating layer fc5
I0709 14:41:21.029333  1981 net.cpp:91] Creating Layer fc5
I0709 14:41:21.029338  1981 net.cpp:425] fc5 <- fc4
I0709 14:41:21.029346  1981 net.cpp:399] fc5 -> fc5
I0709 14:41:21.029652  1981 net.cpp:141] Setting up fc5
I0709 14:41:21.029671  1981 net.cpp:148] Top shape: 128 20 (2560)
I0709 14:41:21.029676  1981 net.cpp:156] Memory required for data: 357248512
I0709 14:41:21.029690  1981 layer_factory.hpp:77] Creating layer fc5_fc5_0_split
I0709 14:41:21.029700  1981 net.cpp:91] Creating Layer fc5_fc5_0_split
I0709 14:41:21.029731  1981 net.cpp:425] fc5_fc5_0_split <- fc5
I0709 14:41:21.029743  1981 net.cpp:399] fc5_fc5_0_split -> fc5_fc5_0_split_0
I0709 14:41:21.029752  1981 net.cpp:399] fc5_fc5_0_split -> fc5_fc5_0_split_1
I0709 14:41:21.029794  1981 net.cpp:141] Setting up fc5_fc5_0_split
I0709 14:41:21.029810  1981 net.cpp:148] Top shape: 128 20 (2560)
I0709 14:41:21.029816  1981 net.cpp:148] Top shape: 128 20 (2560)
I0709 14:41:21.029821  1981 net.cpp:156] Memory required for data: 357268992
I0709 14:41:21.029826  1981 layer_factory.hpp:77] Creating layer loss
I0709 14:41:21.029836  1981 net.cpp:91] Creating Layer loss
I0709 14:41:21.029842  1981 net.cpp:425] loss <- fc5_fc5_0_split_0
I0709 14:41:21.029849  1981 net.cpp:425] loss <- label_data_1_split_0
I0709 14:41:21.029855  1981 net.cpp:399] loss -> loss
…
