…
I0709 12:46:41.772891  1867 net.cpp:313] The NetState phase (0) differed from the phase (1) specified by a rule in layer data
I0709 12:46:41.772923  1867 net.cpp:313] The NetState phase (0) differed from the phase (1) specified by a rule in layer accuracy
I0709 12:46:41.773087  1867 net.cpp:49] Initializing net from parameters: 
name: "Model2"
state {
  phase: TRAIN
}
layer {
  name: "data"
  type: "Data"
  top: "data"
  top: "label"
  include {
    phase: TRAIN
  }
  transform_param {
    mirror: true
    mean_file: "../lmdb/mean_file.binaryproto"
  }
  data_param {
    source: "../lmdb/train_lmdb"
    batch_size: 256
    backend: LMDB
  }
}
layer {
  name: "conv1"
  type: "Convolution"
  bottom: "data"
  top: "conv1"
  param {
    lr_mult: 1
    decay_mult: 0
  }
  param {
    lr_mult: 2
    decay_mult: 0
  }
  convolution_param {
    num_output: 64
    kernel_size: 7
    stride: 2
    weight_filler {
      type: "xavier"
    }
    bias_filler {
      type: "constant"
      value: 0.1
    }
  }
}
layer {
  name: "relu1"
  type: "ReLU"
  bottom: "conv1"
  top: "conv1"
}
layer {
  name: "pool1"
  type: "Pooling"
  bottom: "conv1"
  top: "pool1"
  pooling_param {
    pool: MAX
    kernel_size: 3
    stride: 2
  }
}
layer {
  name: "conv2"
  type: "Convolution"
  bottom: "pool1"
  top: "conv2"
  param {
    lr_mult: 1
    decay_mult: 0
  }
  param {
    lr_mult: 2
    decay_mult: 0
  }
  convolution_param {
    num_output: 128
    kernel_size: 5
    stride: 2
    weight_filler {
      type: "xavier"
    }
    bias_filler {
      type: "constant"
      value: 0.1
    }
  }
}
layer {
  name: "relu2"
  type: "ReLU"
  bottom: "conv2"
  top: "conv2"
}
layer {
  name: "conv3"
  type: "Convolution"
  bottom: "conv2"
  top: "conv3"
  param {
    lr_mult: 1
    decay_mult: 0
  }
  param {
    lr_mult: 2
    decay_mult: 0
  }
  convolution_param {
    num_output: 256
    kernel_size: 3
    stride: 1
    weight_filler {
      type: "xavier"
    }
    bias_filler {
      type: "constant"
      value: 0.1
    }
  }
}
layer {
  name: "relu3"
  type: "ReLU"
  bottom: "conv3"
  top: "conv3"
}
layer {
  name: "pool3"
  type: "Pooling"
  bottom: "conv3"
  top: "pool3"
  pooling_param {
    pool: MAX
    kernel_size: 3
    stride: 2
  }
}
layer {
  name: "fc4"
  type: "InnerProduct"
  bottom: "pool3"
  top: "fc4"
  param {
    lr_mult: 1
    decay_mult: 0
  }
  param {
    lr_mult: 2
    decay_mult: 0
  }
  inner_product_param {
    num_output: 1024
    weight_filler {
      type: "xavier"
    }
    bias_filler {
      type: "constant"
      value: 0
    }
  }
}
layer {
  name: "relu4"
  type: "ReLU"
  bottom: "fc4"
  top: "fc4"
}
layer {
  name: "dropout4"
  type: "Dropout"
  bottom: "fc4"
  top: "fc4"
  dropout_param {
    dropout_ratio: 0.5
  }
}
layer {
  name: "fc5"
  type: "InnerProduct"
  bottom: "fc4"
  top: "fc5"
  param {
    lr_mult: 1
    decay_mult: 0
  }
  param {
    lr_mult: 2
    decay_mult: 0
  }
  inner_product_param {
    num_output: 20
    weight_filler {
      type: "xavier"
    }
    bias_filler {
      type: "constant"
      value: 0
    }
  }
}
layer {
  name: "loss"
  type: "SoftmaxWithLoss"
  bottom: "fc5"
  bottom: "label"
  top: "loss"
}
layer {
  name: "accuracy"
  type: "Accuracy"
  bottom: "fc5"
  bottom: "label"
  top: "accuracy"
  include {
    phase: TRAIN
  }
}
I0709 12:46:41.773224  1867 layer_factory.hpp:77] Creating layer data
I0709 12:46:41.773864  1867 net.cpp:91] Creating Layer data
I0709 12:46:41.773888  1867 net.cpp:399] data -> data
I0709 12:46:41.773931  1867 net.cpp:399] data -> label
I0709 12:46:41.773955  1867 data_transformer.cpp:25] Loading mean file from: ../lmdb/mean_file.binaryproto
I0709 12:46:41.774636  1874 db_lmdb.cpp:35] Opened lmdb ../lmdb/train_lmdb
I0709 12:46:41.787485  1867 data_layer.cpp:41] output data size: 256,3,128,128
I0709 12:46:41.875826  1867 net.cpp:141] Setting up data
I0709 12:46:41.875879  1867 net.cpp:148] Top shape: 256 3 128 128 (12582912)
I0709 12:46:41.875887  1867 net.cpp:148] Top shape: 256 (256)
I0709 12:46:41.875892  1867 net.cpp:156] Memory required for data: 50332672
I0709 12:46:41.875903  1867 layer_factory.hpp:77] Creating layer label_data_1_split
I0709 12:46:41.875931  1867 net.cpp:91] Creating Layer label_data_1_split
I0709 12:46:41.875941  1867 net.cpp:425] label_data_1_split <- label
I0709 12:46:41.875958  1867 net.cpp:399] label_data_1_split -> label_data_1_split_0
I0709 12:46:41.875980  1867 net.cpp:399] label_data_1_split -> label_data_1_split_1
I0709 12:46:41.876035  1867 net.cpp:141] Setting up label_data_1_split
I0709 12:46:41.876052  1867 net.cpp:148] Top shape: 256 (256)
I0709 12:46:41.876058  1867 net.cpp:148] Top shape: 256 (256)
I0709 12:46:41.876063  1867 net.cpp:156] Memory required for data: 50334720
I0709 12:46:41.876068  1867 layer_factory.hpp:77] Creating layer conv1
I0709 12:46:41.876091  1867 net.cpp:91] Creating Layer conv1
I0709 12:46:41.876103  1867 net.cpp:425] conv1 <- data
I0709 12:46:41.876113  1867 net.cpp:399] conv1 -> conv1
I0709 12:46:42.055125  1867 net.cpp:141] Setting up conv1
I0709 12:46:42.055166  1867 net.cpp:148] Top shape: 256 64 61 61 (60964864)
I0709 12:46:42.055172  1867 net.cpp:156] Memory required for data: 294194176
I0709 12:46:42.055198  1867 layer_factory.hpp:77] Creating layer relu1
I0709 12:46:42.055217  1867 net.cpp:91] Creating Layer relu1
I0709 12:46:42.055223  1867 net.cpp:425] relu1 <- conv1
I0709 12:46:42.055233  1867 net.cpp:386] relu1 -> conv1 (in-place)
I0709 12:46:42.055459  1867 net.cpp:141] Setting up relu1
I0709 12:46:42.055490  1867 net.cpp:148] Top shape: 256 64 61 61 (60964864)
I0709 12:46:42.055497  1867 net.cpp:156] Memory required for data: 538053632
I0709 12:46:42.055503  1867 layer_factory.hpp:77] Creating layer pool1
I0709 12:46:42.055516  1867 net.cpp:91] Creating Layer pool1
I0709 12:46:42.055526  1867 net.cpp:425] pool1 <- conv1
I0709 12:46:42.055534  1867 net.cpp:399] pool1 -> pool1
I0709 12:46:42.055596  1867 net.cpp:141] Setting up pool1
I0709 12:46:42.055613  1867 net.cpp:148] Top shape: 256 64 30 30 (14745600)
I0709 12:46:42.055619  1867 net.cpp:156] Memory required for data: 597036032
I0709 12:46:42.055624  1867 layer_factory.hpp:77] Creating layer conv2
I0709 12:46:42.055639  1867 net.cpp:91] Creating Layer conv2
I0709 12:46:42.055649  1867 net.cpp:425] conv2 <- pool1
I0709 12:46:42.055657  1867 net.cpp:399] conv2 -> conv2
I0709 12:46:42.058534  1867 net.cpp:141] Setting up conv2
I0709 12:46:42.058560  1867 net.cpp:148] Top shape: 256 128 13 13 (5537792)
I0709 12:46:42.058568  1867 net.cpp:156] Memory required for data: 619187200
I0709 12:46:42.058581  1867 layer_factory.hpp:77] Creating layer relu2
I0709 12:46:42.058590  1867 net.cpp:91] Creating Layer relu2
I0709 12:46:42.058596  1867 net.cpp:425] relu2 <- conv2
I0709 12:46:42.058604  1867 net.cpp:386] relu2 -> conv2 (in-place)
I0709 12:46:42.058933  1867 net.cpp:141] Setting up relu2
I0709 12:46:42.058956  1867 net.cpp:148] Top shape: 256 128 13 13 (5537792)
I0709 12:46:42.058962  1867 net.cpp:156] Memory required for data: 641338368
I0709 12:46:42.058967  1867 layer_factory.hpp:77] Creating layer conv3
I0709 12:46:42.058982  1867 net.cpp:91] Creating Layer conv3
I0709 12:46:42.058989  1867 net.cpp:425] conv3 <- conv2
I0709 12:46:42.058998  1867 net.cpp:399] conv3 -> conv3
I0709 12:46:42.062795  1867 net.cpp:141] Setting up conv3
I0709 12:46:42.062829  1867 net.cpp:148] Top shape: 256 256 11 11 (7929856)
I0709 12:46:42.062836  1867 net.cpp:156] Memory required for data: 673057792
I0709 12:46:42.062852  1867 layer_factory.hpp:77] Creating layer relu3
I0709 12:46:42.062865  1867 net.cpp:91] Creating Layer relu3
I0709 12:46:42.062871  1867 net.cpp:425] relu3 <- conv3
I0709 12:46:42.062917  1867 net.cpp:386] relu3 -> conv3 (in-place)
I0709 12:46:42.063240  1867 net.cpp:141] Setting up relu3
I0709 12:46:42.063261  1867 net.cpp:148] Top shape: 256 256 11 11 (7929856)
I0709 12:46:42.063266  1867 net.cpp:156] Memory required for data: 704777216
I0709 12:46:42.063272  1867 layer_factory.hpp:77] Creating layer pool3
I0709 12:46:42.063282  1867 net.cpp:91] Creating Layer pool3
I0709 12:46:42.063287  1867 net.cpp:425] pool3 <- conv3
I0709 12:46:42.063300  1867 net.cpp:399] pool3 -> pool3
I0709 12:46:42.063398  1867 net.cpp:141] Setting up pool3
I0709 12:46:42.063419  1867 net.cpp:148] Top shape: 256 256 5 5 (1638400)
I0709 12:46:42.063424  1867 net.cpp:156] Memory required for data: 711330816
I0709 12:46:42.063431  1867 layer_factory.hpp:77] Creating layer fc4
I0709 12:46:42.063444  1867 net.cpp:91] Creating Layer fc4
I0709 12:46:42.063451  1867 net.cpp:425] fc4 <- pool3
I0709 12:46:42.063460  1867 net.cpp:399] fc4 -> fc4
I0709 12:46:42.120682  1867 net.cpp:141] Setting up fc4
I0709 12:46:42.120730  1867 net.cpp:148] Top shape: 256 1024 (262144)
I0709 12:46:42.120736  1867 net.cpp:156] Memory required for data: 712379392
I0709 12:46:42.120749  1867 layer_factory.hpp:77] Creating layer relu4
I0709 12:46:42.120764  1867 net.cpp:91] Creating Layer relu4
I0709 12:46:42.120771  1867 net.cpp:425] relu4 <- fc4
I0709 12:46:42.120782  1867 net.cpp:386] relu4 -> fc4 (in-place)
I0709 12:46:42.120985  1867 net.cpp:141] Setting up relu4
I0709 12:46:42.121003  1867 net.cpp:148] Top shape: 256 1024 (262144)
I0709 12:46:42.121008  1867 net.cpp:156] Memory required for data: 713427968
I0709 12:46:42.121013  1867 layer_factory.hpp:77] Creating layer dropout4
I0709 12:46:42.121028  1867 net.cpp:91] Creating Layer dropout4
I0709 12:46:42.121034  1867 net.cpp:425] dropout4 <- fc4
I0709 12:46:42.121042  1867 net.cpp:386] dropout4 -> fc4 (in-place)
I0709 12:46:42.121076  1867 net.cpp:141] Setting up dropout4
I0709 12:46:42.121093  1867 net.cpp:148] Top shape: 256 1024 (262144)
I0709 12:46:42.121098  1867 net.cpp:156] Memory required for data: 714476544
I0709 12:46:42.121103  1867 layer_factory.hpp:77] Creating layer fc5
I0709 12:46:42.121112  1867 net.cpp:91] Creating Layer fc5
I0709 12:46:42.121117  1867 net.cpp:425] fc5 <- fc4
I0709 12:46:42.121127  1867 net.cpp:399] fc5 -> fc5
I0709 12:46:42.121423  1867 net.cpp:141] Setting up fc5
I0709 12:46:42.121441  1867 net.cpp:148] Top shape: 256 20 (5120)
I0709 12:46:42.121448  1867 net.cpp:156] Memory required for data: 714497024
I0709 12:46:42.121464  1867 layer_factory.hpp:77] Creating layer fc5_fc5_0_split
I0709 12:46:42.121472  1867 net.cpp:91] Creating Layer fc5_fc5_0_split
I0709 12:46:42.121480  1867 net.cpp:425] fc5_fc5_0_split <- fc5
I0709 12:46:42.121490  1867 net.cpp:399] fc5_fc5_0_split -> fc5_fc5_0_split_0
I0709 12:46:42.121498  1867 net.cpp:399] fc5_fc5_0_split -> fc5_fc5_0_split_1
I0709 12:46:42.121536  1867 net.cpp:141] Setting up fc5_fc5_0_split
I0709 12:46:42.121553  1867 net.cpp:148] Top shape: 256 20 (5120)
I0709 12:46:42.121559  1867 net.cpp:148] Top shape: 256 20 (5120)
I0709 12:46:42.121564  1867 net.cpp:156] Memory required for data: 714537984
I0709 12:46:42.121569  1867 layer_factory.hpp:77] Creating layer loss
I0709 12:46:42.121584  1867 net.cpp:91] Creating Layer loss
I0709 12:46:42.121589  1867 net.cpp:425] loss <- fc5_fc5_0_split_0
I0709 12:46:42.121595  1867 net.cpp:425] loss <- label_data_1_split_0
I0709 12:46:42.121603  1867 net.cpp:399] loss -> loss
…
I0709 12:46:42.122884  1867 net.cpp:313] The NetState phase (1) differed from the phase (0) specified by a rule in layer data
I0709 12:46:42.122916  1867 net.cpp:313] The NetState phase (1) differed from the phase (0) specified by a rule in layer accuracy
I0709 12:46:42.123059  1867 net.cpp:49] Initializing net from parameters: 
name: "Model2"
state {
  phase: TEST
}
layer {
  name: "data"
  type: "Data"
  top: "data"
  top: "label"
  include {
    phase: TEST
  }
  transform_param {
    mirror: false
    mean_file: "../lmdb/mean_file.binaryproto"
  }
  data_param {
    source: "../lmdb/val_lmdb"
    batch_size: 128
    backend: LMDB
  }
}
layer {
  name: "conv1"
  type: "Convolution"
  bottom: "data"
  top: "conv1"
  param {
    lr_mult: 1
    decay_mult: 0
  }
  param {
    lr_mult: 2
    decay_mult: 0
  }
  convolution_param {
    num_output: 64
    kernel_size: 7
    stride: 2
    weight_filler {
      type: "xavier"
    }
    bias_filler {
      type: "constant"
      value: 0.1
    }
  }
}
layer {
  name: "relu1"
  type: "ReLU"
  bottom: "conv1"
  top: "conv1"
}
layer {
  name: "pool1"
  type: "Pooling"
  bottom: "conv1"
  top: "pool1"
  pooling_param {
    pool: MAX
    kernel_size: 3
    stride: 2
  }
}
layer {
  name: "conv2"
  type: "Convolution"
  bottom: "pool1"
  top: "conv2"
  param {
    lr_mult: 1
    decay_mult: 0
  }
  param {
    lr_mult: 2
    decay_mult: 0
  }
  convolution_param {
    num_output: 128
    kernel_size: 5
    stride: 2
    weight_filler {
      type: "xavier"
    }
    bias_filler {
      type: "constant"
      value: 0.1
    }
  }
}
layer {
  name: "relu2"
  type: "ReLU"
  bottom: "conv2"
  top: "conv2"
}
layer {
  name: "conv3"
  type: "Convolution"
  bottom: "conv2"
  top: "conv3"
  param {
    lr_mult: 1
    decay_mult: 0
  }
  param {
    lr_mult: 2
    decay_mult: 0
  }
  convolution_param {
    num_output: 256
    kernel_size: 3
    stride: 1
    weight_filler {
      type: "xavier"
    }
    bias_filler {
      type: "constant"
      value: 0.1
    }
  }
}
layer {
  name: "relu3"
  type: "ReLU"
  bottom: "conv3"
  top: "conv3"
}
layer {
  name: "pool3"
  type: "Pooling"
  bottom: "conv3"
  top: "pool3"
  pooling_param {
    pool: MAX
    kernel_size: 3
    stride: 2
  }
}
layer {
  name: "fc4"
  type: "InnerProduct"
  bottom: "pool3"
  top: "fc4"
  param {
    lr_mult: 1
    decay_mult: 0
  }
  param {
    lr_mult: 2
    decay_mult: 0
  }
  inner_product_param {
    num_output: 1024
    weight_filler {
      type: "xavier"
    }
    bias_filler {
      type: "constant"
      value: 0
    }
  }
}
layer {
  name: "relu4"
  type: "ReLU"
  bottom: "fc4"
  top: "fc4"
}
layer {
  name: "dropout4"
  type: "Dropout"
  bottom: "fc4"
  top: "fc4"
  dropout_param {
    dropout_ratio: 0.5
  }
}
layer {
  name: "fc5"
  type: "InnerProduct"
  bottom: "fc4"
  top: "fc5"
  param {
    lr_mult: 1
    decay_mult: 0
  }
  param {
    lr_mult: 2
    decay_mult: 0
  }
  inner_product_param {
    num_output: 20
    weight_filler {
      type: "xavier"
    }
    bias_filler {
      type: "constant"
      value: 0
    }
  }
}
layer {
  name: "loss"
  type: "SoftmaxWithLoss"
  bottom: "fc5"
  bottom: "label"
  top: "loss"
}
layer {
  name: "accuracy"
  type: "Accuracy"
  bottom: "fc5"
  bottom: "label"
  top: "accuracy"
  include {
    phase: TEST
  }
}
I0709 12:46:42.123179  1867 layer_factory.hpp:77] Creating layer data
I0709 12:46:42.123692  1867 net.cpp:91] Creating Layer data
I0709 12:46:42.123734  1867 net.cpp:399] data -> data
I0709 12:46:42.123752  1867 net.cpp:399] data -> label
I0709 12:46:42.123764  1867 data_transformer.cpp:25] Loading mean file from: ../lmdb/mean_file.binaryproto
I0709 12:46:42.124517  1876 db_lmdb.cpp:35] Opened lmdb ../lmdb/val_lmdb
I0709 12:46:42.124719  1867 data_layer.cpp:41] output data size: 128,3,128,128
I0709 12:46:42.170583  1867 net.cpp:141] Setting up data
I0709 12:46:42.170624  1867 net.cpp:148] Top shape: 128 3 128 128 (6291456)
I0709 12:46:42.170631  1867 net.cpp:148] Top shape: 128 (128)
I0709 12:46:42.170636  1867 net.cpp:156] Memory required for data: 25166336
I0709 12:46:42.170644  1867 layer_factory.hpp:77] Creating layer label_data_1_split
I0709 12:46:42.170660  1867 net.cpp:91] Creating Layer label_data_1_split
I0709 12:46:42.170666  1867 net.cpp:425] label_data_1_split <- label
I0709 12:46:42.170676  1867 net.cpp:399] label_data_1_split -> label_data_1_split_0
I0709 12:46:42.170689  1867 net.cpp:399] label_data_1_split -> label_data_1_split_1
I0709 12:46:42.170758  1867 net.cpp:141] Setting up label_data_1_split
I0709 12:46:42.170770  1867 net.cpp:148] Top shape: 128 (128)
I0709 12:46:42.170791  1867 net.cpp:148] Top shape: 128 (128)
I0709 12:46:42.170796  1867 net.cpp:156] Memory required for data: 25167360
I0709 12:46:42.170801  1867 layer_factory.hpp:77] Creating layer conv1
I0709 12:46:42.170819  1867 net.cpp:91] Creating Layer conv1
I0709 12:46:42.170824  1867 net.cpp:425] conv1 <- data
I0709 12:46:42.170832  1867 net.cpp:399] conv1 -> conv1
I0709 12:46:42.175107  1867 net.cpp:141] Setting up conv1
I0709 12:46:42.175151  1867 net.cpp:148] Top shape: 128 64 61 61 (30482432)
I0709 12:46:42.175158  1867 net.cpp:156] Memory required for data: 147097088
I0709 12:46:42.175176  1867 layer_factory.hpp:77] Creating layer relu1
I0709 12:46:42.175190  1867 net.cpp:91] Creating Layer relu1
I0709 12:46:42.175196  1867 net.cpp:425] relu1 <- conv1
I0709 12:46:42.175206  1867 net.cpp:386] relu1 -> conv1 (in-place)
I0709 12:46:42.175390  1867 net.cpp:141] Setting up relu1
I0709 12:46:42.175408  1867 net.cpp:148] Top shape: 128 64 61 61 (30482432)
I0709 12:46:42.175413  1867 net.cpp:156] Memory required for data: 269026816
I0709 12:46:42.175420  1867 layer_factory.hpp:77] Creating layer pool1
I0709 12:46:42.175431  1867 net.cpp:91] Creating Layer pool1
I0709 12:46:42.175436  1867 net.cpp:425] pool1 <- conv1
I0709 12:46:42.175443  1867 net.cpp:399] pool1 -> pool1
I0709 12:46:42.175493  1867 net.cpp:141] Setting up pool1
I0709 12:46:42.175505  1867 net.cpp:148] Top shape: 128 64 30 30 (7372800)
I0709 12:46:42.175509  1867 net.cpp:156] Memory required for data: 298518016
I0709 12:46:42.175514  1867 layer_factory.hpp:77] Creating layer conv2
I0709 12:46:42.175529  1867 net.cpp:91] Creating Layer conv2
I0709 12:46:42.175559  1867 net.cpp:425] conv2 <- pool1
I0709 12:46:42.175570  1867 net.cpp:399] conv2 -> conv2
I0709 12:46:42.178577  1867 net.cpp:141] Setting up conv2
I0709 12:46:42.178619  1867 net.cpp:148] Top shape: 128 128 13 13 (2768896)
I0709 12:46:42.178627  1867 net.cpp:156] Memory required for data: 309593600
I0709 12:46:42.178644  1867 layer_factory.hpp:77] Creating layer relu2
I0709 12:46:42.178658  1867 net.cpp:91] Creating Layer relu2
I0709 12:46:42.178663  1867 net.cpp:425] relu2 <- conv2
I0709 12:46:42.178673  1867 net.cpp:386] relu2 -> conv2 (in-place)
I0709 12:46:42.178954  1867 net.cpp:141] Setting up relu2
I0709 12:46:42.178979  1867 net.cpp:148] Top shape: 128 128 13 13 (2768896)
I0709 12:46:42.178984  1867 net.cpp:156] Memory required for data: 320669184
I0709 12:46:42.178990  1867 layer_factory.hpp:77] Creating layer conv3
I0709 12:46:42.179005  1867 net.cpp:91] Creating Layer conv3
I0709 12:46:42.179010  1867 net.cpp:425] conv3 <- conv2
I0709 12:46:42.179020  1867 net.cpp:399] conv3 -> conv3
I0709 12:46:42.182744  1867 net.cpp:141] Setting up conv3
I0709 12:46:42.182804  1867 net.cpp:148] Top shape: 128 256 11 11 (3964928)
I0709 12:46:42.182811  1867 net.cpp:156] Memory required for data: 336528896
I0709 12:46:42.182829  1867 layer_factory.hpp:77] Creating layer relu3
I0709 12:46:42.182847  1867 net.cpp:91] Creating Layer relu3
I0709 12:46:42.182854  1867 net.cpp:425] relu3 <- conv3
I0709 12:46:42.182865  1867 net.cpp:386] relu3 -> conv3 (in-place)
I0709 12:46:42.183109  1867 net.cpp:141] Setting up relu3
I0709 12:46:42.183130  1867 net.cpp:148] Top shape: 128 256 11 11 (3964928)
I0709 12:46:42.183136  1867 net.cpp:156] Memory required for data: 352388608
I0709 12:46:42.183141  1867 layer_factory.hpp:77] Creating layer pool3
I0709 12:46:42.183154  1867 net.cpp:91] Creating Layer pool3
I0709 12:46:42.183159  1867 net.cpp:425] pool3 <- conv3
I0709 12:46:42.183167  1867 net.cpp:399] pool3 -> pool3
I0709 12:46:42.183226  1867 net.cpp:141] Setting up pool3
I0709 12:46:42.183243  1867 net.cpp:148] Top shape: 128 256 5 5 (819200)
I0709 12:46:42.183249  1867 net.cpp:156] Memory required for data: 355665408
I0709 12:46:42.183254  1867 layer_factory.hpp:77] Creating layer fc4
I0709 12:46:42.183269  1867 net.cpp:91] Creating Layer fc4
I0709 12:46:42.183274  1867 net.cpp:425] fc4 <- pool3
I0709 12:46:42.183281  1867 net.cpp:399] fc4 -> fc4
I0709 12:46:42.240265  1867 net.cpp:141] Setting up fc4
I0709 12:46:42.240309  1867 net.cpp:148] Top shape: 128 1024 (131072)
I0709 12:46:42.240315  1867 net.cpp:156] Memory required for data: 356189696
I0709 12:46:42.240327  1867 layer_factory.hpp:77] Creating layer relu4
I0709 12:46:42.240340  1867 net.cpp:91] Creating Layer relu4
I0709 12:46:42.240347  1867 net.cpp:425] relu4 <- fc4
I0709 12:46:42.240358  1867 net.cpp:386] relu4 -> fc4 (in-place)
I0709 12:46:42.240746  1867 net.cpp:141] Setting up relu4
I0709 12:46:42.240768  1867 net.cpp:148] Top shape: 128 1024 (131072)
I0709 12:46:42.240774  1867 net.cpp:156] Memory required for data: 356713984
I0709 12:46:42.240779  1867 layer_factory.hpp:77] Creating layer dropout4
I0709 12:46:42.240789  1867 net.cpp:91] Creating Layer dropout4
I0709 12:46:42.240794  1867 net.cpp:425] dropout4 <- fc4
I0709 12:46:42.240802  1867 net.cpp:386] dropout4 -> fc4 (in-place)
I0709 12:46:42.240830  1867 net.cpp:141] Setting up dropout4
I0709 12:46:42.240845  1867 net.cpp:148] Top shape: 128 1024 (131072)
I0709 12:46:42.240850  1867 net.cpp:156] Memory required for data: 357238272
I0709 12:46:42.240855  1867 layer_factory.hpp:77] Creating layer fc5
I0709 12:46:42.240869  1867 net.cpp:91] Creating Layer fc5
I0709 12:46:42.240875  1867 net.cpp:425] fc5 <- fc4
I0709 12:46:42.240885  1867 net.cpp:399] fc5 -> fc5
I0709 12:46:42.241166  1867 net.cpp:141] Setting up fc5
I0709 12:46:42.241183  1867 net.cpp:148] Top shape: 128 20 (2560)
I0709 12:46:42.241191  1867 net.cpp:156] Memory required for data: 357248512
I0709 12:46:42.241205  1867 layer_factory.hpp:77] Creating layer fc5_fc5_0_split
I0709 12:46:42.241214  1867 net.cpp:91] Creating Layer fc5_fc5_0_split
I0709 12:46:42.241242  1867 net.cpp:425] fc5_fc5_0_split <- fc5
I0709 12:46:42.241251  1867 net.cpp:399] fc5_fc5_0_split -> fc5_fc5_0_split_0
I0709 12:46:42.241263  1867 net.cpp:399] fc5_fc5_0_split -> fc5_fc5_0_split_1
I0709 12:46:42.241307  1867 net.cpp:141] Setting up fc5_fc5_0_split
I0709 12:46:42.241322  1867 net.cpp:148] Top shape: 128 20 (2560)
I0709 12:46:42.241328  1867 net.cpp:148] Top shape: 128 20 (2560)
I0709 12:46:42.241333  1867 net.cpp:156] Memory required for data: 357268992
I0709 12:46:42.241338  1867 layer_factory.hpp:77] Creating layer loss
I0709 12:46:42.241345  1867 net.cpp:91] Creating Layer loss
I0709 12:46:42.241350  1867 net.cpp:425] loss <- fc5_fc5_0_split_0
I0709 12:46:42.241359  1867 net.cpp:425] loss <- label_data_1_split_0
I0709 12:46:42.241366  1867 net.cpp:399] loss -> loss
…
