…
I0709 06:46:38.728901  1870 net.cpp:313] The NetState phase (0) differed from the phase (1) specified by a rule in layer data
I0709 06:46:38.728931  1870 net.cpp:313] The NetState phase (0) differed from the phase (1) specified by a rule in layer accuracy
I0709 06:46:38.729023  1870 net.cpp:49] Initializing net from parameters: 
name: "Model1"
state {
  phase: TRAIN
}
layer {
  name: "data"
  type: "Data"
  top: "data"
  top: "label"
  include {
    phase: TRAIN
  }
  transform_param {
    mirror: true
    mean_file: "../lmdb/mean_file.binaryproto"
  }
  data_param {
    source: "../lmdb/train_lmdb"
    batch_size: 256
    backend: LMDB
  }
}
layer {
  name: "conv1"
  type: "Convolution"
  bottom: "data"
  top: "conv1"
  param {
    lr_mult: 1
    decay_mult: 0
  }
  param {
    lr_mult: 2
    decay_mult: 0
  }
  convolution_param {
    num_output: 32
    kernel_size: 5
    stride: 2
    weight_filler {
      type: "xavier"
    }
    bias_filler {
      type: "constant"
      value: 0
    }
  }
}
layer {
  name: "relu1"
  type: "ReLU"
  bottom: "conv1"
  top: "conv1"
}
layer {
  name: "fc2"
  type: "InnerProduct"
  bottom: "conv1"
  top: "fc2"
  param {
    lr_mult: 1
    decay_mult: 0
  }
  param {
    lr_mult: 2
    decay_mult: 0
  }
  inner_product_param {
    num_output: 1024
    weight_filler {
      type: "xavier"
    }
    bias_filler {
      type: "constant"
      value: 0
    }
  }
}
layer {
  name: "relu2"
  type: "ReLU"
  bottom: "fc2"
  top: "fc2"
}
layer {
  name: "fc3"
  type: "InnerProduct"
  bottom: "fc2"
  top: "fc3"
  param {
    lr_mult: 1
    decay_mult: 0
  }
  param {
    lr_mult: 2
    decay_mult: 0
  }
  inner_product_param {
    num_output: 20
    weight_filler {
      type: "xavier"
    }
    bias_filler {
      type: "constant"
      value: 0
    }
  }
}
layer {
  name: "loss"
  type: "SoftmaxWithLoss"
  bottom: "fc3"
  bottom: "label"
  top: "loss"
}
layer {
  name: "accuracy"
  type: "Accuracy"
  bottom: "fc3"
  bottom: "label"
  top: "accuracy"
  include {
    phase: TRAIN
  }
}
I0709 06:46:38.729140  1870 layer_factory.hpp:77] Creating layer data
I0709 06:46:38.841028  1870 net.cpp:91] Creating Layer data
I0709 06:46:38.841056  1870 net.cpp:399] data -> data
I0709 06:46:38.841094  1870 net.cpp:399] data -> label
I0709 06:46:38.841121  1870 data_transformer.cpp:25] Loading mean file from: ../lmdb/mean_file.binaryproto
I0709 06:46:39.288985  1885 db_lmdb.cpp:35] Opened lmdb ../lmdb/train_lmdb
I0709 06:46:40.120046  1870 data_layer.cpp:41] output data size: 256,3,128,128
I0709 06:46:40.206282  1870 net.cpp:141] Setting up data
I0709 06:46:40.206354  1870 net.cpp:148] Top shape: 256 3 128 128 (12582912)
I0709 06:46:40.206363  1870 net.cpp:148] Top shape: 256 (256)
I0709 06:46:40.206369  1870 net.cpp:156] Memory required for data: 50332672
I0709 06:46:40.206382  1870 layer_factory.hpp:77] Creating layer label_data_1_split
I0709 06:46:40.207087  1870 net.cpp:91] Creating Layer label_data_1_split
I0709 06:46:40.207106  1870 net.cpp:425] label_data_1_split <- label
I0709 06:46:40.207125  1870 net.cpp:399] label_data_1_split -> label_data_1_split_0
I0709 06:46:40.207141  1870 net.cpp:399] label_data_1_split -> label_data_1_split_1
I0709 06:46:40.212683  1870 net.cpp:141] Setting up label_data_1_split
I0709 06:46:40.212704  1870 net.cpp:148] Top shape: 256 (256)
I0709 06:46:40.212712  1870 net.cpp:148] Top shape: 256 (256)
I0709 06:46:40.212715  1870 net.cpp:156] Memory required for data: 50334720
I0709 06:46:40.212721  1870 layer_factory.hpp:77] Creating layer conv1
I0709 06:46:40.212749  1870 net.cpp:91] Creating Layer conv1
I0709 06:46:40.212775  1870 net.cpp:425] conv1 <- data
I0709 06:46:40.212787  1870 net.cpp:399] conv1 -> conv1
I0709 06:46:40.222165  1886 blocking_queue.cpp:50] Waiting for data
I0709 06:47:01.449198  1870 net.cpp:141] Setting up conv1
I0709 06:47:01.449280  1870 net.cpp:148] Top shape: 256 32 62 62 (31490048)
I0709 06:47:01.449286  1870 net.cpp:156] Memory required for data: 176294912
I0709 06:47:01.449311  1870 layer_factory.hpp:77] Creating layer relu1
I0709 06:47:01.449327  1870 net.cpp:91] Creating Layer relu1
I0709 06:47:01.449333  1870 net.cpp:425] relu1 <- conv1
I0709 06:47:01.449345  1870 net.cpp:386] relu1 -> conv1 (in-place)
I0709 06:47:01.449492  1870 net.cpp:141] Setting up relu1
I0709 06:47:01.449512  1870 net.cpp:148] Top shape: 256 32 62 62 (31490048)
I0709 06:47:01.449518  1870 net.cpp:156] Memory required for data: 302255104
I0709 06:47:01.449524  1870 layer_factory.hpp:77] Creating layer fc2
I0709 06:47:01.449539  1870 net.cpp:91] Creating Layer fc2
I0709 06:47:01.449544  1870 net.cpp:425] fc2 <- conv1
I0709 06:47:01.449553  1870 net.cpp:399] fc2 -> fc2
I0709 06:47:02.527801  1870 net.cpp:141] Setting up fc2
I0709 06:47:02.527848  1870 net.cpp:148] Top shape: 256 1024 (262144)
I0709 06:47:02.527853  1870 net.cpp:156] Memory required for data: 303303680
I0709 06:47:02.527873  1870 layer_factory.hpp:77] Creating layer relu2
I0709 06:47:02.527886  1870 net.cpp:91] Creating Layer relu2
I0709 06:47:02.527894  1870 net.cpp:425] relu2 <- fc2
I0709 06:47:02.527902  1870 net.cpp:386] relu2 -> fc2 (in-place)
I0709 06:47:02.528306  1870 net.cpp:141] Setting up relu2
I0709 06:47:02.528326  1870 net.cpp:148] Top shape: 256 1024 (262144)
I0709 06:47:02.528332  1870 net.cpp:156] Memory required for data: 304352256
I0709 06:47:02.528338  1870 layer_factory.hpp:77] Creating layer fc3
I0709 06:47:02.528352  1870 net.cpp:91] Creating Layer fc3
I0709 06:47:02.528357  1870 net.cpp:425] fc3 <- fc2
I0709 06:47:02.528365  1870 net.cpp:399] fc3 -> fc3
I0709 06:47:02.528662  1870 net.cpp:141] Setting up fc3
I0709 06:47:02.528683  1870 net.cpp:148] Top shape: 256 20 (5120)
I0709 06:47:02.528688  1870 net.cpp:156] Memory required for data: 304372736
I0709 06:47:02.528700  1870 layer_factory.hpp:77] Creating layer fc3_fc3_0_split
I0709 06:47:02.528709  1870 net.cpp:91] Creating Layer fc3_fc3_0_split
I0709 06:47:02.528715  1870 net.cpp:425] fc3_fc3_0_split <- fc3
I0709 06:47:02.528725  1870 net.cpp:399] fc3_fc3_0_split -> fc3_fc3_0_split_0
I0709 06:47:02.528736  1870 net.cpp:399] fc3_fc3_0_split -> fc3_fc3_0_split_1
I0709 06:47:02.528805  1870 net.cpp:141] Setting up fc3_fc3_0_split
I0709 06:47:02.528833  1870 net.cpp:148] Top shape: 256 20 (5120)
I0709 06:47:02.528846  1870 net.cpp:148] Top shape: 256 20 (5120)
I0709 06:47:02.528851  1870 net.cpp:156] Memory required for data: 304413696
I0709 06:47:02.528856  1870 layer_factory.hpp:77] Creating layer loss
I0709 06:47:02.529522  1870 net.cpp:91] Creating Layer loss
I0709 06:47:02.529537  1870 net.cpp:425] loss <- fc3_fc3_0_split_0
I0709 06:47:02.529544  1870 net.cpp:425] loss <- label_data_1_split_0
I0709 06:47:02.529552  1870 net.cpp:399] loss -> loss
…
I0709 06:47:02.531312  1870 net.cpp:313] The NetState phase (1) differed from the phase (0) specified by a rule in layer data
I0709 06:47:02.531342  1870 net.cpp:313] The NetState phase (1) differed from the phase (0) specified by a rule in layer accuracy
I0709 06:47:02.531436  1870 net.cpp:49] Initializing net from parameters: 
name: "Model1"
state {
  phase: TEST
}
layer {
  name: "data"
  type: "Data"
  top: "data"
  top: "label"
  include {
    phase: TEST
  }
  transform_param {
    mirror: false
    mean_file: "../lmdb/mean_file.binaryproto"
  }
  data_param {
    source: "../lmdb/val_lmdb"
    batch_size: 100
    backend: LMDB
  }
}
layer {
  name: "conv1"
  type: "Convolution"
  bottom: "data"
  top: "conv1"
  param {
    lr_mult: 1
    decay_mult: 0
  }
  param {
    lr_mult: 2
    decay_mult: 0
  }
  convolution_param {
    num_output: 32
    kernel_size: 5
    stride: 2
    weight_filler {
      type: "xavier"
    }
    bias_filler {
      type: "constant"
      value: 0
    }
  }
}
layer {
  name: "relu1"
  type: "ReLU"
  bottom: "conv1"
  top: "conv1"
}
layer {
  name: "fc2"
  type: "InnerProduct"
  bottom: "conv1"
  top: "fc2"
  param {
    lr_mult: 1
    decay_mult: 0
  }
  param {
    lr_mult: 2
    decay_mult: 0
  }
  inner_product_param {
    num_output: 1024
    weight_filler {
      type: "xavier"
    }
    bias_filler {
      type: "constant"
      value: 0
    }
  }
}
layer {
  name: "relu2"
  type: "ReLU"
  bottom: "fc2"
  top: "fc2"
}
layer {
  name: "fc3"
  type: "InnerProduct"
  bottom: "fc2"
  top: "fc3"
  param {
    lr_mult: 1
    decay_mult: 0
  }
  param {
    lr_mult: 2
    decay_mult: 0
  }
  inner_product_param {
    num_output: 20
    weight_filler {
      type: "xavier"
    }
    bias_filler {
      type: "constant"
      value: 0
    }
  }
}
layer {
  name: "loss"
  type: "SoftmaxWithLoss"
  bottom: "fc3"
  bottom: "label"
  top: "loss"
}
layer {
  name: "accuracy"
  type: "Accuracy"
  bottom: "fc3"
  bottom: "label"
  top: "accuracy"
  include {
    phase: TEST
  }
}
I0709 06:47:02.531513  1870 layer_factory.hpp:77] Creating layer data
I0709 06:47:02.531649  1870 net.cpp:91] Creating Layer data
I0709 06:47:02.531661  1870 net.cpp:399] data -> data
I0709 06:47:02.531672  1870 net.cpp:399] data -> label
I0709 06:47:02.531683  1870 data_transformer.cpp:25] Loading mean file from: ../lmdb/mean_file.binaryproto
I0709 06:47:02.689815  1887 db_lmdb.cpp:35] Opened lmdb ../lmdb/val_lmdb
I0709 06:47:03.072116  1870 data_layer.cpp:41] output data size: 100,3,128,128
I0709 06:47:03.105857  1870 net.cpp:141] Setting up data
I0709 06:47:03.105902  1870 net.cpp:148] Top shape: 100 3 128 128 (4915200)
I0709 06:47:03.105911  1870 net.cpp:148] Top shape: 100 (100)
I0709 06:47:03.105916  1870 net.cpp:156] Memory required for data: 19661200
I0709 06:47:03.105924  1870 layer_factory.hpp:77] Creating layer label_data_1_split
I0709 06:47:03.105942  1870 net.cpp:91] Creating Layer label_data_1_split
I0709 06:47:03.105955  1870 net.cpp:425] label_data_1_split <- label
I0709 06:47:03.105967  1870 net.cpp:399] label_data_1_split -> label_data_1_split_0
I0709 06:47:03.105983  1870 net.cpp:399] label_data_1_split -> label_data_1_split_1
I0709 06:47:03.106058  1870 net.cpp:141] Setting up label_data_1_split
I0709 06:47:03.106076  1870 net.cpp:148] Top shape: 100 (100)
I0709 06:47:03.106101  1870 net.cpp:148] Top shape: 100 (100)
I0709 06:47:03.106106  1870 net.cpp:156] Memory required for data: 19662000
I0709 06:47:03.106111  1870 layer_factory.hpp:77] Creating layer conv1
I0709 06:47:03.106129  1870 net.cpp:91] Creating Layer conv1
I0709 06:47:03.106134  1870 net.cpp:425] conv1 <- data
I0709 06:47:03.106143  1870 net.cpp:399] conv1 -> conv1
I0709 06:47:03.107239  1870 net.cpp:141] Setting up conv1
I0709 06:47:03.107259  1870 net.cpp:148] Top shape: 100 32 62 62 (12300800)
I0709 06:47:03.107265  1870 net.cpp:156] Memory required for data: 68865200
I0709 06:47:03.107280  1870 layer_factory.hpp:77] Creating layer relu1
I0709 06:47:03.107290  1870 net.cpp:91] Creating Layer relu1
I0709 06:47:03.107295  1870 net.cpp:425] relu1 <- conv1
I0709 06:47:03.107302  1870 net.cpp:386] relu1 -> conv1 (in-place)
I0709 06:47:03.109701  1870 net.cpp:141] Setting up relu1
I0709 06:47:03.109724  1870 net.cpp:148] Top shape: 100 32 62 62 (12300800)
I0709 06:47:03.109730  1870 net.cpp:156] Memory required for data: 118068400
I0709 06:47:03.109735  1870 layer_factory.hpp:77] Creating layer fc2
I0709 06:47:03.109748  1870 net.cpp:91] Creating Layer fc2
I0709 06:47:03.109753  1870 net.cpp:425] fc2 <- conv1
I0709 06:47:03.109762  1870 net.cpp:399] fc2 -> fc2
I0709 06:47:04.258997  1870 net.cpp:141] Setting up fc2
I0709 06:47:04.259045  1870 net.cpp:148] Top shape: 100 1024 (102400)
I0709 06:47:04.259052  1870 net.cpp:156] Memory required for data: 118478000
I0709 06:47:04.259070  1870 layer_factory.hpp:77] Creating layer relu2
I0709 06:47:04.259083  1870 net.cpp:91] Creating Layer relu2
I0709 06:47:04.259090  1870 net.cpp:425] relu2 <- fc2
I0709 06:47:04.259100  1870 net.cpp:386] relu2 -> fc2 (in-place)
I0709 06:47:04.259306  1870 net.cpp:141] Setting up relu2
I0709 06:47:04.259325  1870 net.cpp:148] Top shape: 100 1024 (102400)
I0709 06:47:04.259330  1870 net.cpp:156] Memory required for data: 118887600
I0709 06:47:04.259335  1870 layer_factory.hpp:77] Creating layer fc3
I0709 06:47:04.259346  1870 net.cpp:91] Creating Layer fc3
I0709 06:47:04.259351  1870 net.cpp:425] fc3 <- fc2
I0709 06:47:04.259359  1870 net.cpp:399] fc3 -> fc3
I0709 06:47:04.259618  1870 net.cpp:141] Setting up fc3
I0709 06:47:04.259635  1870 net.cpp:148] Top shape: 100 20 (2000)
I0709 06:47:04.259640  1870 net.cpp:156] Memory required for data: 118895600
I0709 06:47:04.259651  1870 layer_factory.hpp:77] Creating layer fc3_fc3_0_split
I0709 06:47:04.259661  1870 net.cpp:91] Creating Layer fc3_fc3_0_split
I0709 06:47:04.259666  1870 net.cpp:425] fc3_fc3_0_split <- fc3
I0709 06:47:04.259673  1870 net.cpp:399] fc3_fc3_0_split -> fc3_fc3_0_split_0
I0709 06:47:04.259682  1870 net.cpp:399] fc3_fc3_0_split -> fc3_fc3_0_split_1
I0709 06:47:04.259726  1870 net.cpp:141] Setting up fc3_fc3_0_split
I0709 06:47:04.259742  1870 net.cpp:148] Top shape: 100 20 (2000)
I0709 06:47:04.259748  1870 net.cpp:148] Top shape: 100 20 (2000)
I0709 06:47:04.259752  1870 net.cpp:156] Memory required for data: 118911600
I0709 06:47:04.259757  1870 layer_factory.hpp:77] Creating layer loss
I0709 06:47:04.259768  1870 net.cpp:91] Creating Layer loss
I0709 06:47:04.259773  1870 net.cpp:425] loss <- fc3_fc3_0_split_0
I0709 06:47:04.259778  1870 net.cpp:425] loss <- label_data_1_split_0
I0709 06:47:04.259785  1870 net.cpp:399] loss -> loss
…
