…
I0710 18:39:28.102015  1488 net.cpp:313] The NetState phase (0) differed from the phase (1) specified by a rule in layer data
I0710 18:39:28.102056  1488 net.cpp:313] The NetState phase (0) differed from the phase (1) specified by a rule in layer accuracy
I0710 18:39:28.102278  1488 net.cpp:49] Initializing net from parameters: 
name: "Model5"
state {
  phase: TRAIN
}
layer {
  name: "data"
  type: "Data"
  top: "data"
  top: "label"
  include {
    phase: TRAIN
  }
  transform_param {
    mirror: true
    mean_file: "../lmdb/mean_file.binaryproto"
  }
  data_param {
    source: "../lmdb/train_lmdb"
    batch_size: 64
    backend: LMDB
  }
}
layer {
  name: "conv1"
  type: "Convolution"
  bottom: "data"
  top: "conv1"
  param {
    lr_mult: 1
    decay_mult: 0
  }
  param {
    lr_mult: 2
    decay_mult: 0
  }
  convolution_param {
    num_output: 32
    pad: 3
    kernel_size: 7
    stride: 1
    weight_filler {
      type: "xavier"
    }
    bias_filler {
      type: "constant"
      value: 0.1
    }
  }
}
layer {
  name: "relu1"
  type: "ReLU"
  bottom: "conv1"
  top: "conv1"
}
layer {
  name: "norm1"
  type: "LRN"
  bottom: "conv1"
  top: "norm1"
  lrn_param {
    local_size: 5
    alpha: 0.0001
    beta: 0.75
  }
}
layer {
  name: "conv2"
  type: "Convolution"
  bottom: "norm1"
  top: "conv2"
  param {
    lr_mult: 1
    decay_mult: 0
  }
  param {
    lr_mult: 2
    decay_mult: 0
  }
  convolution_param {
    num_output: 32
    pad: 2
    kernel_size: 5
    stride: 1
    weight_filler {
      type: "xavier"
    }
    bias_filler {
      type: "constant"
      value: 0.1
    }
  }
}
layer {
  name: "relu2"
  type: "ReLU"
  bottom: "conv2"
  top: "conv2"
}
layer {
  name: "norm2"
  type: "LRN"
  bottom: "conv2"
  top: "norm2"
  lrn_param {
    local_size: 5
    alpha: 0.0001
    beta: 0.75
  }
}
layer {
  name: "pool2"
  type: "Pooling"
  bottom: "norm2"
  top: "pool2"
  pooling_param {
    pool: MAX
    kernel_size: 2
    stride: 2
  }
}
layer {
  name: "conv3"
  type: "Convolution"
  bottom: "pool2"
  top: "conv3"
  param {
    lr_mult: 1
    decay_mult: 0
  }
  param {
    lr_mult: 2
    decay_mult: 0
  }
  convolution_param {
    num_output: 64
    pad: 65
    kernel_size: 5
    stride: 3
    weight_filler {
      type: "xavier"
    }
    bias_filler {
      type: "constant"
      value: 0.1
    }
  }
}
layer {
  name: "relu3"
  type: "ReLU"
  bottom: "conv3"
  top: "conv3"
}
layer {
  name: "norm3"
  type: "LRN"
  bottom: "conv3"
  top: "norm3"
  lrn_param {
    local_size: 5
    alpha: 0.0001
    beta: 0.75
  }
}
layer {
  name: "conv4"
  type: "Convolution"
  bottom: "norm3"
  top: "conv4"
  param {
    lr_mult: 1
    decay_mult: 0
  }
  param {
    lr_mult: 2
    decay_mult: 0
  }
  convolution_param {
    num_output: 64
    pad: 1
    kernel_size: 3
    stride: 1
    weight_filler {
      type: "xavier"
    }
    bias_filler {
      type: "constant"
      value: 0.1
    }
  }
}
layer {
  name: "relu4"
  type: "ReLU"
  bottom: "conv4"
  top: "conv4"
}
layer {
  name: "norm4"
  type: "LRN"
  bottom: "conv4"
  top: "norm4"
  lrn_param {
    local_size: 5
    alpha: 0.0001
    beta: 0.75
  }
}
layer {
  name: "pool4"
  type: "Pooling"
  bottom: "norm4"
  top: "pool4"
  pooling_param {
    pool: MAX
    kernel_size: 3
    stride: 2
  }
}
layer {
  name: "fc5"
  type: "InnerProduct"
  bottom: "pool4"
  top: "fc5"
  param {
    lr_mult: 1
    decay_mult: 0
  }
  param {
    lr_mult: 2
    decay_mult: 0
  }
  inner_product_param {
    num_output: 1024
    weight_filler {
      type: "xavier"
    }
    bias_filler {
      type: "constant"
      value: 0
    }
  }
}
layer {
  name: "relu5"
  type: "ReLU"
  bottom: "fc5"
  top: "fc5"
}
layer {
  name: "dropout5"
  type: "Dropout"
  bottom: "fc5"
  top: "fc5"
  dropout_param {
    dropout_ratio: 0.5
  }
}
layer {
  name: "fc6"
  type: "InnerProduct"
  bottom: "fc5"
  top: "fc6"
  param {
    lr_mult: 1
    decay_mult: 0
  }
  param {
    lr_mult: 2
    decay_mult: 0
  }
  inner_product_param {
    num_output: 1024
    weight_filler {
      type: "xavier"
    }
    bias_filler {
      type: "constant"
      value: 0
    }
  }
}
layer {
  name: "relu6"
  type: "ReLU"
  bottom: "fc6"
  top: "fc6"
}
layer {
  name: "dropout6"
  type: "Dropout"
  bottom: "fc6"
  top: "fc6"
  dropout_param {
    dropout_ratio: 0.5
  }
}
layer {
  name: "fc7"
  type: "InnerProduct"
  bottom: "fc6"
  top: "fc7"
  param {
    lr_mult: 1
    decay_mult: 0
  }
  param {
    lr_mult: 2
    decay_mult: 0
  }
  inner_product_param {
    num_output: 20
    weight_filler {
      type: "xavier"
    }
    bias_filler {
      type: "constant"
      value: 0
    }
  }
}
layer {
  name: "loss"
  type: "SoftmaxWithLoss"
  bottom: "fc7"
  bottom: "label"
  top: "loss"
}
layer {
  name: "accuracy"
  type: "Accuracy"
  bottom: "fc7"
  bottom: "label"
  top: "accuracy"
  include {
    phase: TRAIN
  }
}
I0710 18:39:28.102495  1488 layer_factory.hpp:77] Creating layer data
I0710 18:39:28.103030  1488 net.cpp:91] Creating Layer data
I0710 18:39:28.103049  1488 net.cpp:399] data -> data
I0710 18:39:28.103102  1488 net.cpp:399] data -> label
I0710 18:39:28.103126  1488 data_transformer.cpp:25] Loading mean file from: ../lmdb/mean_file.binaryproto
I0710 18:39:28.103703  1495 db_lmdb.cpp:35] Opened lmdb ../lmdb/train_lmdb
I0710 18:39:28.116703  1488 data_layer.cpp:41] output data size: 64,3,128,128
I0710 18:39:28.139214  1488 net.cpp:141] Setting up data
I0710 18:39:28.139268  1488 net.cpp:148] Top shape: 64 3 128 128 (3145728)
I0710 18:39:28.139277  1488 net.cpp:148] Top shape: 64 (64)
I0710 18:39:28.139282  1488 net.cpp:156] Memory required for data: 12583168
I0710 18:39:28.139295  1488 layer_factory.hpp:77] Creating layer label_data_1_split
I0710 18:39:28.139315  1488 net.cpp:91] Creating Layer label_data_1_split
I0710 18:39:28.139322  1488 net.cpp:425] label_data_1_split <- label
I0710 18:39:28.139339  1488 net.cpp:399] label_data_1_split -> label_data_1_split_0
I0710 18:39:28.139356  1488 net.cpp:399] label_data_1_split -> label_data_1_split_1
I0710 18:39:28.139413  1488 net.cpp:141] Setting up label_data_1_split
I0710 18:39:28.139430  1488 net.cpp:148] Top shape: 64 (64)
I0710 18:39:28.139436  1488 net.cpp:148] Top shape: 64 (64)
I0710 18:39:28.139441  1488 net.cpp:156] Memory required for data: 12583680
I0710 18:39:28.139446  1488 layer_factory.hpp:77] Creating layer conv1
I0710 18:39:28.139472  1488 net.cpp:91] Creating Layer conv1
I0710 18:39:28.139482  1488 net.cpp:425] conv1 <- data
I0710 18:39:28.139492  1488 net.cpp:399] conv1 -> conv1
I0710 18:39:28.296027  1488 net.cpp:141] Setting up conv1
I0710 18:39:28.296079  1488 net.cpp:148] Top shape: 64 32 128 128 (33554432)
I0710 18:39:28.296087  1488 net.cpp:156] Memory required for data: 146801408
I0710 18:39:28.296113  1488 layer_factory.hpp:77] Creating layer relu1
I0710 18:39:28.296129  1488 net.cpp:91] Creating Layer relu1
I0710 18:39:28.296135  1488 net.cpp:425] relu1 <- conv1
I0710 18:39:28.296144  1488 net.cpp:386] relu1 -> conv1 (in-place)
I0710 18:39:28.296329  1488 net.cpp:141] Setting up relu1
I0710 18:39:28.296350  1488 net.cpp:148] Top shape: 64 32 128 128 (33554432)
I0710 18:39:28.296355  1488 net.cpp:156] Memory required for data: 281019136
I0710 18:39:28.296360  1488 layer_factory.hpp:77] Creating layer norm1
I0710 18:39:28.296378  1488 net.cpp:91] Creating Layer norm1
I0710 18:39:28.296386  1488 net.cpp:425] norm1 <- conv1
I0710 18:39:28.296393  1488 net.cpp:399] norm1 -> norm1
I0710 18:39:28.296661  1488 net.cpp:141] Setting up norm1
I0710 18:39:28.296682  1488 net.cpp:148] Top shape: 64 32 128 128 (33554432)
I0710 18:39:28.296689  1488 net.cpp:156] Memory required for data: 415236864
I0710 18:39:28.296718  1488 layer_factory.hpp:77] Creating layer conv2
I0710 18:39:28.296736  1488 net.cpp:91] Creating Layer conv2
I0710 18:39:28.296741  1488 net.cpp:425] conv2 <- norm1
I0710 18:39:28.296749  1488 net.cpp:399] conv2 -> conv2
I0710 18:39:28.297782  1488 net.cpp:141] Setting up conv2
I0710 18:39:28.297806  1488 net.cpp:148] Top shape: 64 32 128 128 (33554432)
I0710 18:39:28.297811  1488 net.cpp:156] Memory required for data: 549454592
I0710 18:39:28.297823  1488 layer_factory.hpp:77] Creating layer relu2
I0710 18:39:28.297839  1488 net.cpp:91] Creating Layer relu2
I0710 18:39:28.297844  1488 net.cpp:425] relu2 <- conv2
I0710 18:39:28.297852  1488 net.cpp:386] relu2 -> conv2 (in-place)
I0710 18:39:28.297988  1488 net.cpp:141] Setting up relu2
I0710 18:39:28.298007  1488 net.cpp:148] Top shape: 64 32 128 128 (33554432)
I0710 18:39:28.298012  1488 net.cpp:156] Memory required for data: 683672320
I0710 18:39:28.298017  1488 layer_factory.hpp:77] Creating layer norm2
I0710 18:39:28.298025  1488 net.cpp:91] Creating Layer norm2
I0710 18:39:28.298030  1488 net.cpp:425] norm2 <- conv2
I0710 18:39:28.298038  1488 net.cpp:399] norm2 -> norm2
I0710 18:39:28.298280  1488 net.cpp:141] Setting up norm2
I0710 18:39:28.298301  1488 net.cpp:148] Top shape: 64 32 128 128 (33554432)
I0710 18:39:28.298306  1488 net.cpp:156] Memory required for data: 817890048
I0710 18:39:28.298311  1488 layer_factory.hpp:77] Creating layer pool2
I0710 18:39:28.298322  1488 net.cpp:91] Creating Layer pool2
I0710 18:39:28.298327  1488 net.cpp:425] pool2 <- norm2
I0710 18:39:28.298334  1488 net.cpp:399] pool2 -> pool2
I0710 18:39:28.298388  1488 net.cpp:141] Setting up pool2
I0710 18:39:28.298406  1488 net.cpp:148] Top shape: 64 32 64 64 (8388608)
I0710 18:39:28.298411  1488 net.cpp:156] Memory required for data: 851444480
I0710 18:39:28.298416  1488 layer_factory.hpp:77] Creating layer conv3
I0710 18:39:28.298427  1488 net.cpp:91] Creating Layer conv3
I0710 18:39:28.298432  1488 net.cpp:425] conv3 <- pool2
I0710 18:39:28.298439  1488 net.cpp:399] conv3 -> conv3
I0710 18:39:28.300029  1488 net.cpp:141] Setting up conv3
I0710 18:39:28.300051  1488 net.cpp:148] Top shape: 64 64 64 64 (16777216)
I0710 18:39:28.300057  1488 net.cpp:156] Memory required for data: 918553344
I0710 18:39:28.300072  1488 layer_factory.hpp:77] Creating layer relu3
I0710 18:39:28.300081  1488 net.cpp:91] Creating Layer relu3
I0710 18:39:28.300096  1488 net.cpp:425] relu3 <- conv3
I0710 18:39:28.300104  1488 net.cpp:386] relu3 -> conv3 (in-place)
I0710 18:39:28.300326  1488 net.cpp:141] Setting up relu3
I0710 18:39:28.300348  1488 net.cpp:148] Top shape: 64 64 64 64 (16777216)
I0710 18:39:28.300353  1488 net.cpp:156] Memory required for data: 985662208
I0710 18:39:28.300359  1488 layer_factory.hpp:77] Creating layer norm3
I0710 18:39:28.300367  1488 net.cpp:91] Creating Layer norm3
I0710 18:39:28.300372  1488 net.cpp:425] norm3 <- conv3
I0710 18:39:28.300379  1488 net.cpp:399] norm3 -> norm3
I0710 18:39:28.300628  1488 net.cpp:141] Setting up norm3
I0710 18:39:28.300648  1488 net.cpp:148] Top shape: 64 64 64 64 (16777216)
I0710 18:39:28.300654  1488 net.cpp:156] Memory required for data: 1052771072
I0710 18:39:28.300659  1488 layer_factory.hpp:77] Creating layer conv4
I0710 18:39:28.300671  1488 net.cpp:91] Creating Layer conv4
I0710 18:39:28.300676  1488 net.cpp:425] conv4 <- norm3
I0710 18:39:28.300684  1488 net.cpp:399] conv4 -> conv4
I0710 18:39:28.301652  1488 net.cpp:141] Setting up conv4
I0710 18:39:28.301676  1488 net.cpp:148] Top shape: 64 64 64 64 (16777216)
I0710 18:39:28.301681  1488 net.cpp:156] Memory required for data: 1119879936
I0710 18:39:28.301689  1488 layer_factory.hpp:77] Creating layer relu4
I0710 18:39:28.301698  1488 net.cpp:91] Creating Layer relu4
I0710 18:39:28.301703  1488 net.cpp:425] relu4 <- conv4
I0710 18:39:28.301710  1488 net.cpp:386] relu4 -> conv4 (in-place)
I0710 18:39:28.301949  1488 net.cpp:141] Setting up relu4
I0710 18:39:28.301977  1488 net.cpp:148] Top shape: 64 64 64 64 (16777216)
I0710 18:39:28.301986  1488 net.cpp:156] Memory required for data: 1186988800
I0710 18:39:28.302007  1488 layer_factory.hpp:77] Creating layer norm4
I0710 18:39:28.302017  1488 net.cpp:91] Creating Layer norm4
I0710 18:39:28.302022  1488 net.cpp:425] norm4 <- conv4
I0710 18:39:28.302031  1488 net.cpp:399] norm4 -> norm4
I0710 18:39:28.302217  1488 net.cpp:141] Setting up norm4
I0710 18:39:28.302237  1488 net.cpp:148] Top shape: 64 64 64 64 (16777216)
I0710 18:39:28.302242  1488 net.cpp:156] Memory required for data: 1254097664
I0710 18:39:28.302248  1488 layer_factory.hpp:77] Creating layer pool4
I0710 18:39:28.302255  1488 net.cpp:91] Creating Layer pool4
I0710 18:39:28.302260  1488 net.cpp:425] pool4 <- norm4
I0710 18:39:28.302268  1488 net.cpp:399] pool4 -> pool4
I0710 18:39:28.302314  1488 net.cpp:141] Setting up pool4
I0710 18:39:28.302328  1488 net.cpp:148] Top shape: 64 64 32 32 (4194304)
I0710 18:39:28.302333  1488 net.cpp:156] Memory required for data: 1270874880
I0710 18:39:28.302338  1488 layer_factory.hpp:77] Creating layer fc5
I0710 18:39:28.302355  1488 net.cpp:91] Creating Layer fc5
I0710 18:39:28.302362  1488 net.cpp:425] fc5 <- pool4
I0710 18:39:28.302372  1488 net.cpp:399] fc5 -> fc5
I0710 18:39:28.896458  1488 net.cpp:141] Setting up fc5
I0710 18:39:28.896520  1488 net.cpp:148] Top shape: 64 1024 (65536)
I0710 18:39:28.896528  1488 net.cpp:156] Memory required for data: 1271137024
I0710 18:39:28.896549  1488 layer_factory.hpp:77] Creating layer relu5
I0710 18:39:28.896571  1488 net.cpp:91] Creating Layer relu5
I0710 18:39:28.896579  1488 net.cpp:425] relu5 <- fc5
I0710 18:39:28.896589  1488 net.cpp:386] relu5 -> fc5 (in-place)
I0710 18:39:28.896934  1488 net.cpp:141] Setting up relu5
I0710 18:39:28.896967  1488 net.cpp:148] Top shape: 64 1024 (65536)
I0710 18:39:28.896973  1488 net.cpp:156] Memory required for data: 1271399168
I0710 18:39:28.896978  1488 layer_factory.hpp:77] Creating layer dropout5
I0710 18:39:28.896991  1488 net.cpp:91] Creating Layer dropout5
I0710 18:39:28.896996  1488 net.cpp:425] dropout5 <- fc5
I0710 18:39:28.897003  1488 net.cpp:386] dropout5 -> fc5 (in-place)
I0710 18:39:28.897044  1488 net.cpp:141] Setting up dropout5
I0710 18:39:28.897066  1488 net.cpp:148] Top shape: 64 1024 (65536)
I0710 18:39:28.897071  1488 net.cpp:156] Memory required for data: 1271661312
I0710 18:39:28.897083  1488 layer_factory.hpp:77] Creating layer fc6
I0710 18:39:28.897100  1488 net.cpp:91] Creating Layer fc6
I0710 18:39:28.897111  1488 net.cpp:425] fc6 <- fc5
I0710 18:39:28.897126  1488 net.cpp:399] fc6 -> fc6
I0710 18:39:28.906247  1488 net.cpp:141] Setting up fc6
I0710 18:39:28.906270  1488 net.cpp:148] Top shape: 64 1024 (65536)
I0710 18:39:28.906275  1488 net.cpp:156] Memory required for data: 1271923456
I0710 18:39:28.906283  1488 layer_factory.hpp:77] Creating layer relu6
I0710 18:39:28.906294  1488 net.cpp:91] Creating Layer relu6
I0710 18:39:28.906299  1488 net.cpp:425] relu6 <- fc6
I0710 18:39:28.906307  1488 net.cpp:386] relu6 -> fc6 (in-place)
I0710 18:39:28.906491  1488 net.cpp:141] Setting up relu6
I0710 18:39:28.906519  1488 net.cpp:148] Top shape: 64 1024 (65536)
I0710 18:39:28.906524  1488 net.cpp:156] Memory required for data: 1272185600
I0710 18:39:28.906529  1488 layer_factory.hpp:77] Creating layer dropout6
I0710 18:39:28.906539  1488 net.cpp:91] Creating Layer dropout6
I0710 18:39:28.906544  1488 net.cpp:425] dropout6 <- fc6
I0710 18:39:28.906551  1488 net.cpp:386] dropout6 -> fc6 (in-place)
I0710 18:39:28.906591  1488 net.cpp:141] Setting up dropout6
I0710 18:39:28.906607  1488 net.cpp:148] Top shape: 64 1024 (65536)
I0710 18:39:28.906612  1488 net.cpp:156] Memory required for data: 1272447744
I0710 18:39:28.906617  1488 layer_factory.hpp:77] Creating layer fc7
I0710 18:39:28.906626  1488 net.cpp:91] Creating Layer fc7
I0710 18:39:28.906636  1488 net.cpp:425] fc7 <- fc6
I0710 18:39:28.906651  1488 net.cpp:399] fc7 -> fc7
I0710 18:39:28.906947  1488 net.cpp:141] Setting up fc7
I0710 18:39:28.906966  1488 net.cpp:148] Top shape: 64 20 (1280)
I0710 18:39:28.906971  1488 net.cpp:156] Memory required for data: 1272452864
I0710 18:39:28.907001  1488 layer_factory.hpp:77] Creating layer fc7_fc7_0_split
I0710 18:39:28.907021  1488 net.cpp:91] Creating Layer fc7_fc7_0_split
I0710 18:39:28.907027  1488 net.cpp:425] fc7_fc7_0_split <- fc7
I0710 18:39:28.907035  1488 net.cpp:399] fc7_fc7_0_split -> fc7_fc7_0_split_0
I0710 18:39:28.907044  1488 net.cpp:399] fc7_fc7_0_split -> fc7_fc7_0_split_1
I0710 18:39:28.907095  1488 net.cpp:141] Setting up fc7_fc7_0_split
I0710 18:39:28.907117  1488 net.cpp:148] Top shape: 64 20 (1280)
I0710 18:39:28.907124  1488 net.cpp:148] Top shape: 64 20 (1280)
I0710 18:39:28.907127  1488 net.cpp:156] Memory required for data: 1272463104
I0710 18:39:28.907132  1488 layer_factory.hpp:77] Creating layer loss
I0710 18:39:28.907145  1488 net.cpp:91] Creating Layer loss
I0710 18:39:28.907150  1488 net.cpp:425] loss <- fc7_fc7_0_split_0
I0710 18:39:28.907155  1488 net.cpp:425] loss <- label_data_1_split_0
I0710 18:39:28.907162  1488 net.cpp:399] loss -> loss
…
I0710 18:39:28.908699  1488 net.cpp:313] The NetState phase (1) differed from the phase (0) specified by a rule in layer data
I0710 18:39:28.908730  1488 net.cpp:313] The NetState phase (1) differed from the phase (0) specified by a rule in layer accuracy
I0710 18:39:28.908933  1488 net.cpp:49] Initializing net from parameters: 
name: "Model5"
state {
  phase: TEST
}
layer {
  name: "data"
  type: "Data"
  top: "data"
  top: "label"
  include {
    phase: TEST
  }
  transform_param {
    mirror: false
    mean_file: "../lmdb/mean_file.binaryproto"
  }
  data_param {
    source: "../lmdb/val_lmdb"
    batch_size: 32
    backend: LMDB
  }
}
layer {
  name: "conv1"
  type: "Convolution"
  bottom: "data"
  top: "conv1"
  param {
    lr_mult: 1
    decay_mult: 0
  }
  param {
    lr_mult: 2
    decay_mult: 0
  }
  convolution_param {
    num_output: 32
    pad: 3
    kernel_size: 7
    stride: 1
    weight_filler {
      type: "xavier"
    }
    bias_filler {
      type: "constant"
      value: 0.1
    }
  }
}
layer {
  name: "relu1"
  type: "ReLU"
  bottom: "conv1"
  top: "conv1"
}
layer {
  name: "norm1"
  type: "LRN"
  bottom: "conv1"
  top: "norm1"
  lrn_param {
    local_size: 5
    alpha: 0.0001
    beta: 0.75
  }
}
layer {
  name: "conv2"
  type: "Convolution"
  bottom: "norm1"
  top: "conv2"
  param {
    lr_mult: 1
    decay_mult: 0
  }
  param {
    lr_mult: 2
    decay_mult: 0
  }
  convolution_param {
    num_output: 32
    pad: 2
    kernel_size: 5
    stride: 1
    weight_filler {
      type: "xavier"
    }
    bias_filler {
      type: "constant"
      value: 0.1
    }
  }
}
layer {
  name: "relu2"
  type: "ReLU"
  bottom: "conv2"
  top: "conv2"
}
layer {
  name: "norm2"
  type: "LRN"
  bottom: "conv2"
  top: "norm2"
  lrn_param {
    local_size: 5
    alpha: 0.0001
    beta: 0.75
  }
}
layer {
  name: "pool2"
  type: "Pooling"
  bottom: "norm2"
  top: "pool2"
  pooling_param {
    pool: MAX
    kernel_size: 2
    stride: 2
  }
}
layer {
  name: "conv3"
  type: "Convolution"
  bottom: "pool2"
  top: "conv3"
  param {
    lr_mult: 1
    decay_mult: 0
  }
  param {
    lr_mult: 2
    decay_mult: 0
  }
  convolution_param {
    num_output: 64
    pad: 65
    kernel_size: 5
    stride: 3
    weight_filler {
      type: "xavier"
    }
    bias_filler {
      type: "constant"
      value: 0.1
    }
  }
}
layer {
  name: "relu3"
  type: "ReLU"
  bottom: "conv3"
  top: "conv3"
}
layer {
  name: "norm3"
  type: "LRN"
  bottom: "conv3"
  top: "norm3"
  lrn_param {
    local_size: 5
    alpha: 0.0001
    beta: 0.75
  }
}
layer {
  name: "conv4"
  type: "Convolution"
  bottom: "norm3"
  top: "conv4"
  param {
    lr_mult: 1
    decay_mult: 0
  }
  param {
    lr_mult: 2
    decay_mult: 0
  }
  convolution_param {
    num_output: 64
    pad: 1
    kernel_size: 3
    stride: 1
    weight_filler {
      type: "xavier"
    }
    bias_filler {
      type: "constant"
      value: 0.1
    }
  }
}
layer {
  name: "relu4"
  type: "ReLU"
  bottom: "conv4"
  top: "conv4"
}
layer {
  name: "norm4"
  type: "LRN"
  bottom: "conv4"
  top: "norm4"
  lrn_param {
    local_size: 5
    alpha: 0.0001
    beta: 0.75
  }
}
layer {
  name: "pool4"
  type: "Pooling"
  bottom: "norm4"
  top: "pool4"
  pooling_param {
    pool: MAX
    kernel_size: 3
    stride: 2
  }
}
layer {
  name: "fc5"
  type: "InnerProduct"
  bottom: "pool4"
  top: "fc5"
  param {
    lr_mult: 1
    decay_mult: 0
  }
  param {
    lr_mult: 2
    decay_mult: 0
  }
  inner_product_param {
    num_output: 1024
    weight_filler {
      type: "xavier"
    }
    bias_filler {
      type: "constant"
      value: 0
    }
  }
}
layer {
  name: "relu5"
  type: "ReLU"
  bottom: "fc5"
  top: "fc5"
}
layer {
  name: "dropout5"
  type: "Dropout"
  bottom: "fc5"
  top: "fc5"
  dropout_param {
    dropout_ratio: 0.5
  }
}
layer {
  name: "fc6"
  type: "InnerProduct"
  bottom: "fc5"
  top: "fc6"
  param {
    lr_mult: 1
    decay_mult: 0
  }
  param {
    lr_mult: 2
    decay_mult: 0
  }
  inner_product_param {
    num_output: 1024
    weight_filler {
      type: "xavier"
    }
    bias_filler {
      type: "constant"
      value: 0
    }
  }
}
layer {
  name: "relu6"
  type: "ReLU"
  bottom: "fc6"
  top: "fc6"
}
layer {
  name: "dropout6"
  type: "Dropout"
  bottom: "fc6"
  top: "fc6"
  dropout_param {
    dropout_ratio: 0.5
  }
}
layer {
  name: "fc7"
  type: "InnerProduct"
  bottom: "fc6"
  top: "fc7"
  param {
    lr_mult: 1
    decay_mult: 0
  }
  param {
    lr_mult: 2
    decay_mult: 0
  }
  inner_product_param {
    num_output: 20
    weight_filler {
      type: "xavier"
    }
    bias_filler {
      type: "constant"
      value: 0
    }
  }
}
layer {
  name: "loss"
  type: "SoftmaxWithLoss"
  bottom: "fc7"
  bottom: "label"
  top: "loss"
}
layer {
  name: "accuracy"
  type: "Accuracy"
  bottom: "fc7"
  bottom: "label"
  top: "accuracy"
  include {
    phase: TEST
  }
}
I0710 18:39:28.909076  1488 layer_factory.hpp:77] Creating layer data
I0710 18:39:28.909176  1488 net.cpp:91] Creating Layer data
I0710 18:39:28.909188  1488 net.cpp:399] data -> data
I0710 18:39:28.909198  1488 net.cpp:399] data -> label
I0710 18:39:28.909209  1488 data_transformer.cpp:25] Loading mean file from: ../lmdb/mean_file.binaryproto
I0710 18:39:28.909920  1497 db_lmdb.cpp:35] Opened lmdb ../lmdb/val_lmdb
I0710 18:39:28.910094  1488 data_layer.cpp:41] output data size: 32,3,128,128
I0710 18:39:28.921576  1488 net.cpp:141] Setting up data
I0710 18:39:28.921617  1488 net.cpp:148] Top shape: 32 3 128 128 (1572864)
I0710 18:39:28.921625  1488 net.cpp:148] Top shape: 32 (32)
I0710 18:39:28.921630  1488 net.cpp:156] Memory required for data: 6291584
I0710 18:39:28.921639  1488 layer_factory.hpp:77] Creating layer label_data_1_split
I0710 18:39:28.921655  1488 net.cpp:91] Creating Layer label_data_1_split
I0710 18:39:28.921661  1488 net.cpp:425] label_data_1_split <- label
I0710 18:39:28.921670  1488 net.cpp:399] label_data_1_split -> label_data_1_split_0
I0710 18:39:28.921684  1488 net.cpp:399] label_data_1_split -> label_data_1_split_1
I0710 18:39:28.921828  1488 net.cpp:141] Setting up label_data_1_split
I0710 18:39:28.921845  1488 net.cpp:148] Top shape: 32 (32)
I0710 18:39:28.921852  1488 net.cpp:148] Top shape: 32 (32)
I0710 18:39:28.921856  1488 net.cpp:156] Memory required for data: 6291840
I0710 18:39:28.921861  1488 layer_factory.hpp:77] Creating layer conv1
I0710 18:39:28.921880  1488 net.cpp:91] Creating Layer conv1
I0710 18:39:28.921886  1488 net.cpp:425] conv1 <- data
I0710 18:39:28.921896  1488 net.cpp:399] conv1 -> conv1
I0710 18:39:28.924031  1488 net.cpp:141] Setting up conv1
I0710 18:39:28.924053  1488 net.cpp:148] Top shape: 32 32 128 128 (16777216)
I0710 18:39:28.924059  1488 net.cpp:156] Memory required for data: 73400704
I0710 18:39:28.924073  1488 layer_factory.hpp:77] Creating layer relu1
I0710 18:39:28.924083  1488 net.cpp:91] Creating Layer relu1
I0710 18:39:28.924091  1488 net.cpp:425] relu1 <- conv1
I0710 18:39:28.924098  1488 net.cpp:386] relu1 -> conv1 (in-place)
I0710 18:39:28.924247  1488 net.cpp:141] Setting up relu1
I0710 18:39:28.924265  1488 net.cpp:148] Top shape: 32 32 128 128 (16777216)
I0710 18:39:28.924270  1488 net.cpp:156] Memory required for data: 140509568
I0710 18:39:28.924275  1488 layer_factory.hpp:77] Creating layer norm1
I0710 18:39:28.924286  1488 net.cpp:91] Creating Layer norm1
I0710 18:39:28.924291  1488 net.cpp:425] norm1 <- conv1
I0710 18:39:28.924299  1488 net.cpp:399] norm1 -> norm1
I0710 18:39:28.924661  1488 net.cpp:141] Setting up norm1
I0710 18:39:28.924682  1488 net.cpp:148] Top shape: 32 32 128 128 (16777216)
I0710 18:39:28.924687  1488 net.cpp:156] Memory required for data: 207618432
I0710 18:39:28.924692  1488 layer_factory.hpp:77] Creating layer conv2
I0710 18:39:28.924705  1488 net.cpp:91] Creating Layer conv2
I0710 18:39:28.924710  1488 net.cpp:425] conv2 <- norm1
I0710 18:39:28.924720  1488 net.cpp:399] conv2 -> conv2
I0710 18:39:28.925808  1488 net.cpp:141] Setting up conv2
I0710 18:39:28.925832  1488 net.cpp:148] Top shape: 32 32 128 128 (16777216)
I0710 18:39:28.925837  1488 net.cpp:156] Memory required for data: 274727296
I0710 18:39:28.925866  1488 layer_factory.hpp:77] Creating layer relu2
I0710 18:39:28.925882  1488 net.cpp:91] Creating Layer relu2
I0710 18:39:28.925887  1488 net.cpp:425] relu2 <- conv2
I0710 18:39:28.925895  1488 net.cpp:386] relu2 -> conv2 (in-place)
I0710 18:39:28.926043  1488 net.cpp:141] Setting up relu2
I0710 18:39:28.926060  1488 net.cpp:148] Top shape: 32 32 128 128 (16777216)
I0710 18:39:28.926065  1488 net.cpp:156] Memory required for data: 341836160
I0710 18:39:28.926070  1488 layer_factory.hpp:77] Creating layer norm2
I0710 18:39:28.926079  1488 net.cpp:91] Creating Layer norm2
I0710 18:39:28.926084  1488 net.cpp:425] norm2 <- conv2
I0710 18:39:28.926095  1488 net.cpp:399] norm2 -> norm2
I0710 18:39:28.926367  1488 net.cpp:141] Setting up norm2
I0710 18:39:28.926388  1488 net.cpp:148] Top shape: 32 32 128 128 (16777216)
I0710 18:39:28.926393  1488 net.cpp:156] Memory required for data: 408945024
I0710 18:39:28.926398  1488 layer_factory.hpp:77] Creating layer pool2
I0710 18:39:28.926411  1488 net.cpp:91] Creating Layer pool2
I0710 18:39:28.926416  1488 net.cpp:425] pool2 <- norm2
I0710 18:39:28.926425  1488 net.cpp:399] pool2 -> pool2
I0710 18:39:28.926483  1488 net.cpp:141] Setting up pool2
I0710 18:39:28.926506  1488 net.cpp:148] Top shape: 32 32 64 64 (4194304)
I0710 18:39:28.926512  1488 net.cpp:156] Memory required for data: 425722240
I0710 18:39:28.926517  1488 layer_factory.hpp:77] Creating layer conv3
I0710 18:39:28.926530  1488 net.cpp:91] Creating Layer conv3
I0710 18:39:28.926535  1488 net.cpp:425] conv3 <- pool2
I0710 18:39:28.926543  1488 net.cpp:399] conv3 -> conv3
I0710 18:39:28.928335  1488 net.cpp:141] Setting up conv3
I0710 18:39:28.928359  1488 net.cpp:148] Top shape: 32 64 64 64 (8388608)
I0710 18:39:28.928364  1488 net.cpp:156] Memory required for data: 459276672
I0710 18:39:28.928376  1488 layer_factory.hpp:77] Creating layer relu3
I0710 18:39:28.928387  1488 net.cpp:91] Creating Layer relu3
I0710 18:39:28.928396  1488 net.cpp:425] relu3 <- conv3
I0710 18:39:28.928402  1488 net.cpp:386] relu3 -> conv3 (in-place)
I0710 18:39:28.928565  1488 net.cpp:141] Setting up relu3
I0710 18:39:28.928583  1488 net.cpp:148] Top shape: 32 64 64 64 (8388608)
I0710 18:39:28.928588  1488 net.cpp:156] Memory required for data: 492831104
I0710 18:39:28.928593  1488 layer_factory.hpp:77] Creating layer norm3
I0710 18:39:28.928604  1488 net.cpp:91] Creating Layer norm3
I0710 18:39:28.928609  1488 net.cpp:425] norm3 <- conv3
I0710 18:39:28.928616  1488 net.cpp:399] norm3 -> norm3
I0710 18:39:28.928894  1488 net.cpp:141] Setting up norm3
I0710 18:39:28.928915  1488 net.cpp:148] Top shape: 32 64 64 64 (8388608)
I0710 18:39:28.928920  1488 net.cpp:156] Memory required for data: 526385536
I0710 18:39:28.928925  1488 layer_factory.hpp:77] Creating layer conv4
I0710 18:39:28.928942  1488 net.cpp:91] Creating Layer conv4
I0710 18:39:28.928951  1488 net.cpp:425] conv4 <- norm3
I0710 18:39:28.928961  1488 net.cpp:399] conv4 -> conv4
I0710 18:39:28.930040  1488 net.cpp:141] Setting up conv4
I0710 18:39:28.930061  1488 net.cpp:148] Top shape: 32 64 64 64 (8388608)
I0710 18:39:28.930066  1488 net.cpp:156] Memory required for data: 559939968
I0710 18:39:28.930076  1488 layer_factory.hpp:77] Creating layer relu4
I0710 18:39:28.930083  1488 net.cpp:91] Creating Layer relu4
I0710 18:39:28.930088  1488 net.cpp:425] relu4 <- conv4
I0710 18:39:28.930099  1488 net.cpp:386] relu4 -> conv4 (in-place)
I0710 18:39:28.930338  1488 net.cpp:141] Setting up relu4
I0710 18:39:28.930358  1488 net.cpp:148] Top shape: 32 64 64 64 (8388608)
I0710 18:39:28.930363  1488 net.cpp:156] Memory required for data: 593494400
I0710 18:39:28.930369  1488 layer_factory.hpp:77] Creating layer norm4
I0710 18:39:28.930380  1488 net.cpp:91] Creating Layer norm4
I0710 18:39:28.930385  1488 net.cpp:425] norm4 <- conv4
I0710 18:39:28.930395  1488 net.cpp:399] norm4 -> norm4
I0710 18:39:28.930668  1488 net.cpp:141] Setting up norm4
I0710 18:39:28.930692  1488 net.cpp:148] Top shape: 32 64 64 64 (8388608)
I0710 18:39:28.930711  1488 net.cpp:156] Memory required for data: 627048832
I0710 18:39:28.930716  1488 layer_factory.hpp:77] Creating layer pool4
I0710 18:39:28.930750  1488 net.cpp:91] Creating Layer pool4
I0710 18:39:28.930763  1488 net.cpp:425] pool4 <- norm4
I0710 18:39:28.930769  1488 net.cpp:399] pool4 -> pool4
I0710 18:39:28.930819  1488 net.cpp:141] Setting up pool4
I0710 18:39:28.930836  1488 net.cpp:148] Top shape: 32 64 32 32 (2097152)
I0710 18:39:28.930840  1488 net.cpp:156] Memory required for data: 635437440
I0710 18:39:28.930845  1488 layer_factory.hpp:77] Creating layer fc5
I0710 18:39:28.930862  1488 net.cpp:91] Creating Layer fc5
I0710 18:39:28.930871  1488 net.cpp:425] fc5 <- pool4
I0710 18:39:28.930879  1488 net.cpp:399] fc5 -> fc5
I0710 18:39:29.517632  1488 net.cpp:141] Setting up fc5
I0710 18:39:29.517689  1488 net.cpp:148] Top shape: 32 1024 (32768)
I0710 18:39:29.517695  1488 net.cpp:156] Memory required for data: 635568512
I0710 18:39:29.517717  1488 layer_factory.hpp:77] Creating layer relu5
I0710 18:39:29.517730  1488 net.cpp:91] Creating Layer relu5
I0710 18:39:29.517737  1488 net.cpp:425] relu5 <- fc5
I0710 18:39:29.517755  1488 net.cpp:386] relu5 -> fc5 (in-place)
I0710 18:39:29.517990  1488 net.cpp:141] Setting up relu5
I0710 18:39:29.518009  1488 net.cpp:148] Top shape: 32 1024 (32768)
I0710 18:39:29.518014  1488 net.cpp:156] Memory required for data: 635699584
I0710 18:39:29.518019  1488 layer_factory.hpp:77] Creating layer dropout5
I0710 18:39:29.518030  1488 net.cpp:91] Creating Layer dropout5
I0710 18:39:29.518035  1488 net.cpp:425] dropout5 <- fc5
I0710 18:39:29.518043  1488 net.cpp:386] dropout5 -> fc5 (in-place)
I0710 18:39:29.518081  1488 net.cpp:141] Setting up dropout5
I0710 18:39:29.518106  1488 net.cpp:148] Top shape: 32 1024 (32768)
I0710 18:39:29.518116  1488 net.cpp:156] Memory required for data: 635830656
I0710 18:39:29.518126  1488 layer_factory.hpp:77] Creating layer fc6
I0710 18:39:29.518136  1488 net.cpp:91] Creating Layer fc6
I0710 18:39:29.518139  1488 net.cpp:425] fc6 <- fc5
I0710 18:39:29.518157  1488 net.cpp:399] fc6 -> fc6
I0710 18:39:29.527274  1488 net.cpp:141] Setting up fc6
I0710 18:39:29.527297  1488 net.cpp:148] Top shape: 32 1024 (32768)
I0710 18:39:29.527302  1488 net.cpp:156] Memory required for data: 635961728
I0710 18:39:29.527310  1488 layer_factory.hpp:77] Creating layer relu6
I0710 18:39:29.527318  1488 net.cpp:91] Creating Layer relu6
I0710 18:39:29.527323  1488 net.cpp:425] relu6 <- fc6
I0710 18:39:29.527333  1488 net.cpp:386] relu6 -> fc6 (in-place)
I0710 18:39:29.527627  1488 net.cpp:141] Setting up relu6
I0710 18:39:29.527647  1488 net.cpp:148] Top shape: 32 1024 (32768)
I0710 18:39:29.527653  1488 net.cpp:156] Memory required for data: 636092800
I0710 18:39:29.527658  1488 layer_factory.hpp:77] Creating layer dropout6
I0710 18:39:29.527669  1488 net.cpp:91] Creating Layer dropout6
I0710 18:39:29.527674  1488 net.cpp:425] dropout6 <- fc6
I0710 18:39:29.527683  1488 net.cpp:386] dropout6 -> fc6 (in-place)
I0710 18:39:29.527715  1488 net.cpp:141] Setting up dropout6
I0710 18:39:29.527737  1488 net.cpp:148] Top shape: 32 1024 (32768)
I0710 18:39:29.527747  1488 net.cpp:156] Memory required for data: 636223872
I0710 18:39:29.527756  1488 layer_factory.hpp:77] Creating layer fc7
I0710 18:39:29.527770  1488 net.cpp:91] Creating Layer fc7
I0710 18:39:29.527777  1488 net.cpp:425] fc7 <- fc6
I0710 18:39:29.527794  1488 net.cpp:399] fc7 -> fc7
I0710 18:39:29.528081  1488 net.cpp:141] Setting up fc7
I0710 18:39:29.528100  1488 net.cpp:148] Top shape: 32 20 (640)
I0710 18:39:29.528107  1488 net.cpp:156] Memory required for data: 636226432
I0710 18:39:29.528116  1488 layer_factory.hpp:77] Creating layer fc7_fc7_0_split
I0710 18:39:29.528127  1488 net.cpp:91] Creating Layer fc7_fc7_0_split
I0710 18:39:29.528132  1488 net.cpp:425] fc7_fc7_0_split <- fc7
I0710 18:39:29.528139  1488 net.cpp:399] fc7_fc7_0_split -> fc7_fc7_0_split_0
I0710 18:39:29.528147  1488 net.cpp:399] fc7_fc7_0_split -> fc7_fc7_0_split_1
I0710 18:39:29.528200  1488 net.cpp:141] Setting up fc7_fc7_0_split
I0710 18:39:29.528233  1488 net.cpp:148] Top shape: 32 20 (640)
I0710 18:39:29.528239  1488 net.cpp:148] Top shape: 32 20 (640)
I0710 18:39:29.528242  1488 net.cpp:156] Memory required for data: 636231552
I0710 18:39:29.528247  1488 layer_factory.hpp:77] Creating layer loss
I0710 18:39:29.528255  1488 net.cpp:91] Creating Layer loss
I0710 18:39:29.528260  1488 net.cpp:425] loss <- fc7_fc7_0_split_0
I0710 18:39:29.528266  1488 net.cpp:425] loss <- label_data_1_split_0
I0710 18:39:29.528275  1488 net.cpp:399] loss -> loss
…
