…
I0708 13:59:33.389797  4434 net.cpp:313] The NetState phase (0) differed from the phase (1) specified by a rule in layer data
I0708 13:59:33.389828  4434 net.cpp:313] The NetState phase (0) differed from the phase (1) specified by a rule in layer accuracy
I0708 13:59:33.389968  4434 net.cpp:49] Initializing net from parameters: 
name: "Model1"
state {
  phase: TRAIN
}
layer {
  name: "data"
  type: "Data"
  top: "data"
  top: "label"
  include {
    phase: TRAIN
  }
  transform_param {
    mirror: true
    mean_file: "../lmdb/mean_file.binaryproto"
  }
  data_param {
    source: "../lmdb/train_lmdb"
    batch_size: 256
    backend: LMDB
  }
}
layer {
  name: "conv1"
  type: "Convolution"
  bottom: "data"
  top: "conv1"
  param {
    lr_mult: 1
    decay_mult: 0
  }
  param {
    lr_mult: 2
    decay_mult: 0
  }
  convolution_param {
    num_output: 32
    kernel_size: 5
    stride: 2
    weight_filler {
      type: "xavier"
    }
    bias_filler {
      type: "constant"
      value: 0
    }
  }
}
layer {
  name: "relu1"
  type: "ReLU"
  bottom: "conv1"
  top: "conv1"
}
layer {
  name: "fc2"
  type: "InnerProduct"
  bottom: "conv1"
  top: "fc2"
  param {
    lr_mult: 1
    decay_mult: 0
  }
  param {
    lr_mult: 2
    decay_mult: 0
  }
  inner_product_param {
    num_output: 1024
    weight_filler {
      type: "xavier"
    }
    bias_filler {
      type: "constant"
      value: 0
    }
  }
}
layer {
  name: "relu2"
  type: "ReLU"
  bottom: "fc2"
  top: "fc2"
}
layer {
  name: "fc3"
  type: "InnerProduct"
  bottom: "fc2"
  top: "fc3"
  param {
    lr_mult: 1
    decay_mult: 0
  }
  param {
    lr_mult: 2
    decay_mult: 0
  }
  inner_product_param {
    num_output: 20
    weight_filler {
      type: "xavier"
    }
    bias_filler {
      type: "constant"
      value: 0
    }
  }
}
layer {
  name: "loss"
  type: "SoftmaxWithLoss"
  bottom: "fc3"
  bottom: "label"
  top: "loss"
}
layer {
  name: "accuracy"
  type: "Accuracy"
  bottom: "fc3"
  bottom: "label"
  top: "accuracy"
  include {
    phase: TRAIN
  }
}
I0708 13:59:33.390142  4434 layer_factory.hpp:77] Creating layer data
I0708 13:59:33.390784  4434 net.cpp:91] Creating Layer data
I0708 13:59:33.390808  4434 net.cpp:399] data -> data
I0708 13:59:33.390844  4434 net.cpp:399] data -> label
I0708 13:59:33.390872  4434 data_transformer.cpp:25] Loading mean file from: ../lmdb/mean_file.binaryproto
I0708 13:59:33.391513  4441 db_lmdb.cpp:35] Opened lmdb ../lmdb/train_lmdb
I0708 13:59:33.404603  4434 data_layer.cpp:41] output data size: 256,3,128,128
I0708 13:59:33.495559  4434 net.cpp:141] Setting up data
I0708 13:59:33.495611  4434 net.cpp:148] Top shape: 256 3 128 128 (12582912)
I0708 13:59:33.495620  4434 net.cpp:148] Top shape: 256 (256)
I0708 13:59:33.495625  4434 net.cpp:156] Memory required for data: 50332672
I0708 13:59:33.495637  4434 layer_factory.hpp:77] Creating layer label_data_1_split
I0708 13:59:33.495658  4434 net.cpp:91] Creating Layer label_data_1_split
I0708 13:59:33.495666  4434 net.cpp:425] label_data_1_split <- label
I0708 13:59:33.495683  4434 net.cpp:399] label_data_1_split -> label_data_1_split_0
I0708 13:59:33.495702  4434 net.cpp:399] label_data_1_split -> label_data_1_split_1
I0708 13:59:33.495757  4434 net.cpp:141] Setting up label_data_1_split
I0708 13:59:33.495774  4434 net.cpp:148] Top shape: 256 (256)
I0708 13:59:33.495780  4434 net.cpp:148] Top shape: 256 (256)
I0708 13:59:33.495784  4434 net.cpp:156] Memory required for data: 50334720
I0708 13:59:33.495790  4434 layer_factory.hpp:77] Creating layer conv1
I0708 13:59:33.495813  4434 net.cpp:91] Creating Layer conv1
I0708 13:59:33.495846  4434 net.cpp:425] conv1 <- data
I0708 13:59:33.495857  4434 net.cpp:399] conv1 -> conv1
I0708 13:59:33.673269  4434 net.cpp:141] Setting up conv1
I0708 13:59:33.673310  4434 net.cpp:148] Top shape: 256 32 62 62 (31490048)
I0708 13:59:33.673316  4434 net.cpp:156] Memory required for data: 176294912
I0708 13:59:33.673341  4434 layer_factory.hpp:77] Creating layer relu1
I0708 13:59:33.673358  4434 net.cpp:91] Creating Layer relu1
I0708 13:59:33.673365  4434 net.cpp:425] relu1 <- conv1
I0708 13:59:33.673373  4434 net.cpp:386] relu1 -> conv1 (in-place)
I0708 13:59:33.673524  4434 net.cpp:141] Setting up relu1
I0708 13:59:33.673543  4434 net.cpp:148] Top shape: 256 32 62 62 (31490048)
I0708 13:59:33.673548  4434 net.cpp:156] Memory required for data: 302255104
I0708 13:59:33.673554  4434 layer_factory.hpp:77] Creating layer fc2
I0708 13:59:33.673570  4434 net.cpp:91] Creating Layer fc2
I0708 13:59:33.673578  4434 net.cpp:425] fc2 <- conv1
I0708 13:59:33.673585  4434 net.cpp:399] fc2 -> fc2
I0708 13:59:34.758069  4434 net.cpp:141] Setting up fc2
I0708 13:59:34.758117  4434 net.cpp:148] Top shape: 256 1024 (262144)
I0708 13:59:34.758124  4434 net.cpp:156] Memory required for data: 303303680
I0708 13:59:34.758143  4434 layer_factory.hpp:77] Creating layer relu2
I0708 13:59:34.758157  4434 net.cpp:91] Creating Layer relu2
I0708 13:59:34.758163  4434 net.cpp:425] relu2 <- fc2
I0708 13:59:34.758173  4434 net.cpp:386] relu2 -> fc2 (in-place)
I0708 13:59:34.758535  4434 net.cpp:141] Setting up relu2
I0708 13:59:34.758558  4434 net.cpp:148] Top shape: 256 1024 (262144)
I0708 13:59:34.758563  4434 net.cpp:156] Memory required for data: 304352256
I0708 13:59:34.758569  4434 layer_factory.hpp:77] Creating layer fc3
I0708 13:59:34.758580  4434 net.cpp:91] Creating Layer fc3
I0708 13:59:34.758585  4434 net.cpp:425] fc3 <- fc2
I0708 13:59:34.758594  4434 net.cpp:399] fc3 -> fc3
I0708 13:59:34.758896  4434 net.cpp:141] Setting up fc3
I0708 13:59:34.758918  4434 net.cpp:148] Top shape: 256 20 (5120)
I0708 13:59:34.758922  4434 net.cpp:156] Memory required for data: 304372736
I0708 13:59:34.758934  4434 layer_factory.hpp:77] Creating layer fc3_fc3_0_split
I0708 13:59:34.758963  4434 net.cpp:91] Creating Layer fc3_fc3_0_split
I0708 13:59:34.758972  4434 net.cpp:425] fc3_fc3_0_split <- fc3
I0708 13:59:34.758985  4434 net.cpp:399] fc3_fc3_0_split -> fc3_fc3_0_split_0
I0708 13:59:34.759018  4434 net.cpp:399] fc3_fc3_0_split -> fc3_fc3_0_split_1
I0708 13:59:34.759106  4434 net.cpp:141] Setting up fc3_fc3_0_split
I0708 13:59:34.759130  4434 net.cpp:148] Top shape: 256 20 (5120)
I0708 13:59:34.759137  4434 net.cpp:148] Top shape: 256 20 (5120)
I0708 13:59:34.759141  4434 net.cpp:156] Memory required for data: 304413696
I0708 13:59:34.759147  4434 layer_factory.hpp:77] Creating layer loss
I0708 13:59:34.759163  4434 net.cpp:91] Creating Layer loss
I0708 13:59:34.759171  4434 net.cpp:425] loss <- fc3_fc3_0_split_0
I0708 13:59:34.759176  4434 net.cpp:425] loss <- label_data_1_split_0
I0708 13:59:34.759184  4434 net.cpp:399] loss -> loss
…
I0708 13:59:34.760581  4434 net.cpp:313] The NetState phase (1) differed from the phase (0) specified by a rule in layer data
I0708 13:59:34.760599  4434 net.cpp:313] The NetState phase (1) differed from the phase (0) specified by a rule in layer accuracy
I0708 13:59:34.760690  4434 net.cpp:49] Initializing net from parameters: 
name: "Model1"
state {
  phase: TEST
}
layer {
  name: "data"
  type: "Data"
  top: "data"
  top: "label"
  include {
    phase: TEST
  }
  transform_param {
    mirror: false
    mean_file: "../lmdb/mean_file.binaryproto"
  }
  data_param {
    source: "../lmdb/val_lmdb"
    batch_size: 100
    backend: LMDB
  }
}
layer {
  name: "conv1"
  type: "Convolution"
  bottom: "data"
  top: "conv1"
  param {
    lr_mult: 1
    decay_mult: 0
  }
  param {
    lr_mult: 2
    decay_mult: 0
  }
  convolution_param {
    num_output: 32
    kernel_size: 5
    stride: 2
    weight_filler {
      type: "xavier"
    }
    bias_filler {
      type: "constant"
      value: 0
    }
  }
}
layer {
  name: "relu1"
  type: "ReLU"
  bottom: "conv1"
  top: "conv1"
}
layer {
  name: "fc2"
  type: "InnerProduct"
  bottom: "conv1"
  top: "fc2"
  param {
    lr_mult: 1
    decay_mult: 0
  }
  param {
    lr_mult: 2
    decay_mult: 0
  }
  inner_product_param {
    num_output: 1024
    weight_filler {
      type: "xavier"
    }
    bias_filler {
      type: "constant"
      value: 0
    }
  }
}
layer {
  name: "relu2"
  type: "ReLU"
  bottom: "fc2"
  top: "fc2"
}
layer {
  name: "fc3"
  type: "InnerProduct"
  bottom: "fc2"
  top: "fc3"
  param {
    lr_mult: 1
    decay_mult: 0
  }
  param {
    lr_mult: 2
    decay_mult: 0
  }
  inner_product_param {
    num_output: 20
    weight_filler {
      type: "xavier"
    }
    bias_filler {
      type: "constant"
      value: 0
    }
  }
}
layer {
  name: "loss"
  type: "SoftmaxWithLoss"
  bottom: "fc3"
  bottom: "label"
  top: "loss"
}
layer {
  name: "accuracy"
  type: "Accuracy"
  bottom: "fc3"
  bottom: "label"
  top: "accuracy"
  include {
    phase: TEST
  }
}
I0708 13:59:34.760764  4434 layer_factory.hpp:77] Creating layer data
I0708 13:59:34.760897  4434 net.cpp:91] Creating Layer data
I0708 13:59:34.760910  4434 net.cpp:399] data -> data
I0708 13:59:34.760922  4434 net.cpp:399] data -> label
I0708 13:59:34.760932  4434 data_transformer.cpp:25] Loading mean file from: ../lmdb/mean_file.binaryproto
I0708 13:59:34.761595  4443 db_lmdb.cpp:35] Opened lmdb ../lmdb/val_lmdb
I0708 13:59:34.761766  4434 data_layer.cpp:41] output data size: 100,3,128,128
I0708 13:59:34.797756  4434 net.cpp:141] Setting up data
I0708 13:59:34.797798  4434 net.cpp:148] Top shape: 100 3 128 128 (4915200)
I0708 13:59:34.797808  4434 net.cpp:148] Top shape: 100 (100)
I0708 13:59:34.797813  4434 net.cpp:156] Memory required for data: 19661200
I0708 13:59:34.797822  4434 layer_factory.hpp:77] Creating layer label_data_1_split
I0708 13:59:34.797839  4434 net.cpp:91] Creating Layer label_data_1_split
I0708 13:59:34.797845  4434 net.cpp:425] label_data_1_split <- label
I0708 13:59:34.797855  4434 net.cpp:399] label_data_1_split -> label_data_1_split_0
I0708 13:59:34.797894  4434 net.cpp:399] label_data_1_split -> label_data_1_split_1
I0708 13:59:34.798041  4434 net.cpp:141] Setting up label_data_1_split
I0708 13:59:34.798059  4434 net.cpp:148] Top shape: 100 (100)
I0708 13:59:34.798065  4434 net.cpp:148] Top shape: 100 (100)
I0708 13:59:34.798070  4434 net.cpp:156] Memory required for data: 19662000
I0708 13:59:34.798075  4434 layer_factory.hpp:77] Creating layer conv1
I0708 13:59:34.798094  4434 net.cpp:91] Creating Layer conv1
I0708 13:59:34.798100  4434 net.cpp:425] conv1 <- data
I0708 13:59:34.798110  4434 net.cpp:399] conv1 -> conv1
I0708 13:59:34.801869  4434 net.cpp:141] Setting up conv1
I0708 13:59:34.801899  4434 net.cpp:148] Top shape: 100 32 62 62 (12300800)
I0708 13:59:34.801905  4434 net.cpp:156] Memory required for data: 68865200
I0708 13:59:34.801921  4434 layer_factory.hpp:77] Creating layer relu1
I0708 13:59:34.801933  4434 net.cpp:91] Creating Layer relu1
I0708 13:59:34.801939  4434 net.cpp:425] relu1 <- conv1
I0708 13:59:34.801946  4434 net.cpp:386] relu1 -> conv1 (in-place)
I0708 13:59:34.802201  4434 net.cpp:141] Setting up relu1
I0708 13:59:34.802222  4434 net.cpp:148] Top shape: 100 32 62 62 (12300800)
I0708 13:59:34.802227  4434 net.cpp:156] Memory required for data: 118068400
I0708 13:59:34.802233  4434 layer_factory.hpp:77] Creating layer fc2
I0708 13:59:34.802247  4434 net.cpp:91] Creating Layer fc2
I0708 13:59:34.802251  4434 net.cpp:425] fc2 <- conv1
I0708 13:59:34.802259  4434 net.cpp:399] fc2 -> fc2
I0708 13:59:35.897873  4434 net.cpp:141] Setting up fc2
I0708 13:59:35.897924  4434 net.cpp:148] Top shape: 100 1024 (102400)
I0708 13:59:35.897930  4434 net.cpp:156] Memory required for data: 118478000
I0708 13:59:35.897950  4434 layer_factory.hpp:77] Creating layer relu2
I0708 13:59:35.897964  4434 net.cpp:91] Creating Layer relu2
I0708 13:59:35.897970  4434 net.cpp:425] relu2 <- fc2
I0708 13:59:35.897979  4434 net.cpp:386] relu2 -> fc2 (in-place)
I0708 13:59:35.898243  4434 net.cpp:141] Setting up relu2
I0708 13:59:35.898264  4434 net.cpp:148] Top shape: 100 1024 (102400)
I0708 13:59:35.898270  4434 net.cpp:156] Memory required for data: 118887600
I0708 13:59:35.898275  4434 layer_factory.hpp:77] Creating layer fc3
I0708 13:59:35.898288  4434 net.cpp:91] Creating Layer fc3
I0708 13:59:35.898293  4434 net.cpp:425] fc3 <- fc2
I0708 13:59:35.898301  4434 net.cpp:399] fc3 -> fc3
I0708 13:59:35.898612  4434 net.cpp:141] Setting up fc3
I0708 13:59:35.898633  4434 net.cpp:148] Top shape: 100 20 (2000)
I0708 13:59:35.898638  4434 net.cpp:156] Memory required for data: 118895600
I0708 13:59:35.898650  4434 layer_factory.hpp:77] Creating layer fc3_fc3_0_split
I0708 13:59:35.898659  4434 net.cpp:91] Creating Layer fc3_fc3_0_split
I0708 13:59:35.898664  4434 net.cpp:425] fc3_fc3_0_split <- fc3
I0708 13:59:35.898671  4434 net.cpp:399] fc3_fc3_0_split -> fc3_fc3_0_split_0
I0708 13:59:35.898687  4434 net.cpp:399] fc3_fc3_0_split -> fc3_fc3_0_split_1
I0708 13:59:35.898774  4434 net.cpp:141] Setting up fc3_fc3_0_split
I0708 13:59:35.898802  4434 net.cpp:148] Top shape: 100 20 (2000)
I0708 13:59:35.898810  4434 net.cpp:148] Top shape: 100 20 (2000)
I0708 13:59:35.898815  4434 net.cpp:156] Memory required for data: 118911600
I0708 13:59:35.898820  4434 layer_factory.hpp:77] Creating layer loss
I0708 13:59:35.898831  4434 net.cpp:91] Creating Layer loss
I0708 13:59:35.898838  4434 net.cpp:425] loss <- fc3_fc3_0_split_0
I0708 13:59:35.898844  4434 net.cpp:425] loss <- label_data_1_split_0
I0708 13:59:35.898850  4434 net.cpp:399] loss -> loss
…
