…
I0710 14:17:05.506014  1506 net.cpp:313] The NetState phase (0) differed from the phase (1) specified by a rule in layer data
I0710 14:17:05.506067  1506 net.cpp:313] The NetState phase (0) differed from the phase (1) specified by a rule in layer accuracy
I0710 14:17:05.506253  1506 net.cpp:49] Initializing net from parameters: 
name: "Model4"
state {
  phase: TRAIN
}
layer {
  name: "data"
  type: "Data"
  top: "data"
  top: "label"
  include {
    phase: TRAIN
  }
  transform_param {
    mirror: true
    mean_file: "../lmdb/mean_file.binaryproto"
  }
  data_param {
    source: "../lmdb/train_lmdb"
    batch_size: 256
    backend: LMDB
  }
}
layer {
  name: "conv1"
  type: "Convolution"
  bottom: "data"
  top: "conv1"
  param {
    lr_mult: 1
    decay_mult: 0
  }
  param {
    lr_mult: 2
    decay_mult: 0
  }
  convolution_param {
    num_output: 64
    kernel_size: 7
    stride: 2
    weight_filler {
      type: "xavier"
    }
    bias_filler {
      type: "constant"
      value: 0.1
    }
  }
}
layer {
  name: "relu1"
  type: "ReLU"
  bottom: "conv1"
  top: "conv1"
}
layer {
  name: "norm1"
  type: "LRN"
  bottom: "conv1"
  top: "norm1"
  lrn_param {
    local_size: 5
    alpha: 0.0001
    beta: 0.75
  }
}
layer {
  name: "pool1"
  type: "Pooling"
  bottom: "norm1"
  top: "pool1"
  pooling_param {
    pool: MAX
    kernel_size: 3
    stride: 2
  }
}
layer {
  name: "conv2"
  type: "Convolution"
  bottom: "pool1"
  top: "conv2"
  param {
    lr_mult: 1
    decay_mult: 0
  }
  param {
    lr_mult: 2
    decay_mult: 0
  }
  convolution_param {
    num_output: 128
    kernel_size: 5
    stride: 2
    weight_filler {
      type: "xavier"
    }
    bias_filler {
      type: "constant"
      value: 0.1
    }
  }
}
layer {
  name: "relu2"
  type: "ReLU"
  bottom: "conv2"
  top: "conv2"
}
layer {
  name: "norm2"
  type: "LRN"
  bottom: "conv2"
  top: "norm2"
  lrn_param {
    local_size: 5
    alpha: 0.0001
    beta: 0.75
  }
}
layer {
  name: "conv3"
  type: "Convolution"
  bottom: "norm2"
  top: "conv3"
  param {
    lr_mult: 1
    decay_mult: 0
  }
  param {
    lr_mult: 2
    decay_mult: 0
  }
  convolution_param {
    num_output: 256
    kernel_size: 3
    stride: 1
    weight_filler {
      type: "xavier"
    }
    bias_filler {
      type: "constant"
      value: 0.1
    }
  }
}
layer {
  name: "relu3"
  type: "ReLU"
  bottom: "conv3"
  top: "conv3"
}
layer {
  name: "pool3"
  type: "Pooling"
  bottom: "conv3"
  top: "pool3"
  pooling_param {
    pool: MAX
    kernel_size: 3
    stride: 2
  }
}
layer {
  name: "dropout3"
  type: "Dropout"
  bottom: "pool3"
  top: "pool3"
  dropout_param {
    dropout_ratio: 0.5
  }
}
layer {
  name: "fc4"
  type: "InnerProduct"
  bottom: "pool3"
  top: "fc4"
  param {
    lr_mult: 1
    decay_mult: 0
  }
  param {
    lr_mult: 2
    decay_mult: 0
  }
  inner_product_param {
    num_output: 1024
    weight_filler {
      type: "xavier"
    }
    bias_filler {
      type: "constant"
      value: 0
    }
  }
}
layer {
  name: "relu4"
  type: "ReLU"
  bottom: "fc4"
  top: "fc4"
}
layer {
  name: "dropout4"
  type: "Dropout"
  bottom: "fc4"
  top: "fc4"
  dropout_param {
    dropout_ratio: 0.5
  }
}
layer {
  name: "fc5"
  type: "InnerProduct"
  bottom: "fc4"
  top: "fc5"
  param {
    lr_mult: 1
    decay_mult: 0
  }
  param {
    lr_mult: 2
    decay_mult: 0
  }
  inner_product_param {
    num_output: 20
    weight_filler {
      type: "xavier"
    }
    bias_filler {
      type: "constant"
      value: 0
    }
  }
}
layer {
  name: "loss"
  type: "SoftmaxWithLoss"
  bottom: "fc5"
  bottom: "label"
  top: "loss"
}
layer {
  name: "accuracy"
  type: "Accuracy"
  bottom: "fc5"
  bottom: "label"
  top: "accuracy"
  include {
    phase: TRAIN
  }
}
I0710 14:17:05.506500  1506 layer_factory.hpp:77] Creating layer data
I0710 14:17:05.509395  1506 net.cpp:91] Creating Layer data
I0710 14:17:05.509430  1506 net.cpp:399] data -> data
I0710 14:17:05.509484  1506 net.cpp:399] data -> label
I0710 14:17:05.509526  1506 data_transformer.cpp:25] Loading mean file from: ../lmdb/mean_file.binaryproto
I0710 14:17:05.511710  1519 db_lmdb.cpp:35] Opened lmdb ../lmdb/train_lmdb
I0710 14:17:05.552322  1506 data_layer.cpp:41] output data size: 256,3,128,128
I0710 14:17:05.639387  1506 net.cpp:141] Setting up data
I0710 14:17:05.639451  1506 net.cpp:148] Top shape: 256 3 128 128 (12582912)
I0710 14:17:05.639467  1506 net.cpp:148] Top shape: 256 (256)
I0710 14:17:05.639477  1506 net.cpp:156] Memory required for data: 50332672
I0710 14:17:05.639495  1506 layer_factory.hpp:77] Creating layer label_data_1_split
I0710 14:17:05.641115  1506 net.cpp:91] Creating Layer label_data_1_split
I0710 14:17:05.641139  1506 net.cpp:425] label_data_1_split <- label
I0710 14:17:05.641170  1506 net.cpp:399] label_data_1_split -> label_data_1_split_0
I0710 14:17:05.641194  1506 net.cpp:399] label_data_1_split -> label_data_1_split_1
I0710 14:17:05.646280  1506 net.cpp:141] Setting up label_data_1_split
I0710 14:17:05.646306  1506 net.cpp:148] Top shape: 256 (256)
I0710 14:17:05.646317  1506 net.cpp:148] Top shape: 256 (256)
I0710 14:17:05.646327  1506 net.cpp:156] Memory required for data: 50334720
I0710 14:17:05.646338  1506 layer_factory.hpp:77] Creating layer conv1
I0710 14:17:05.646378  1506 net.cpp:91] Creating Layer conv1
I0710 14:17:05.646397  1506 net.cpp:425] conv1 <- data
I0710 14:17:05.646417  1506 net.cpp:399] conv1 -> conv1
I0710 14:17:05.755751  1520 blocking_queue.cpp:50] Waiting for data
I0710 14:17:06.309964  1506 net.cpp:141] Setting up conv1
I0710 14:17:06.310009  1506 net.cpp:148] Top shape: 256 64 61 61 (60964864)
I0710 14:17:06.310017  1506 net.cpp:156] Memory required for data: 294194176
I0710 14:17:06.310042  1506 layer_factory.hpp:77] Creating layer relu1
I0710 14:17:06.310057  1506 net.cpp:91] Creating Layer relu1
I0710 14:17:06.310065  1506 net.cpp:425] relu1 <- conv1
I0710 14:17:06.310072  1506 net.cpp:386] relu1 -> conv1 (in-place)
I0710 14:17:06.310248  1506 net.cpp:141] Setting up relu1
I0710 14:17:06.310268  1506 net.cpp:148] Top shape: 256 64 61 61 (60964864)
I0710 14:17:06.310274  1506 net.cpp:156] Memory required for data: 538053632
I0710 14:17:06.310279  1506 layer_factory.hpp:77] Creating layer norm1
I0710 14:17:06.310297  1506 net.cpp:91] Creating Layer norm1
I0710 14:17:06.310302  1506 net.cpp:425] norm1 <- conv1
I0710 14:17:06.310310  1506 net.cpp:399] norm1 -> norm1
I0710 14:17:06.313628  1506 net.cpp:141] Setting up norm1
I0710 14:17:06.313658  1506 net.cpp:148] Top shape: 256 64 61 61 (60964864)
I0710 14:17:06.313668  1506 net.cpp:156] Memory required for data: 781913088
I0710 14:17:06.313679  1506 layer_factory.hpp:77] Creating layer pool1
I0710 14:17:06.313696  1506 net.cpp:91] Creating Layer pool1
I0710 14:17:06.313706  1506 net.cpp:425] pool1 <- norm1
I0710 14:17:06.313721  1506 net.cpp:399] pool1 -> pool1
I0710 14:17:06.313792  1506 net.cpp:141] Setting up pool1
I0710 14:17:06.313814  1506 net.cpp:148] Top shape: 256 64 30 30 (14745600)
I0710 14:17:06.313824  1506 net.cpp:156] Memory required for data: 840895488
I0710 14:17:06.313834  1506 layer_factory.hpp:77] Creating layer conv2
I0710 14:17:06.313859  1506 net.cpp:91] Creating Layer conv2
I0710 14:17:06.313879  1506 net.cpp:425] conv2 <- pool1
I0710 14:17:06.313895  1506 net.cpp:399] conv2 -> conv2
I0710 14:17:06.316781  1506 net.cpp:141] Setting up conv2
I0710 14:17:06.316808  1506 net.cpp:148] Top shape: 256 128 13 13 (5537792)
I0710 14:17:06.316819  1506 net.cpp:156] Memory required for data: 863046656
I0710 14:17:06.316843  1506 layer_factory.hpp:77] Creating layer relu2
I0710 14:17:06.316859  1506 net.cpp:91] Creating Layer relu2
I0710 14:17:06.316869  1506 net.cpp:425] relu2 <- conv2
I0710 14:17:06.316902  1506 net.cpp:386] relu2 -> conv2 (in-place)
I0710 14:17:06.317070  1506 net.cpp:141] Setting up relu2
I0710 14:17:06.317093  1506 net.cpp:148] Top shape: 256 128 13 13 (5537792)
I0710 14:17:06.317103  1506 net.cpp:156] Memory required for data: 885197824
I0710 14:17:06.317114  1506 layer_factory.hpp:77] Creating layer norm2
I0710 14:17:06.317131  1506 net.cpp:91] Creating Layer norm2
I0710 14:17:06.317143  1506 net.cpp:425] norm2 <- conv2
I0710 14:17:06.317157  1506 net.cpp:399] norm2 -> norm2
I0710 14:17:06.317458  1506 net.cpp:141] Setting up norm2
I0710 14:17:06.317484  1506 net.cpp:148] Top shape: 256 128 13 13 (5537792)
I0710 14:17:06.317494  1506 net.cpp:156] Memory required for data: 907348992
I0710 14:17:06.317504  1506 layer_factory.hpp:77] Creating layer conv3
I0710 14:17:06.317525  1506 net.cpp:91] Creating Layer conv3
I0710 14:17:06.317536  1506 net.cpp:425] conv3 <- norm2
I0710 14:17:06.317553  1506 net.cpp:399] conv3 -> conv3
I0710 14:17:06.321002  1506 net.cpp:141] Setting up conv3
I0710 14:17:06.321029  1506 net.cpp:148] Top shape: 256 256 11 11 (7929856)
I0710 14:17:06.321039  1506 net.cpp:156] Memory required for data: 939068416
I0710 14:17:06.321063  1506 layer_factory.hpp:77] Creating layer relu3
I0710 14:17:06.321079  1506 net.cpp:91] Creating Layer relu3
I0710 14:17:06.321089  1506 net.cpp:425] relu3 <- conv3
I0710 14:17:06.321102  1506 net.cpp:386] relu3 -> conv3 (in-place)
I0710 14:17:06.321352  1506 net.cpp:141] Setting up relu3
I0710 14:17:06.321377  1506 net.cpp:148] Top shape: 256 256 11 11 (7929856)
I0710 14:17:06.321388  1506 net.cpp:156] Memory required for data: 970787840
I0710 14:17:06.321398  1506 layer_factory.hpp:77] Creating layer pool3
I0710 14:17:06.321411  1506 net.cpp:91] Creating Layer pool3
I0710 14:17:06.321422  1506 net.cpp:425] pool3 <- conv3
I0710 14:17:06.321436  1506 net.cpp:399] pool3 -> pool3
I0710 14:17:06.321506  1506 net.cpp:141] Setting up pool3
I0710 14:17:06.321552  1506 net.cpp:148] Top shape: 256 256 5 5 (1638400)
I0710 14:17:06.321566  1506 net.cpp:156] Memory required for data: 977341440
I0710 14:17:06.321578  1506 layer_factory.hpp:77] Creating layer dropout3
I0710 14:17:06.322301  1506 net.cpp:91] Creating Layer dropout3
I0710 14:17:06.322319  1506 net.cpp:425] dropout3 <- pool3
I0710 14:17:06.322334  1506 net.cpp:386] dropout3 -> pool3 (in-place)
I0710 14:17:06.322391  1506 net.cpp:141] Setting up dropout3
I0710 14:17:06.322412  1506 net.cpp:148] Top shape: 256 256 5 5 (1638400)
I0710 14:17:06.322422  1506 net.cpp:156] Memory required for data: 983895040
I0710 14:17:06.322430  1506 layer_factory.hpp:77] Creating layer fc4
I0710 14:17:06.322451  1506 net.cpp:91] Creating Layer fc4
I0710 14:17:06.322461  1506 net.cpp:425] fc4 <- pool3
I0710 14:17:06.322477  1506 net.cpp:399] fc4 -> fc4
I0710 14:17:06.379946  1506 net.cpp:141] Setting up fc4
I0710 14:17:06.379992  1506 net.cpp:148] Top shape: 256 1024 (262144)
I0710 14:17:06.380002  1506 net.cpp:156] Memory required for data: 984943616
I0710 14:17:06.380022  1506 layer_factory.hpp:77] Creating layer relu4
I0710 14:17:06.380040  1506 net.cpp:91] Creating Layer relu4
I0710 14:17:06.380051  1506 net.cpp:425] relu4 <- fc4
I0710 14:17:06.380072  1506 net.cpp:386] relu4 -> fc4 (in-place)
I0710 14:17:06.380389  1506 net.cpp:141] Setting up relu4
I0710 14:17:06.380414  1506 net.cpp:148] Top shape: 256 1024 (262144)
I0710 14:17:06.380424  1506 net.cpp:156] Memory required for data: 985992192
I0710 14:17:06.380434  1506 layer_factory.hpp:77] Creating layer dropout4
I0710 14:17:06.380450  1506 net.cpp:91] Creating Layer dropout4
I0710 14:17:06.380460  1506 net.cpp:425] dropout4 <- fc4
I0710 14:17:06.380475  1506 net.cpp:386] dropout4 -> fc4 (in-place)
I0710 14:17:06.380520  1506 net.cpp:141] Setting up dropout4
I0710 14:17:06.380542  1506 net.cpp:148] Top shape: 256 1024 (262144)
I0710 14:17:06.380553  1506 net.cpp:156] Memory required for data: 987040768
I0710 14:17:06.380563  1506 layer_factory.hpp:77] Creating layer fc5
I0710 14:17:06.380586  1506 net.cpp:91] Creating Layer fc5
I0710 14:17:06.380622  1506 net.cpp:425] fc5 <- fc4
I0710 14:17:06.380641  1506 net.cpp:399] fc5 -> fc5
I0710 14:17:06.380954  1506 net.cpp:141] Setting up fc5
I0710 14:17:06.380976  1506 net.cpp:148] Top shape: 256 20 (5120)
I0710 14:17:06.380986  1506 net.cpp:156] Memory required for data: 987061248
I0710 14:17:06.381011  1506 layer_factory.hpp:77] Creating layer fc5_fc5_0_split
I0710 14:17:06.381027  1506 net.cpp:91] Creating Layer fc5_fc5_0_split
I0710 14:17:06.381038  1506 net.cpp:425] fc5_fc5_0_split <- fc5
I0710 14:17:06.381053  1506 net.cpp:399] fc5_fc5_0_split -> fc5_fc5_0_split_0
I0710 14:17:06.381070  1506 net.cpp:399] fc5_fc5_0_split -> fc5_fc5_0_split_1
I0710 14:17:06.381129  1506 net.cpp:141] Setting up fc5_fc5_0_split
I0710 14:17:06.381150  1506 net.cpp:148] Top shape: 256 20 (5120)
I0710 14:17:06.381162  1506 net.cpp:148] Top shape: 256 20 (5120)
I0710 14:17:06.381171  1506 net.cpp:156] Memory required for data: 987102208
I0710 14:17:06.381181  1506 layer_factory.hpp:77] Creating layer loss
I0710 14:17:06.381201  1506 net.cpp:91] Creating Layer loss
I0710 14:17:06.381212  1506 net.cpp:425] loss <- fc5_fc5_0_split_0
I0710 14:17:06.381224  1506 net.cpp:425] loss <- label_data_1_split_0
I0710 14:17:06.381240  1506 net.cpp:399] loss -> loss
…
I0710 14:17:06.382755  1506 net.cpp:313] The NetState phase (1) differed from the phase (0) specified by a rule in layer data
I0710 14:17:06.382810  1506 net.cpp:313] The NetState phase (1) differed from the phase (0) specified by a rule in layer accuracy
I0710 14:17:06.382987  1506 net.cpp:49] Initializing net from parameters: 
name: "Model4"
state {
  phase: TEST
}
layer {
  name: "data"
  type: "Data"
  top: "data"
  top: "label"
  include {
    phase: TEST
  }
  transform_param {
    mirror: false
    mean_file: "../lmdb/mean_file.binaryproto"
  }
  data_param {
    source: "../lmdb/val_lmdb"
    batch_size: 128
    backend: LMDB
  }
}
layer {
  name: "conv1"
  type: "Convolution"
  bottom: "data"
  top: "conv1"
  param {
    lr_mult: 1
    decay_mult: 0
  }
  param {
    lr_mult: 2
    decay_mult: 0
  }
  convolution_param {
    num_output: 64
    kernel_size: 7
    stride: 2
    weight_filler {
      type: "xavier"
    }
    bias_filler {
      type: "constant"
      value: 0.1
    }
  }
}
layer {
  name: "relu1"
  type: "ReLU"
  bottom: "conv1"
  top: "conv1"
}
layer {
  name: "norm1"
  type: "LRN"
  bottom: "conv1"
  top: "norm1"
  lrn_param {
    local_size: 5
    alpha: 0.0001
    beta: 0.75
  }
}
layer {
  name: "pool1"
  type: "Pooling"
  bottom: "norm1"
  top: "pool1"
  pooling_param {
    pool: MAX
    kernel_size: 3
    stride: 2
  }
}
layer {
  name: "conv2"
  type: "Convolution"
  bottom: "pool1"
  top: "conv2"
  param {
    lr_mult: 1
    decay_mult: 0
  }
  param {
    lr_mult: 2
    decay_mult: 0
  }
  convolution_param {
    num_output: 128
    kernel_size: 5
    stride: 2
    weight_filler {
      type: "xavier"
    }
    bias_filler {
      type: "constant"
      value: 0.1
    }
  }
}
layer {
  name: "relu2"
  type: "ReLU"
  bottom: "conv2"
  top: "conv2"
}
layer {
  name: "norm2"
  type: "LRN"
  bottom: "conv2"
  top: "norm2"
  lrn_param {
    local_size: 5
    alpha: 0.0001
    beta: 0.75
  }
}
layer {
  name: "conv3"
  type: "Convolution"
  bottom: "norm2"
  top: "conv3"
  param {
    lr_mult: 1
    decay_mult: 0
  }
  param {
    lr_mult: 2
    decay_mult: 0
  }
  convolution_param {
    num_output: 256
    kernel_size: 3
    stride: 1
    weight_filler {
      type: "xavier"
    }
    bias_filler {
      type: "constant"
      value: 0.1
    }
  }
}
layer {
  name: "relu3"
  type: "ReLU"
  bottom: "conv3"
  top: "conv3"
}
layer {
  name: "pool3"
  type: "Pooling"
  bottom: "conv3"
  top: "pool3"
  pooling_param {
    pool: MAX
    kernel_size: 3
    stride: 2
  }
}
layer {
  name: "dropout3"
  type: "Dropout"
  bottom: "pool3"
  top: "pool3"
  dropout_param {
    dropout_ratio: 0.5
  }
}
layer {
  name: "fc4"
  type: "InnerProduct"
  bottom: "pool3"
  top: "fc4"
  param {
    lr_mult: 1
    decay_mult: 0
  }
  param {
    lr_mult: 2
    decay_mult: 0
  }
  inner_product_param {
    num_output: 1024
    weight_filler {
      type: "xavier"
    }
    bias_filler {
      type: "constant"
      value: 0
    }
  }
}
layer {
  name: "relu4"
  type: "ReLU"
  bottom: "fc4"
  top: "fc4"
}
layer {
  name: "dropout4"
  type: "Dropout"
  bottom: "fc4"
  top: "fc4"
  dropout_param {
    dropout_ratio: 0.5
  }
}
layer {
  name: "fc5"
  type: "InnerProduct"
  bottom: "fc4"
  top: "fc5"
  param {
    lr_mult: 1
    decay_mult: 0
  }
  param {
    lr_mult: 2
    decay_mult: 0
  }
  inner_product_param {
    num_output: 20
    weight_filler {
      type: "xavier"
    }
    bias_filler {
      type: "constant"
      value: 0
    }
  }
}
layer {
  name: "loss"
  type: "SoftmaxWithLoss"
  bottom: "fc5"
  bottom: "label"
  top: "loss"
}
layer {
  name: "accuracy"
  type: "Accuracy"
  bottom: "fc5"
  bottom: "label"
  top: "accuracy"
  include {
    phase: TEST
  }
}
I0710 14:17:06.383162  1506 layer_factory.hpp:77] Creating layer data
I0710 14:17:06.383404  1506 net.cpp:91] Creating Layer data
I0710 14:17:06.383422  1506 net.cpp:399] data -> data
I0710 14:17:06.383442  1506 net.cpp:399] data -> label
I0710 14:17:06.383461  1506 data_transformer.cpp:25] Loading mean file from: ../lmdb/mean_file.binaryproto
I0710 14:17:06.385321  1521 db_lmdb.cpp:35] Opened lmdb ../lmdb/val_lmdb
I0710 14:17:06.388953  1506 data_layer.cpp:41] output data size: 128,3,128,128
I0710 14:17:06.435827  1506 net.cpp:141] Setting up data
I0710 14:17:06.435868  1506 net.cpp:148] Top shape: 128 3 128 128 (6291456)
I0710 14:17:06.435878  1506 net.cpp:148] Top shape: 128 (128)
I0710 14:17:06.435888  1506 net.cpp:156] Memory required for data: 25166336
I0710 14:17:06.435895  1506 layer_factory.hpp:77] Creating layer label_data_1_split
I0710 14:17:06.435911  1506 net.cpp:91] Creating Layer label_data_1_split
I0710 14:17:06.435919  1506 net.cpp:425] label_data_1_split <- label
I0710 14:17:06.435927  1506 net.cpp:399] label_data_1_split -> label_data_1_split_0
I0710 14:17:06.435941  1506 net.cpp:399] label_data_1_split -> label_data_1_split_1
I0710 14:17:06.436053  1506 net.cpp:141] Setting up label_data_1_split
I0710 14:17:06.436071  1506 net.cpp:148] Top shape: 128 (128)
I0710 14:17:06.436079  1506 net.cpp:148] Top shape: 128 (128)
I0710 14:17:06.436084  1506 net.cpp:156] Memory required for data: 25167360
I0710 14:17:06.436089  1506 layer_factory.hpp:77] Creating layer conv1
I0710 14:17:06.436106  1506 net.cpp:91] Creating Layer conv1
I0710 14:17:06.436111  1506 net.cpp:425] conv1 <- data
I0710 14:17:06.436122  1506 net.cpp:399] conv1 -> conv1
I0710 14:17:06.440395  1506 net.cpp:141] Setting up conv1
I0710 14:17:06.440423  1506 net.cpp:148] Top shape: 128 64 61 61 (30482432)
I0710 14:17:06.440429  1506 net.cpp:156] Memory required for data: 147097088
I0710 14:17:06.440444  1506 layer_factory.hpp:77] Creating layer relu1
I0710 14:17:06.440454  1506 net.cpp:91] Creating Layer relu1
I0710 14:17:06.440459  1506 net.cpp:425] relu1 <- conv1
I0710 14:17:06.440466  1506 net.cpp:386] relu1 -> conv1 (in-place)
I0710 14:17:06.440618  1506 net.cpp:141] Setting up relu1
I0710 14:17:06.440637  1506 net.cpp:148] Top shape: 128 64 61 61 (30482432)
I0710 14:17:06.440642  1506 net.cpp:156] Memory required for data: 269026816
I0710 14:17:06.440649  1506 layer_factory.hpp:77] Creating layer norm1
I0710 14:17:06.440660  1506 net.cpp:91] Creating Layer norm1
I0710 14:17:06.440665  1506 net.cpp:425] norm1 <- conv1
I0710 14:17:06.440672  1506 net.cpp:399] norm1 -> norm1
I0710 14:17:06.440946  1506 net.cpp:141] Setting up norm1
I0710 14:17:06.440968  1506 net.cpp:148] Top shape: 128 64 61 61 (30482432)
I0710 14:17:06.440973  1506 net.cpp:156] Memory required for data: 390956544
I0710 14:17:06.440979  1506 layer_factory.hpp:77] Creating layer pool1
I0710 14:17:06.440989  1506 net.cpp:91] Creating Layer pool1
I0710 14:17:06.440994  1506 net.cpp:425] pool1 <- norm1
I0710 14:17:06.441001  1506 net.cpp:399] pool1 -> pool1
I0710 14:17:06.441045  1506 net.cpp:141] Setting up pool1
I0710 14:17:06.441056  1506 net.cpp:148] Top shape: 128 64 30 30 (7372800)
I0710 14:17:06.441061  1506 net.cpp:156] Memory required for data: 420447744
I0710 14:17:06.441066  1506 layer_factory.hpp:77] Creating layer conv2
I0710 14:17:06.441077  1506 net.cpp:91] Creating Layer conv2
I0710 14:17:06.441082  1506 net.cpp:425] conv2 <- pool1
I0710 14:17:06.441092  1506 net.cpp:399] conv2 -> conv2
I0710 14:17:06.443976  1506 net.cpp:141] Setting up conv2
I0710 14:17:06.444000  1506 net.cpp:148] Top shape: 128 128 13 13 (2768896)
I0710 14:17:06.444006  1506 net.cpp:156] Memory required for data: 431523328
I0710 14:17:06.444018  1506 layer_factory.hpp:77] Creating layer relu2
I0710 14:17:06.444027  1506 net.cpp:91] Creating Layer relu2
I0710 14:17:06.444032  1506 net.cpp:425] relu2 <- conv2
I0710 14:17:06.444039  1506 net.cpp:386] relu2 -> conv2 (in-place)
I0710 14:17:06.444193  1506 net.cpp:141] Setting up relu2
I0710 14:17:06.444212  1506 net.cpp:148] Top shape: 128 128 13 13 (2768896)
I0710 14:17:06.444218  1506 net.cpp:156] Memory required for data: 442598912
I0710 14:17:06.444223  1506 layer_factory.hpp:77] Creating layer norm2
I0710 14:17:06.444233  1506 net.cpp:91] Creating Layer norm2
I0710 14:17:06.444237  1506 net.cpp:425] norm2 <- conv2
I0710 14:17:06.444245  1506 net.cpp:399] norm2 -> norm2
I0710 14:17:06.444604  1506 net.cpp:141] Setting up norm2
I0710 14:17:06.444627  1506 net.cpp:148] Top shape: 128 128 13 13 (2768896)
I0710 14:17:06.444653  1506 net.cpp:156] Memory required for data: 453674496
I0710 14:17:06.444658  1506 layer_factory.hpp:77] Creating layer conv3
I0710 14:17:06.444671  1506 net.cpp:91] Creating Layer conv3
I0710 14:17:06.444676  1506 net.cpp:425] conv3 <- norm2
I0710 14:17:06.444685  1506 net.cpp:399] conv3 -> conv3
I0710 14:17:06.448158  1506 net.cpp:141] Setting up conv3
I0710 14:17:06.448184  1506 net.cpp:148] Top shape: 128 256 11 11 (3964928)
I0710 14:17:06.448189  1506 net.cpp:156] Memory required for data: 469534208
I0710 14:17:06.448202  1506 layer_factory.hpp:77] Creating layer relu3
I0710 14:17:06.448211  1506 net.cpp:91] Creating Layer relu3
I0710 14:17:06.448217  1506 net.cpp:425] relu3 <- conv3
I0710 14:17:06.448225  1506 net.cpp:386] relu3 -> conv3 (in-place)
I0710 14:17:06.448380  1506 net.cpp:141] Setting up relu3
I0710 14:17:06.448401  1506 net.cpp:148] Top shape: 128 256 11 11 (3964928)
I0710 14:17:06.448407  1506 net.cpp:156] Memory required for data: 485393920
I0710 14:17:06.448412  1506 layer_factory.hpp:77] Creating layer pool3
I0710 14:17:06.448421  1506 net.cpp:91] Creating Layer pool3
I0710 14:17:06.448426  1506 net.cpp:425] pool3 <- conv3
I0710 14:17:06.448432  1506 net.cpp:399] pool3 -> pool3
I0710 14:17:06.448488  1506 net.cpp:141] Setting up pool3
I0710 14:17:06.448506  1506 net.cpp:148] Top shape: 128 256 5 5 (819200)
I0710 14:17:06.448511  1506 net.cpp:156] Memory required for data: 488670720
I0710 14:17:06.448515  1506 layer_factory.hpp:77] Creating layer dropout3
I0710 14:17:06.448524  1506 net.cpp:91] Creating Layer dropout3
I0710 14:17:06.448529  1506 net.cpp:425] dropout3 <- pool3
I0710 14:17:06.448539  1506 net.cpp:386] dropout3 -> pool3 (in-place)
I0710 14:17:06.448570  1506 net.cpp:141] Setting up dropout3
I0710 14:17:06.448580  1506 net.cpp:148] Top shape: 128 256 5 5 (819200)
I0710 14:17:06.448583  1506 net.cpp:156] Memory required for data: 491947520
I0710 14:17:06.448588  1506 layer_factory.hpp:77] Creating layer fc4
I0710 14:17:06.448596  1506 net.cpp:91] Creating Layer fc4
I0710 14:17:06.448601  1506 net.cpp:425] fc4 <- pool3
I0710 14:17:06.448611  1506 net.cpp:399] fc4 -> fc4
I0710 14:17:06.504952  1506 net.cpp:141] Setting up fc4
I0710 14:17:06.504992  1506 net.cpp:148] Top shape: 128 1024 (131072)
I0710 14:17:06.504997  1506 net.cpp:156] Memory required for data: 492471808
I0710 14:17:06.505010  1506 layer_factory.hpp:77] Creating layer relu4
I0710 14:17:06.505024  1506 net.cpp:91] Creating Layer relu4
I0710 14:17:06.505031  1506 net.cpp:425] relu4 <- fc4
I0710 14:17:06.505040  1506 net.cpp:386] relu4 -> fc4 (in-place)
I0710 14:17:06.505414  1506 net.cpp:141] Setting up relu4
I0710 14:17:06.505435  1506 net.cpp:148] Top shape: 128 1024 (131072)
I0710 14:17:06.505441  1506 net.cpp:156] Memory required for data: 492996096
I0710 14:17:06.505446  1506 layer_factory.hpp:77] Creating layer dropout4
I0710 14:17:06.505458  1506 net.cpp:91] Creating Layer dropout4
I0710 14:17:06.505463  1506 net.cpp:425] dropout4 <- fc4
I0710 14:17:06.505470  1506 net.cpp:386] dropout4 -> fc4 (in-place)
I0710 14:17:06.505499  1506 net.cpp:141] Setting up dropout4
I0710 14:17:06.505514  1506 net.cpp:148] Top shape: 128 1024 (131072)
I0710 14:17:06.505519  1506 net.cpp:156] Memory required for data: 493520384
I0710 14:17:06.505524  1506 layer_factory.hpp:77] Creating layer fc5
I0710 14:17:06.505540  1506 net.cpp:91] Creating Layer fc5
I0710 14:17:06.505545  1506 net.cpp:425] fc5 <- fc4
I0710 14:17:06.505555  1506 net.cpp:399] fc5 -> fc5
I0710 14:17:06.505825  1506 net.cpp:141] Setting up fc5
I0710 14:17:06.505846  1506 net.cpp:148] Top shape: 128 20 (2560)
I0710 14:17:06.505851  1506 net.cpp:156] Memory required for data: 493530624
I0710 14:17:06.505863  1506 layer_factory.hpp:77] Creating layer fc5_fc5_0_split
I0710 14:17:06.505872  1506 net.cpp:91] Creating Layer fc5_fc5_0_split
I0710 14:17:06.505887  1506 net.cpp:425] fc5_fc5_0_split <- fc5
I0710 14:17:06.505894  1506 net.cpp:399] fc5_fc5_0_split -> fc5_fc5_0_split_0
I0710 14:17:06.505903  1506 net.cpp:399] fc5_fc5_0_split -> fc5_fc5_0_split_1
I0710 14:17:06.505967  1506 net.cpp:141] Setting up fc5_fc5_0_split
I0710 14:17:06.505983  1506 net.cpp:148] Top shape: 128 20 (2560)
I0710 14:17:06.505990  1506 net.cpp:148] Top shape: 128 20 (2560)
I0710 14:17:06.505995  1506 net.cpp:156] Memory required for data: 493551104
I0710 14:17:06.505998  1506 layer_factory.hpp:77] Creating layer loss
I0710 14:17:06.506006  1506 net.cpp:91] Creating Layer loss
I0710 14:17:06.506011  1506 net.cpp:425] loss <- fc5_fc5_0_split_0
I0710 14:17:06.506016  1506 net.cpp:425] loss <- label_data_1_split_0
I0710 14:17:06.506026  1506 net.cpp:399] loss -> loss
…
