…
I0710 15:18:43.178987  1584 net.cpp:313] The NetState phase (0) differed from the phase (1) specified by a rule in layer data
I0710 15:18:43.179023  1584 net.cpp:313] The NetState phase (0) differed from the phase (1) specified by a rule in layer accuracy
I0710 15:18:43.179232  1584 net.cpp:49] Initializing net from parameters: 
name: "Model4"
state {
  phase: TRAIN
}
layer {
  name: "data"
  type: "Data"
  top: "data"
  top: "label"
  include {
    phase: TRAIN
  }
  transform_param {
    mirror: true
    mean_file: "../lmdb/mean_file.binaryproto"
  }
  data_param {
    source: "../lmdb/train_lmdb"
    batch_size: 256
    backend: LMDB
  }
}
layer {
  name: "conv1"
  type: "Convolution"
  bottom: "data"
  top: "conv1"
  param {
    lr_mult: 1
    decay_mult: 0
  }
  param {
    lr_mult: 2
    decay_mult: 0
  }
  convolution_param {
    num_output: 64
    kernel_size: 7
    stride: 2
    weight_filler {
      type: "xavier"
    }
    bias_filler {
      type: "constant"
      value: 0.1
    }
  }
}
layer {
  name: "relu1"
  type: "ReLU"
  bottom: "conv1"
  top: "conv1"
}
layer {
  name: "norm1"
  type: "LRN"
  bottom: "conv1"
  top: "norm1"
  lrn_param {
    local_size: 5
    alpha: 0.0001
    beta: 0.75
  }
}
layer {
  name: "pool1"
  type: "Pooling"
  bottom: "norm1"
  top: "pool1"
  pooling_param {
    pool: MAX
    kernel_size: 3
    stride: 2
  }
}
layer {
  name: "conv2"
  type: "Convolution"
  bottom: "pool1"
  top: "conv2"
  param {
    lr_mult: 1
    decay_mult: 0
  }
  param {
    lr_mult: 2
    decay_mult: 0
  }
  convolution_param {
    num_output: 128
    kernel_size: 5
    stride: 2
    weight_filler {
      type: "xavier"
    }
    bias_filler {
      type: "constant"
      value: 0.1
    }
  }
}
layer {
  name: "relu2"
  type: "ReLU"
  bottom: "conv2"
  top: "conv2"
}
layer {
  name: "norm2"
  type: "LRN"
  bottom: "conv2"
  top: "norm2"
  lrn_param {
    local_size: 5
    alpha: 0.0001
    beta: 0.75
  }
}
layer {
  name: "conv3"
  type: "Convolution"
  bottom: "norm2"
  top: "conv3"
  param {
    lr_mult: 1
    decay_mult: 0
  }
  param {
    lr_mult: 2
    decay_mult: 0
  }
  convolution_param {
    num_output: 256
    kernel_size: 3
    stride: 1
    weight_filler {
      type: "xavier"
    }
    bias_filler {
      type: "constant"
      value: 0.1
    }
  }
}
layer {
  name: "relu3"
  type: "ReLU"
  bottom: "conv3"
  top: "conv3"
}
layer {
  name: "pool3"
  type: "Pooling"
  bottom: "conv3"
  top: "pool3"
  pooling_param {
    pool: MAX
    kernel_size: 3
    stride: 2
  }
}
layer {
  name: "dropout3"
  type: "Dropout"
  bottom: "pool3"
  top: "pool3"
  dropout_param {
    dropout_ratio: 0.5
  }
}
layer {
  name: "fc4"
  type: "InnerProduct"
  bottom: "pool3"
  top: "fc4"
  param {
    lr_mult: 1
    decay_mult: 0
  }
  param {
    lr_mult: 2
    decay_mult: 0
  }
  inner_product_param {
    num_output: 1024
    weight_filler {
      type: "xavier"
    }
    bias_filler {
      type: "constant"
      value: 0
    }
  }
}
layer {
  name: "relu4"
  type: "ReLU"
  bottom: "fc4"
  top: "fc4"
}
layer {
  name: "dropout4"
  type: "Dropout"
  bottom: "fc4"
  top: "fc4"
  dropout_param {
    dropout_ratio: 0.5
  }
}
layer {
  name: "fc5"
  type: "InnerProduct"
  bottom: "fc4"
  top: "fc5"
  param {
    lr_mult: 1
    decay_mult: 0
  }
  param {
    lr_mult: 2
    decay_mult: 0
  }
  inner_product_param {
    num_output: 20
    weight_filler {
      type: "xavier"
    }
    bias_filler {
      type: "constant"
      value: 0
    }
  }
}
layer {
  name: "loss"
  type: "SoftmaxWithLoss"
  bottom: "fc5"
  bottom: "label"
  top: "loss"
}
layer {
  name: "accuracy"
  type: "Accuracy"
  bottom: "fc5"
  bottom: "label"
  top: "accuracy"
  include {
    phase: TRAIN
  }
}
I0710 15:18:43.179435  1584 layer_factory.hpp:77] Creating layer data
I0710 15:18:43.180085  1584 net.cpp:91] Creating Layer data
I0710 15:18:43.180112  1584 net.cpp:399] data -> data
I0710 15:18:43.180150  1584 net.cpp:399] data -> label
I0710 15:18:43.180178  1584 data_transformer.cpp:25] Loading mean file from: ../lmdb/mean_file.binaryproto
I0710 15:18:43.180784  1591 db_lmdb.cpp:35] Opened lmdb ../lmdb/train_lmdb
I0710 15:18:43.193922  1584 data_layer.cpp:41] output data size: 256,3,128,128
I0710 15:18:43.285886  1584 net.cpp:141] Setting up data
I0710 15:18:43.285935  1584 net.cpp:148] Top shape: 256 3 128 128 (12582912)
I0710 15:18:43.285944  1584 net.cpp:148] Top shape: 256 (256)
I0710 15:18:43.285949  1584 net.cpp:156] Memory required for data: 50332672
I0710 15:18:43.285961  1584 layer_factory.hpp:77] Creating layer label_data_1_split
I0710 15:18:43.285980  1584 net.cpp:91] Creating Layer label_data_1_split
I0710 15:18:43.285989  1584 net.cpp:425] label_data_1_split <- label
I0710 15:18:43.286005  1584 net.cpp:399] label_data_1_split -> label_data_1_split_0
I0710 15:18:43.286027  1584 net.cpp:399] label_data_1_split -> label_data_1_split_1
I0710 15:18:43.286082  1584 net.cpp:141] Setting up label_data_1_split
I0710 15:18:43.286098  1584 net.cpp:148] Top shape: 256 (256)
I0710 15:18:43.286105  1584 net.cpp:148] Top shape: 256 (256)
I0710 15:18:43.286109  1584 net.cpp:156] Memory required for data: 50334720
I0710 15:18:43.286115  1584 layer_factory.hpp:77] Creating layer conv1
I0710 15:18:43.286141  1584 net.cpp:91] Creating Layer conv1
I0710 15:18:43.286154  1584 net.cpp:425] conv1 <- data
I0710 15:18:43.286164  1584 net.cpp:399] conv1 -> conv1
I0710 15:18:43.466732  1584 net.cpp:141] Setting up conv1
I0710 15:18:43.466775  1584 net.cpp:148] Top shape: 256 64 61 61 (60964864)
I0710 15:18:43.466783  1584 net.cpp:156] Memory required for data: 294194176
I0710 15:18:43.466809  1584 layer_factory.hpp:77] Creating layer relu1
I0710 15:18:43.466825  1584 net.cpp:91] Creating Layer relu1
I0710 15:18:43.466832  1584 net.cpp:425] relu1 <- conv1
I0710 15:18:43.466840  1584 net.cpp:386] relu1 -> conv1 (in-place)
I0710 15:18:43.467054  1584 net.cpp:141] Setting up relu1
I0710 15:18:43.467085  1584 net.cpp:148] Top shape: 256 64 61 61 (60964864)
I0710 15:18:43.467092  1584 net.cpp:156] Memory required for data: 538053632
I0710 15:18:43.467098  1584 layer_factory.hpp:77] Creating layer norm1
I0710 15:18:43.467118  1584 net.cpp:91] Creating Layer norm1
I0710 15:18:43.467123  1584 net.cpp:425] norm1 <- conv1
I0710 15:18:43.467130  1584 net.cpp:399] norm1 -> norm1
I0710 15:18:43.467463  1584 net.cpp:141] Setting up norm1
I0710 15:18:43.467485  1584 net.cpp:148] Top shape: 256 64 61 61 (60964864)
I0710 15:18:43.467492  1584 net.cpp:156] Memory required for data: 781913088
I0710 15:18:43.467497  1584 layer_factory.hpp:77] Creating layer pool1
I0710 15:18:43.467507  1584 net.cpp:91] Creating Layer pool1
I0710 15:18:43.467525  1584 net.cpp:425] pool1 <- norm1
I0710 15:18:43.467536  1584 net.cpp:399] pool1 -> pool1
I0710 15:18:43.467624  1584 net.cpp:141] Setting up pool1
I0710 15:18:43.467660  1584 net.cpp:148] Top shape: 256 64 30 30 (14745600)
I0710 15:18:43.467671  1584 net.cpp:156] Memory required for data: 840895488
I0710 15:18:43.467677  1584 layer_factory.hpp:77] Creating layer conv2
I0710 15:18:43.467692  1584 net.cpp:91] Creating Layer conv2
I0710 15:18:43.467700  1584 net.cpp:425] conv2 <- pool1
I0710 15:18:43.467710  1584 net.cpp:399] conv2 -> conv2
I0710 15:18:43.470516  1584 net.cpp:141] Setting up conv2
I0710 15:18:43.470538  1584 net.cpp:148] Top shape: 256 128 13 13 (5537792)
I0710 15:18:43.470546  1584 net.cpp:156] Memory required for data: 863046656
I0710 15:18:43.470561  1584 layer_factory.hpp:77] Creating layer relu2
I0710 15:18:43.470569  1584 net.cpp:91] Creating Layer relu2
I0710 15:18:43.470574  1584 net.cpp:425] relu2 <- conv2
I0710 15:18:43.470583  1584 net.cpp:386] relu2 -> conv2 (in-place)
I0710 15:18:43.470762  1584 net.cpp:141] Setting up relu2
I0710 15:18:43.470780  1584 net.cpp:148] Top shape: 256 128 13 13 (5537792)
I0710 15:18:43.470787  1584 net.cpp:156] Memory required for data: 885197824
I0710 15:18:43.470791  1584 layer_factory.hpp:77] Creating layer norm2
I0710 15:18:43.470803  1584 net.cpp:91] Creating Layer norm2
I0710 15:18:43.470809  1584 net.cpp:425] norm2 <- conv2
I0710 15:18:43.470816  1584 net.cpp:399] norm2 -> norm2
I0710 15:18:43.471093  1584 net.cpp:141] Setting up norm2
I0710 15:18:43.471114  1584 net.cpp:148] Top shape: 256 128 13 13 (5537792)
I0710 15:18:43.471120  1584 net.cpp:156] Memory required for data: 907348992
I0710 15:18:43.471125  1584 layer_factory.hpp:77] Creating layer conv3
I0710 15:18:43.471143  1584 net.cpp:91] Creating Layer conv3
I0710 15:18:43.471148  1584 net.cpp:425] conv3 <- norm2
I0710 15:18:43.471158  1584 net.cpp:399] conv3 -> conv3
I0710 15:18:43.474674  1584 net.cpp:141] Setting up conv3
I0710 15:18:43.474697  1584 net.cpp:148] Top shape: 256 256 11 11 (7929856)
I0710 15:18:43.474704  1584 net.cpp:156] Memory required for data: 939068416
I0710 15:18:43.474716  1584 layer_factory.hpp:77] Creating layer relu3
I0710 15:18:43.474725  1584 net.cpp:91] Creating Layer relu3
I0710 15:18:43.474730  1584 net.cpp:425] relu3 <- conv3
I0710 15:18:43.474738  1584 net.cpp:386] relu3 -> conv3 (in-place)
I0710 15:18:43.474982  1584 net.cpp:141] Setting up relu3
I0710 15:18:43.475003  1584 net.cpp:148] Top shape: 256 256 11 11 (7929856)
I0710 15:18:43.475008  1584 net.cpp:156] Memory required for data: 970787840
I0710 15:18:43.475013  1584 layer_factory.hpp:77] Creating layer pool3
I0710 15:18:43.475023  1584 net.cpp:91] Creating Layer pool3
I0710 15:18:43.475028  1584 net.cpp:425] pool3 <- conv3
I0710 15:18:43.475036  1584 net.cpp:399] pool3 -> pool3
I0710 15:18:43.475085  1584 net.cpp:141] Setting up pool3
I0710 15:18:43.475103  1584 net.cpp:148] Top shape: 256 256 5 5 (1638400)
I0710 15:18:43.475108  1584 net.cpp:156] Memory required for data: 977341440
I0710 15:18:43.475113  1584 layer_factory.hpp:77] Creating layer dropout3
I0710 15:18:43.475126  1584 net.cpp:91] Creating Layer dropout3
I0710 15:18:43.475131  1584 net.cpp:425] dropout3 <- pool3
I0710 15:18:43.475136  1584 net.cpp:386] dropout3 -> pool3 (in-place)
I0710 15:18:43.475172  1584 net.cpp:141] Setting up dropout3
I0710 15:18:43.475188  1584 net.cpp:148] Top shape: 256 256 5 5 (1638400)
I0710 15:18:43.475193  1584 net.cpp:156] Memory required for data: 983895040
I0710 15:18:43.475198  1584 layer_factory.hpp:77] Creating layer fc4
I0710 15:18:43.475211  1584 net.cpp:91] Creating Layer fc4
I0710 15:18:43.475216  1584 net.cpp:425] fc4 <- pool3
I0710 15:18:43.475224  1584 net.cpp:399] fc4 -> fc4
I0710 15:18:43.536399  1584 net.cpp:141] Setting up fc4
I0710 15:18:43.536450  1584 net.cpp:148] Top shape: 256 1024 (262144)
I0710 15:18:43.536458  1584 net.cpp:156] Memory required for data: 984943616
I0710 15:18:43.536471  1584 layer_factory.hpp:77] Creating layer relu4
I0710 15:18:43.536486  1584 net.cpp:91] Creating Layer relu4
I0710 15:18:43.536494  1584 net.cpp:425] relu4 <- fc4
I0710 15:18:43.536504  1584 net.cpp:386] relu4 -> fc4 (in-place)
I0710 15:18:43.536865  1584 net.cpp:141] Setting up relu4
I0710 15:18:43.536890  1584 net.cpp:148] Top shape: 256 1024 (262144)
I0710 15:18:43.536895  1584 net.cpp:156] Memory required for data: 985992192
I0710 15:18:43.536900  1584 layer_factory.hpp:77] Creating layer dropout4
I0710 15:18:43.536911  1584 net.cpp:91] Creating Layer dropout4
I0710 15:18:43.536916  1584 net.cpp:425] dropout4 <- fc4
I0710 15:18:43.536922  1584 net.cpp:386] dropout4 -> fc4 (in-place)
I0710 15:18:43.536954  1584 net.cpp:141] Setting up dropout4
I0710 15:18:43.536970  1584 net.cpp:148] Top shape: 256 1024 (262144)
I0710 15:18:43.536975  1584 net.cpp:156] Memory required for data: 987040768
I0710 15:18:43.536980  1584 layer_factory.hpp:77] Creating layer fc5
I0710 15:18:43.536998  1584 net.cpp:91] Creating Layer fc5
I0710 15:18:43.537008  1584 net.cpp:425] fc5 <- fc4
I0710 15:18:43.537036  1584 net.cpp:399] fc5 -> fc5
I0710 15:18:43.537313  1584 net.cpp:141] Setting up fc5
I0710 15:18:43.537331  1584 net.cpp:148] Top shape: 256 20 (5120)
I0710 15:18:43.537336  1584 net.cpp:156] Memory required for data: 987061248
I0710 15:18:43.537350  1584 layer_factory.hpp:77] Creating layer fc5_fc5_0_split
I0710 15:18:43.537359  1584 net.cpp:91] Creating Layer fc5_fc5_0_split
I0710 15:18:43.537364  1584 net.cpp:425] fc5_fc5_0_split <- fc5
I0710 15:18:43.537374  1584 net.cpp:399] fc5_fc5_0_split -> fc5_fc5_0_split_0
I0710 15:18:43.537382  1584 net.cpp:399] fc5_fc5_0_split -> fc5_fc5_0_split_1
I0710 15:18:43.537421  1584 net.cpp:141] Setting up fc5_fc5_0_split
I0710 15:18:43.537436  1584 net.cpp:148] Top shape: 256 20 (5120)
I0710 15:18:43.537442  1584 net.cpp:148] Top shape: 256 20 (5120)
I0710 15:18:43.537447  1584 net.cpp:156] Memory required for data: 987102208
I0710 15:18:43.537451  1584 layer_factory.hpp:77] Creating layer loss
I0710 15:18:43.537467  1584 net.cpp:91] Creating Layer loss
I0710 15:18:43.537472  1584 net.cpp:425] loss <- fc5_fc5_0_split_0
I0710 15:18:43.537477  1584 net.cpp:425] loss <- label_data_1_split_0
I0710 15:18:43.537485  1584 net.cpp:399] loss -> loss
…
I0710 15:18:43.538760  1584 net.cpp:313] The NetState phase (1) differed from the phase (0) specified by a rule in layer data
I0710 15:18:43.538803  1584 net.cpp:313] The NetState phase (1) differed from the phase (0) specified by a rule in layer accuracy
I0710 15:18:43.538961  1584 net.cpp:49] Initializing net from parameters: 
name: "Model4"
state {
  phase: TEST
}
layer {
  name: "data"
  type: "Data"
  top: "data"
  top: "label"
  include {
    phase: TEST
  }
  transform_param {
    mirror: false
    mean_file: "../lmdb/mean_file.binaryproto"
  }
  data_param {
    source: "../lmdb/val_lmdb"
    batch_size: 128
    backend: LMDB
  }
}
layer {
  name: "conv1"
  type: "Convolution"
  bottom: "data"
  top: "conv1"
  param {
    lr_mult: 1
    decay_mult: 0
  }
  param {
    lr_mult: 2
    decay_mult: 0
  }
  convolution_param {
    num_output: 64
    kernel_size: 7
    stride: 2
    weight_filler {
      type: "xavier"
    }
    bias_filler {
      type: "constant"
      value: 0.1
    }
  }
}
layer {
  name: "relu1"
  type: "ReLU"
  bottom: "conv1"
  top: "conv1"
}
layer {
  name: "norm1"
  type: "LRN"
  bottom: "conv1"
  top: "norm1"
  lrn_param {
    local_size: 5
    alpha: 0.0001
    beta: 0.75
  }
}
layer {
  name: "pool1"
  type: "Pooling"
  bottom: "norm1"
  top: "pool1"
  pooling_param {
    pool: MAX
    kernel_size: 3
    stride: 2
  }
}
layer {
  name: "conv2"
  type: "Convolution"
  bottom: "pool1"
  top: "conv2"
  param {
    lr_mult: 1
    decay_mult: 0
  }
  param {
    lr_mult: 2
    decay_mult: 0
  }
  convolution_param {
    num_output: 128
    kernel_size: 5
    stride: 2
    weight_filler {
      type: "xavier"
    }
    bias_filler {
      type: "constant"
      value: 0.1
    }
  }
}
layer {
  name: "relu2"
  type: "ReLU"
  bottom: "conv2"
  top: "conv2"
}
layer {
  name: "norm2"
  type: "LRN"
  bottom: "conv2"
  top: "norm2"
  lrn_param {
    local_size: 5
    alpha: 0.0001
    beta: 0.75
  }
}
layer {
  name: "conv3"
  type: "Convolution"
  bottom: "norm2"
  top: "conv3"
  param {
    lr_mult: 1
    decay_mult: 0
  }
  param {
    lr_mult: 2
    decay_mult: 0
  }
  convolution_param {
    num_output: 256
    kernel_size: 3
    stride: 1
    weight_filler {
      type: "xavier"
    }
    bias_filler {
      type: "constant"
      value: 0.1
    }
  }
}
layer {
  name: "relu3"
  type: "ReLU"
  bottom: "conv3"
  top: "conv3"
}
layer {
  name: "pool3"
  type: "Pooling"
  bottom: "conv3"
  top: "pool3"
  pooling_param {
    pool: MAX
    kernel_size: 3
    stride: 2
  }
}
layer {
  name: "dropout3"
  type: "Dropout"
  bottom: "pool3"
  top: "pool3"
  dropout_param {
    dropout_ratio: 0.5
  }
}
layer {
  name: "fc4"
  type: "InnerProduct"
  bottom: "pool3"
  top: "fc4"
  param {
    lr_mult: 1
    decay_mult: 0
  }
  param {
    lr_mult: 2
    decay_mult: 0
  }
  inner_product_param {
    num_output: 1024
    weight_filler {
      type: "xavier"
    }
    bias_filler {
      type: "constant"
      value: 0
    }
  }
}
layer {
  name: "relu4"
  type: "ReLU"
  bottom: "fc4"
  top: "fc4"
}
layer {
  name: "dropout4"
  type: "Dropout"
  bottom: "fc4"
  top: "fc4"
  dropout_param {
    dropout_ratio: 0.5
  }
}
layer {
  name: "fc5"
  type: "InnerProduct"
  bottom: "fc4"
  top: "fc5"
  param {
    lr_mult: 1
    decay_mult: 0
  }
  param {
    lr_mult: 2
    decay_mult: 0
  }
  inner_product_param {
    num_output: 20
    weight_filler {
      type: "xavier"
    }
    bias_filler {
      type: "constant"
      value: 0
    }
  }
}
layer {
  name: "loss"
  type: "SoftmaxWithLoss"
  bottom: "fc5"
  bottom: "label"
  top: "loss"
}
layer {
  name: "accuracy"
  type: "Accuracy"
  bottom: "fc5"
  bottom: "label"
  top: "accuracy"
  include {
    phase: TEST
  }
}
I0710 15:18:43.539078  1584 layer_factory.hpp:77] Creating layer data
I0710 15:18:43.539243  1584 net.cpp:91] Creating Layer data
I0710 15:18:43.539285  1584 net.cpp:399] data -> data
I0710 15:18:43.539300  1584 net.cpp:399] data -> label
I0710 15:18:43.539310  1584 data_transformer.cpp:25] Loading mean file from: ../lmdb/mean_file.binaryproto
I0710 15:18:43.540024  1593 db_lmdb.cpp:35] Opened lmdb ../lmdb/val_lmdb
I0710 15:18:43.540225  1584 data_layer.cpp:41] output data size: 128,3,128,128
I0710 15:18:43.599149  1584 net.cpp:141] Setting up data
I0710 15:18:43.599194  1584 net.cpp:148] Top shape: 128 3 128 128 (6291456)
I0710 15:18:43.599201  1584 net.cpp:148] Top shape: 128 (128)
I0710 15:18:43.599206  1584 net.cpp:156] Memory required for data: 25166336
I0710 15:18:43.599215  1584 layer_factory.hpp:77] Creating layer label_data_1_split
I0710 15:18:43.599232  1584 net.cpp:91] Creating Layer label_data_1_split
I0710 15:18:43.599238  1584 net.cpp:425] label_data_1_split <- label
I0710 15:18:43.599248  1584 net.cpp:399] label_data_1_split -> label_data_1_split_0
I0710 15:18:43.599263  1584 net.cpp:399] label_data_1_split -> label_data_1_split_1
I0710 15:18:43.599323  1584 net.cpp:141] Setting up label_data_1_split
I0710 15:18:43.599331  1584 net.cpp:148] Top shape: 128 (128)
I0710 15:18:43.599337  1584 net.cpp:148] Top shape: 128 (128)
I0710 15:18:43.599341  1584 net.cpp:156] Memory required for data: 25167360
I0710 15:18:43.599345  1584 layer_factory.hpp:77] Creating layer conv1
I0710 15:18:43.599367  1584 net.cpp:91] Creating Layer conv1
I0710 15:18:43.599373  1584 net.cpp:425] conv1 <- data
I0710 15:18:43.599382  1584 net.cpp:399] conv1 -> conv1
I0710 15:18:43.603716  1584 net.cpp:141] Setting up conv1
I0710 15:18:43.603741  1584 net.cpp:148] Top shape: 128 64 61 61 (30482432)
I0710 15:18:43.603747  1584 net.cpp:156] Memory required for data: 147097088
I0710 15:18:43.603762  1584 layer_factory.hpp:77] Creating layer relu1
I0710 15:18:43.603772  1584 net.cpp:91] Creating Layer relu1
I0710 15:18:43.603785  1584 net.cpp:425] relu1 <- conv1
I0710 15:18:43.603792  1584 net.cpp:386] relu1 -> conv1 (in-place)
I0710 15:18:43.603948  1584 net.cpp:141] Setting up relu1
I0710 15:18:43.603966  1584 net.cpp:148] Top shape: 128 64 61 61 (30482432)
I0710 15:18:43.603971  1584 net.cpp:156] Memory required for data: 269026816
I0710 15:18:43.603977  1584 layer_factory.hpp:77] Creating layer norm1
I0710 15:18:43.603989  1584 net.cpp:91] Creating Layer norm1
I0710 15:18:43.603994  1584 net.cpp:425] norm1 <- conv1
I0710 15:18:43.604001  1584 net.cpp:399] norm1 -> norm1
I0710 15:18:43.604285  1584 net.cpp:141] Setting up norm1
I0710 15:18:43.604306  1584 net.cpp:148] Top shape: 128 64 61 61 (30482432)
I0710 15:18:43.604311  1584 net.cpp:156] Memory required for data: 390956544
I0710 15:18:43.604317  1584 layer_factory.hpp:77] Creating layer pool1
I0710 15:18:43.604327  1584 net.cpp:91] Creating Layer pool1
I0710 15:18:43.604332  1584 net.cpp:425] pool1 <- norm1
I0710 15:18:43.604341  1584 net.cpp:399] pool1 -> pool1
I0710 15:18:43.604387  1584 net.cpp:141] Setting up pool1
I0710 15:18:43.604401  1584 net.cpp:148] Top shape: 128 64 30 30 (7372800)
I0710 15:18:43.604406  1584 net.cpp:156] Memory required for data: 420447744
I0710 15:18:43.604411  1584 layer_factory.hpp:77] Creating layer conv2
I0710 15:18:43.604424  1584 net.cpp:91] Creating Layer conv2
I0710 15:18:43.604429  1584 net.cpp:425] conv2 <- pool1
I0710 15:18:43.604439  1584 net.cpp:399] conv2 -> conv2
I0710 15:18:43.607278  1584 net.cpp:141] Setting up conv2
I0710 15:18:43.607301  1584 net.cpp:148] Top shape: 128 128 13 13 (2768896)
I0710 15:18:43.607308  1584 net.cpp:156] Memory required for data: 431523328
I0710 15:18:43.607321  1584 layer_factory.hpp:77] Creating layer relu2
I0710 15:18:43.607331  1584 net.cpp:91] Creating Layer relu2
I0710 15:18:43.607337  1584 net.cpp:425] relu2 <- conv2
I0710 15:18:43.607345  1584 net.cpp:386] relu2 -> conv2 (in-place)
I0710 15:18:43.607506  1584 net.cpp:141] Setting up relu2
I0710 15:18:43.607547  1584 net.cpp:148] Top shape: 128 128 13 13 (2768896)
I0710 15:18:43.607554  1584 net.cpp:156] Memory required for data: 442598912
I0710 15:18:43.607560  1584 layer_factory.hpp:77] Creating layer norm2
I0710 15:18:43.607573  1584 net.cpp:91] Creating Layer norm2
I0710 15:18:43.607578  1584 net.cpp:425] norm2 <- conv2
I0710 15:18:43.607585  1584 net.cpp:399] norm2 -> norm2
I0710 15:18:43.607956  1584 net.cpp:141] Setting up norm2
I0710 15:18:43.607977  1584 net.cpp:148] Top shape: 128 128 13 13 (2768896)
I0710 15:18:43.608011  1584 net.cpp:156] Memory required for data: 453674496
I0710 15:18:43.608017  1584 layer_factory.hpp:77] Creating layer conv3
I0710 15:18:43.608034  1584 net.cpp:91] Creating Layer conv3
I0710 15:18:43.608041  1584 net.cpp:425] conv3 <- norm2
I0710 15:18:43.608048  1584 net.cpp:399] conv3 -> conv3
I0710 15:18:43.611634  1584 net.cpp:141] Setting up conv3
I0710 15:18:43.611660  1584 net.cpp:148] Top shape: 128 256 11 11 (3964928)
I0710 15:18:43.611665  1584 net.cpp:156] Memory required for data: 469534208
I0710 15:18:43.611678  1584 layer_factory.hpp:77] Creating layer relu3
I0710 15:18:43.611687  1584 net.cpp:91] Creating Layer relu3
I0710 15:18:43.611693  1584 net.cpp:425] relu3 <- conv3
I0710 15:18:43.611704  1584 net.cpp:386] relu3 -> conv3 (in-place)
I0710 15:18:43.611881  1584 net.cpp:141] Setting up relu3
I0710 15:18:43.611898  1584 net.cpp:148] Top shape: 128 256 11 11 (3964928)
I0710 15:18:43.611903  1584 net.cpp:156] Memory required for data: 485393920
I0710 15:18:43.611909  1584 layer_factory.hpp:77] Creating layer pool3
I0710 15:18:43.611918  1584 net.cpp:91] Creating Layer pool3
I0710 15:18:43.611923  1584 net.cpp:425] pool3 <- conv3
I0710 15:18:43.611933  1584 net.cpp:399] pool3 -> pool3
I0710 15:18:43.611986  1584 net.cpp:141] Setting up pool3
I0710 15:18:43.612002  1584 net.cpp:148] Top shape: 128 256 5 5 (819200)
I0710 15:18:43.612007  1584 net.cpp:156] Memory required for data: 488670720
I0710 15:18:43.612012  1584 layer_factory.hpp:77] Creating layer dropout3
I0710 15:18:43.612023  1584 net.cpp:91] Creating Layer dropout3
I0710 15:18:43.612028  1584 net.cpp:425] dropout3 <- pool3
I0710 15:18:43.612035  1584 net.cpp:386] dropout3 -> pool3 (in-place)
I0710 15:18:43.612066  1584 net.cpp:141] Setting up dropout3
I0710 15:18:43.612082  1584 net.cpp:148] Top shape: 128 256 5 5 (819200)
I0710 15:18:43.612087  1584 net.cpp:156] Memory required for data: 491947520
I0710 15:18:43.612092  1584 layer_factory.hpp:77] Creating layer fc4
I0710 15:18:43.612100  1584 net.cpp:91] Creating Layer fc4
I0710 15:18:43.612105  1584 net.cpp:425] fc4 <- pool3
I0710 15:18:43.612115  1584 net.cpp:399] fc4 -> fc4
I0710 15:18:43.672075  1584 net.cpp:141] Setting up fc4
I0710 15:18:43.672116  1584 net.cpp:148] Top shape: 128 1024 (131072)
I0710 15:18:43.672122  1584 net.cpp:156] Memory required for data: 492471808
I0710 15:18:43.672135  1584 layer_factory.hpp:77] Creating layer relu4
I0710 15:18:43.672148  1584 net.cpp:91] Creating Layer relu4
I0710 15:18:43.672155  1584 net.cpp:425] relu4 <- fc4
I0710 15:18:43.672164  1584 net.cpp:386] relu4 -> fc4 (in-place)
I0710 15:18:43.672554  1584 net.cpp:141] Setting up relu4
I0710 15:18:43.672574  1584 net.cpp:148] Top shape: 128 1024 (131072)
I0710 15:18:43.672580  1584 net.cpp:156] Memory required for data: 492996096
I0710 15:18:43.672585  1584 layer_factory.hpp:77] Creating layer dropout4
I0710 15:18:43.672597  1584 net.cpp:91] Creating Layer dropout4
I0710 15:18:43.672602  1584 net.cpp:425] dropout4 <- fc4
I0710 15:18:43.672610  1584 net.cpp:386] dropout4 -> fc4 (in-place)
I0710 15:18:43.672638  1584 net.cpp:141] Setting up dropout4
I0710 15:18:43.672654  1584 net.cpp:148] Top shape: 128 1024 (131072)
I0710 15:18:43.672659  1584 net.cpp:156] Memory required for data: 493520384
I0710 15:18:43.672667  1584 layer_factory.hpp:77] Creating layer fc5
I0710 15:18:43.672686  1584 net.cpp:91] Creating Layer fc5
I0710 15:18:43.672698  1584 net.cpp:425] fc5 <- fc4
I0710 15:18:43.672706  1584 net.cpp:399] fc5 -> fc5
I0710 15:18:43.672993  1584 net.cpp:141] Setting up fc5
I0710 15:18:43.673010  1584 net.cpp:148] Top shape: 128 20 (2560)
I0710 15:18:43.673015  1584 net.cpp:156] Memory required for data: 493530624
I0710 15:18:43.673029  1584 layer_factory.hpp:77] Creating layer fc5_fc5_0_split
I0710 15:18:43.673039  1584 net.cpp:91] Creating Layer fc5_fc5_0_split
I0710 15:18:43.673046  1584 net.cpp:425] fc5_fc5_0_split <- fc5
I0710 15:18:43.673056  1584 net.cpp:399] fc5_fc5_0_split -> fc5_fc5_0_split_0
I0710 15:18:43.673066  1584 net.cpp:399] fc5_fc5_0_split -> fc5_fc5_0_split_1
I0710 15:18:43.673141  1584 net.cpp:141] Setting up fc5_fc5_0_split
I0710 15:18:43.673157  1584 net.cpp:148] Top shape: 128 20 (2560)
I0710 15:18:43.673163  1584 net.cpp:148] Top shape: 128 20 (2560)
I0710 15:18:43.673167  1584 net.cpp:156] Memory required for data: 493551104
I0710 15:18:43.673172  1584 layer_factory.hpp:77] Creating layer loss
I0710 15:18:43.673183  1584 net.cpp:91] Creating Layer loss
I0710 15:18:43.673188  1584 net.cpp:425] loss <- fc5_fc5_0_split_0
I0710 15:18:43.673194  1584 net.cpp:425] loss <- label_data_1_split_0
I0710 15:18:43.673202  1584 net.cpp:399] loss -> loss
…
