…
I0710 02:15:51.548286  1780 net.cpp:313] The NetState phase (0) differed from the phase (1) specified by a rule in layer data
I0710 02:15:51.548317  1780 net.cpp:313] The NetState phase (0) differed from the phase (1) specified by a rule in layer accuracy
I0710 02:15:51.548470  1780 net.cpp:49] Initializing net from parameters: 
name: "Model2"
state {
  phase: TRAIN
}
layer {
  name: "data"
  type: "Data"
  top: "data"
  top: "label"
  include {
    phase: TRAIN
  }
  transform_param {
    mirror: true
    mean_file: "../lmdb/mean_file.binaryproto"
  }
  data_param {
    source: "../lmdb/train_lmdb"
    batch_size: 256
    backend: LMDB
  }
}
layer {
  name: "conv1"
  type: "Convolution"
  bottom: "data"
  top: "conv1"
  param {
    lr_mult: 1
    decay_mult: 0
  }
  param {
    lr_mult: 2
    decay_mult: 0
  }
  convolution_param {
    num_output: 64
    kernel_size: 7
    stride: 2
    weight_filler {
      type: "xavier"
    }
    bias_filler {
      type: "constant"
      value: 0.1
    }
  }
}
layer {
  name: "relu1"
  type: "ReLU"
  bottom: "conv1"
  top: "conv1"
}
layer {
  name: "pool1"
  type: "Pooling"
  bottom: "conv1"
  top: "pool1"
  pooling_param {
    pool: MAX
    kernel_size: 3
    stride: 2
  }
}
layer {
  name: "conv2"
  type: "Convolution"
  bottom: "pool1"
  top: "conv2"
  param {
    lr_mult: 1
    decay_mult: 0
  }
  param {
    lr_mult: 2
    decay_mult: 0
  }
  convolution_param {
    num_output: 128
    kernel_size: 5
    stride: 2
    weight_filler {
      type: "xavier"
    }
    bias_filler {
      type: "constant"
      value: 0.1
    }
  }
}
layer {
  name: "relu2"
  type: "ReLU"
  bottom: "conv2"
  top: "conv2"
}
layer {
  name: "conv3"
  type: "Convolution"
  bottom: "conv2"
  top: "conv3"
  param {
    lr_mult: 1
    decay_mult: 0
  }
  param {
    lr_mult: 2
    decay_mult: 0
  }
  convolution_param {
    num_output: 256
    kernel_size: 3
    stride: 1
    weight_filler {
      type: "xavier"
    }
    bias_filler {
      type: "constant"
      value: 0.1
    }
  }
}
layer {
  name: "relu3"
  type: "ReLU"
  bottom: "conv3"
  top: "conv3"
}
layer {
  name: "pool3"
  type: "Pooling"
  bottom: "conv3"
  top: "pool3"
  pooling_param {
    pool: MAX
    kernel_size: 3
    stride: 2
  }
}
layer {
  name: "fc4"
  type: "InnerProduct"
  bottom: "pool3"
  top: "fc4"
  param {
    lr_mult: 1
    decay_mult: 0
  }
  param {
    lr_mult: 2
    decay_mult: 0
  }
  inner_product_param {
    num_output: 1024
    weight_filler {
      type: "xavier"
    }
    bias_filler {
      type: "constant"
      value: 0
    }
  }
}
layer {
  name: "relu4"
  type: "ReLU"
  bottom: "fc4"
  top: "fc4"
}
layer {
  name: "dropout4"
  type: "Dropout"
  bottom: "fc4"
  top: "fc4"
  dropout_param {
    dropout_ratio: 0.5
  }
}
layer {
  name: "fc5"
  type: "InnerProduct"
  bottom: "fc4"
  top: "fc5"
  param {
    lr_mult: 1
    decay_mult: 0
  }
  param {
    lr_mult: 2
    decay_mult: 0
  }
  inner_product_param {
    num_output: 20
    weight_filler {
      type: "xavier"
    }
    bias_filler {
      type: "constant"
      value: 0
    }
  }
}
layer {
  name: "loss"
  type: "SoftmaxWithLoss"
  bottom: "fc5"
  bottom: "label"
  top: "loss"
}
layer {
  name: "accuracy"
  type: "Accuracy"
  bottom: "fc5"
  bottom: "label"
  top: "accuracy"
  include {
    phase: TRAIN
  }
}
I0710 02:15:51.548624  1780 layer_factory.hpp:77] Creating layer data
I0710 02:15:51.737586  1780 net.cpp:91] Creating Layer data
I0710 02:15:51.737614  1780 net.cpp:399] data -> data
I0710 02:15:51.737656  1780 net.cpp:399] data -> label
I0710 02:15:51.737679  1780 data_transformer.cpp:25] Loading mean file from: ../lmdb/mean_file.binaryproto
I0710 02:15:52.056200  1794 db_lmdb.cpp:35] Opened lmdb ../lmdb/train_lmdb
I0710 02:15:53.092157  1780 data_layer.cpp:41] output data size: 256,3,128,128
I0710 02:15:53.194064  1780 net.cpp:141] Setting up data
I0710 02:15:53.194130  1780 net.cpp:148] Top shape: 256 3 128 128 (12582912)
I0710 02:15:53.194139  1780 net.cpp:148] Top shape: 256 (256)
I0710 02:15:53.194144  1780 net.cpp:156] Memory required for data: 50332672
I0710 02:15:53.194160  1780 layer_factory.hpp:77] Creating layer label_data_1_split
I0710 02:15:53.195083  1780 net.cpp:91] Creating Layer label_data_1_split
I0710 02:15:53.195106  1780 net.cpp:425] label_data_1_split <- label
I0710 02:15:53.195130  1780 net.cpp:399] label_data_1_split -> label_data_1_split_0
I0710 02:15:53.195147  1780 net.cpp:399] label_data_1_split -> label_data_1_split_1
I0710 02:15:53.198999  1780 net.cpp:141] Setting up label_data_1_split
I0710 02:15:53.199020  1780 net.cpp:148] Top shape: 256 (256)
I0710 02:15:53.199026  1780 net.cpp:148] Top shape: 256 (256)
I0710 02:15:53.199031  1780 net.cpp:156] Memory required for data: 50334720
I0710 02:15:53.199038  1780 layer_factory.hpp:77] Creating layer conv1
I0710 02:15:53.199069  1780 net.cpp:91] Creating Layer conv1
I0710 02:15:53.199075  1780 net.cpp:425] conv1 <- data
I0710 02:15:53.199086  1780 net.cpp:399] conv1 -> conv1
I0710 02:15:53.212303  1795 blocking_queue.cpp:50] Waiting for data
I0710 02:16:12.380338  1780 net.cpp:141] Setting up conv1
I0710 02:16:12.380431  1780 net.cpp:148] Top shape: 256 64 61 61 (60964864)
I0710 02:16:12.380439  1780 net.cpp:156] Memory required for data: 294194176
I0710 02:16:12.380470  1780 layer_factory.hpp:77] Creating layer relu1
I0710 02:16:12.380489  1780 net.cpp:91] Creating Layer relu1
I0710 02:16:12.380504  1780 net.cpp:425] relu1 <- conv1
I0710 02:16:12.380514  1780 net.cpp:386] relu1 -> conv1 (in-place)
I0710 02:16:12.380686  1780 net.cpp:141] Setting up relu1
I0710 02:16:12.380705  1780 net.cpp:148] Top shape: 256 64 61 61 (60964864)
I0710 02:16:12.380712  1780 net.cpp:156] Memory required for data: 538053632
I0710 02:16:12.380717  1780 layer_factory.hpp:77] Creating layer pool1
I0710 02:16:12.380729  1780 net.cpp:91] Creating Layer pool1
I0710 02:16:12.380738  1780 net.cpp:425] pool1 <- conv1
I0710 02:16:12.380751  1780 net.cpp:399] pool1 -> pool1
I0710 02:16:12.380813  1780 net.cpp:141] Setting up pool1
I0710 02:16:12.380831  1780 net.cpp:148] Top shape: 256 64 30 30 (14745600)
I0710 02:16:12.380836  1780 net.cpp:156] Memory required for data: 597036032
I0710 02:16:12.380841  1780 layer_factory.hpp:77] Creating layer conv2
I0710 02:16:12.380861  1780 net.cpp:91] Creating Layer conv2
I0710 02:16:12.380873  1780 net.cpp:425] conv2 <- pool1
I0710 02:16:12.380885  1780 net.cpp:399] conv2 -> conv2
I0710 02:16:12.383934  1780 net.cpp:141] Setting up conv2
I0710 02:16:12.383956  1780 net.cpp:148] Top shape: 256 128 13 13 (5537792)
I0710 02:16:12.383961  1780 net.cpp:156] Memory required for data: 619187200
I0710 02:16:12.383977  1780 layer_factory.hpp:77] Creating layer relu2
I0710 02:16:12.383985  1780 net.cpp:91] Creating Layer relu2
I0710 02:16:12.383991  1780 net.cpp:425] relu2 <- conv2
I0710 02:16:12.383999  1780 net.cpp:386] relu2 -> conv2 (in-place)
I0710 02:16:12.384239  1780 net.cpp:141] Setting up relu2
I0710 02:16:12.384260  1780 net.cpp:148] Top shape: 256 128 13 13 (5537792)
I0710 02:16:12.384265  1780 net.cpp:156] Memory required for data: 641338368
I0710 02:16:12.384270  1780 layer_factory.hpp:77] Creating layer conv3
I0710 02:16:12.384286  1780 net.cpp:91] Creating Layer conv3
I0710 02:16:12.384291  1780 net.cpp:425] conv3 <- conv2
I0710 02:16:12.384299  1780 net.cpp:399] conv3 -> conv3
I0710 02:16:12.388023  1780 net.cpp:141] Setting up conv3
I0710 02:16:12.388046  1780 net.cpp:148] Top shape: 256 256 11 11 (7929856)
I0710 02:16:12.388052  1780 net.cpp:156] Memory required for data: 673057792
I0710 02:16:12.388064  1780 layer_factory.hpp:77] Creating layer relu3
I0710 02:16:12.388074  1780 net.cpp:91] Creating Layer relu3
I0710 02:16:12.388079  1780 net.cpp:425] relu3 <- conv3
I0710 02:16:12.388089  1780 net.cpp:386] relu3 -> conv3 (in-place)
I0710 02:16:12.388365  1780 net.cpp:141] Setting up relu3
I0710 02:16:12.388386  1780 net.cpp:148] Top shape: 256 256 11 11 (7929856)
I0710 02:16:12.388391  1780 net.cpp:156] Memory required for data: 704777216
I0710 02:16:12.388396  1780 layer_factory.hpp:77] Creating layer pool3
I0710 02:16:12.388407  1780 net.cpp:91] Creating Layer pool3
I0710 02:16:12.388412  1780 net.cpp:425] pool3 <- conv3
I0710 02:16:12.388422  1780 net.cpp:399] pool3 -> pool3
I0710 02:16:12.388470  1780 net.cpp:141] Setting up pool3
I0710 02:16:12.388486  1780 net.cpp:148] Top shape: 256 256 5 5 (1638400)
I0710 02:16:12.388491  1780 net.cpp:156] Memory required for data: 711330816
I0710 02:16:12.388496  1780 layer_factory.hpp:77] Creating layer fc4
I0710 02:16:12.388512  1780 net.cpp:91] Creating Layer fc4
I0710 02:16:12.388519  1780 net.cpp:425] fc4 <- pool3
I0710 02:16:12.388525  1780 net.cpp:399] fc4 -> fc4
I0710 02:16:12.452946  1780 net.cpp:141] Setting up fc4
I0710 02:16:12.453007  1780 net.cpp:148] Top shape: 256 1024 (262144)
I0710 02:16:12.453014  1780 net.cpp:156] Memory required for data: 712379392
I0710 02:16:12.453029  1780 layer_factory.hpp:77] Creating layer relu4
I0710 02:16:12.453048  1780 net.cpp:91] Creating Layer relu4
I0710 02:16:12.453057  1780 net.cpp:425] relu4 <- fc4
I0710 02:16:12.453068  1780 net.cpp:386] relu4 -> fc4 (in-place)
I0710 02:16:12.453310  1780 net.cpp:141] Setting up relu4
I0710 02:16:12.453351  1780 net.cpp:148] Top shape: 256 1024 (262144)
I0710 02:16:12.453356  1780 net.cpp:156] Memory required for data: 713427968
I0710 02:16:12.453361  1780 layer_factory.hpp:77] Creating layer dropout4
I0710 02:16:12.453948  1780 net.cpp:91] Creating Layer dropout4
I0710 02:16:12.453965  1780 net.cpp:425] dropout4 <- fc4
I0710 02:16:12.453977  1780 net.cpp:386] dropout4 -> fc4 (in-place)
I0710 02:16:12.454015  1780 net.cpp:141] Setting up dropout4
I0710 02:16:12.454031  1780 net.cpp:148] Top shape: 256 1024 (262144)
I0710 02:16:12.454035  1780 net.cpp:156] Memory required for data: 714476544
I0710 02:16:12.454041  1780 layer_factory.hpp:77] Creating layer fc5
I0710 02:16:12.454056  1780 net.cpp:91] Creating Layer fc5
I0710 02:16:12.454061  1780 net.cpp:425] fc5 <- fc4
I0710 02:16:12.454071  1780 net.cpp:399] fc5 -> fc5
I0710 02:16:12.454331  1780 net.cpp:141] Setting up fc5
I0710 02:16:12.454349  1780 net.cpp:148] Top shape: 256 20 (5120)
I0710 02:16:12.454355  1780 net.cpp:156] Memory required for data: 714497024
I0710 02:16:12.454370  1780 layer_factory.hpp:77] Creating layer fc5_fc5_0_split
I0710 02:16:12.454381  1780 net.cpp:91] Creating Layer fc5_fc5_0_split
I0710 02:16:12.454386  1780 net.cpp:425] fc5_fc5_0_split <- fc5
I0710 02:16:12.454392  1780 net.cpp:399] fc5_fc5_0_split -> fc5_fc5_0_split_0
I0710 02:16:12.454401  1780 net.cpp:399] fc5_fc5_0_split -> fc5_fc5_0_split_1
I0710 02:16:12.454440  1780 net.cpp:141] Setting up fc5_fc5_0_split
I0710 02:16:12.454455  1780 net.cpp:148] Top shape: 256 20 (5120)
I0710 02:16:12.454462  1780 net.cpp:148] Top shape: 256 20 (5120)
I0710 02:16:12.454465  1780 net.cpp:156] Memory required for data: 714537984
I0710 02:16:12.454470  1780 layer_factory.hpp:77] Creating layer loss
I0710 02:16:12.455204  1780 net.cpp:91] Creating Layer loss
I0710 02:16:12.455221  1780 net.cpp:425] loss <- fc5_fc5_0_split_0
I0710 02:16:12.455229  1780 net.cpp:425] loss <- label_data_1_split_0
I0710 02:16:12.455235  1780 net.cpp:399] loss -> loss
…
I0710 02:16:12.457113  1780 net.cpp:313] The NetState phase (1) differed from the phase (0) specified by a rule in layer data
I0710 02:16:12.457140  1780 net.cpp:313] The NetState phase (1) differed from the phase (0) specified by a rule in layer accuracy
I0710 02:16:12.457283  1780 net.cpp:49] Initializing net from parameters: 
name: "Model2"
state {
  phase: TEST
}
layer {
  name: "data"
  type: "Data"
  top: "data"
  top: "label"
  include {
    phase: TEST
  }
  transform_param {
    mirror: false
    mean_file: "../lmdb/mean_file.binaryproto"
  }
  data_param {
    source: "../lmdb/val_lmdb"
    batch_size: 128
    backend: LMDB
  }
}
layer {
  name: "conv1"
  type: "Convolution"
  bottom: "data"
  top: "conv1"
  param {
    lr_mult: 1
    decay_mult: 0
  }
  param {
    lr_mult: 2
    decay_mult: 0
  }
  convolution_param {
    num_output: 64
    kernel_size: 7
    stride: 2
    weight_filler {
      type: "xavier"
    }
    bias_filler {
      type: "constant"
      value: 0.1
    }
  }
}
layer {
  name: "relu1"
  type: "ReLU"
  bottom: "conv1"
  top: "conv1"
}
layer {
  name: "pool1"
  type: "Pooling"
  bottom: "conv1"
  top: "pool1"
  pooling_param {
    pool: MAX
    kernel_size: 3
    stride: 2
  }
}
layer {
  name: "conv2"
  type: "Convolution"
  bottom: "pool1"
  top: "conv2"
  param {
    lr_mult: 1
    decay_mult: 0
  }
  param {
    lr_mult: 2
    decay_mult: 0
  }
  convolution_param {
    num_output: 128
    kernel_size: 5
    stride: 2
    weight_filler {
      type: "xavier"
    }
    bias_filler {
      type: "constant"
      value: 0.1
    }
  }
}
layer {
  name: "relu2"
  type: "ReLU"
  bottom: "conv2"
  top: "conv2"
}
layer {
  name: "conv3"
  type: "Convolution"
  bottom: "conv2"
  top: "conv3"
  param {
    lr_mult: 1
    decay_mult: 0
  }
  param {
    lr_mult: 2
    decay_mult: 0
  }
  convolution_param {
    num_output: 256
    kernel_size: 3
    stride: 1
    weight_filler {
      type: "xavier"
    }
    bias_filler {
      type: "constant"
      value: 0.1
    }
  }
}
layer {
  name: "relu3"
  type: "ReLU"
  bottom: "conv3"
  top: "conv3"
}
layer {
  name: "pool3"
  type: "Pooling"
  bottom: "conv3"
  top: "pool3"
  pooling_param {
    pool: MAX
    kernel_size: 3
    stride: 2
  }
}
layer {
  name: "fc4"
  type: "InnerProduct"
  bottom: "pool3"
  top: "fc4"
  param {
    lr_mult: 1
    decay_mult: 0
  }
  param {
    lr_mult: 2
    decay_mult: 0
  }
  inner_product_param {
    num_output: 1024
    weight_filler {
      type: "xavier"
    }
    bias_filler {
      type: "constant"
      value: 0
    }
  }
}
layer {
  name: "relu4"
  type: "ReLU"
  bottom: "fc4"
  top: "fc4"
}
layer {
  name: "dropout4"
  type: "Dropout"
  bottom: "fc4"
  top: "fc4"
  dropout_param {
    dropout_ratio: 0.5
  }
}
layer {
  name: "fc5"
  type: "InnerProduct"
  bottom: "fc4"
  top: "fc5"
  param {
    lr_mult: 1
    decay_mult: 0
  }
  param {
    lr_mult: 2
    decay_mult: 0
  }
  inner_product_param {
    num_output: 20
    weight_filler {
      type: "xavier"
    }
    bias_filler {
      type: "constant"
      value: 0
    }
  }
}
layer {
  name: "loss"
  type: "SoftmaxWithLoss"
  bottom: "fc5"
  bottom: "label"
  top: "loss"
}
layer {
  name: "accuracy"
  type: "Accuracy"
  bottom: "fc5"
  bottom: "label"
  top: "accuracy"
  include {
    phase: TEST
  }
}
I0710 02:16:12.457386  1780 layer_factory.hpp:77] Creating layer data
I0710 02:16:12.457952  1780 net.cpp:91] Creating Layer data
I0710 02:16:12.457962  1780 net.cpp:399] data -> data
I0710 02:16:12.457976  1780 net.cpp:399] data -> label
I0710 02:16:12.457989  1780 data_transformer.cpp:25] Loading mean file from: ../lmdb/mean_file.binaryproto
I0710 02:16:12.799862  1796 db_lmdb.cpp:35] Opened lmdb ../lmdb/val_lmdb
I0710 02:16:13.030192  1780 data_layer.cpp:41] output data size: 128,3,128,128
I0710 02:16:13.082545  1780 net.cpp:141] Setting up data
I0710 02:16:13.082602  1780 net.cpp:148] Top shape: 128 3 128 128 (6291456)
I0710 02:16:13.082612  1780 net.cpp:148] Top shape: 128 (128)
I0710 02:16:13.082617  1780 net.cpp:156] Memory required for data: 25166336
I0710 02:16:13.082628  1780 layer_factory.hpp:77] Creating layer label_data_1_split
I0710 02:16:13.082648  1780 net.cpp:91] Creating Layer label_data_1_split
I0710 02:16:13.082666  1780 net.cpp:425] label_data_1_split <- label
I0710 02:16:13.082679  1780 net.cpp:399] label_data_1_split -> label_data_1_split_0
I0710 02:16:13.082695  1780 net.cpp:399] label_data_1_split -> label_data_1_split_1
I0710 02:16:13.082772  1780 net.cpp:141] Setting up label_data_1_split
I0710 02:16:13.082799  1780 net.cpp:148] Top shape: 128 (128)
I0710 02:16:13.082805  1780 net.cpp:148] Top shape: 128 (128)
I0710 02:16:13.082810  1780 net.cpp:156] Memory required for data: 25167360
I0710 02:16:13.082815  1780 layer_factory.hpp:77] Creating layer conv1
I0710 02:16:13.082850  1780 net.cpp:91] Creating Layer conv1
I0710 02:16:13.082864  1780 net.cpp:425] conv1 <- data
I0710 02:16:13.082880  1780 net.cpp:399] conv1 -> conv1
I0710 02:16:13.084221  1780 net.cpp:141] Setting up conv1
I0710 02:16:13.084244  1780 net.cpp:148] Top shape: 128 64 61 61 (30482432)
I0710 02:16:13.084249  1780 net.cpp:156] Memory required for data: 147097088
I0710 02:16:13.084265  1780 layer_factory.hpp:77] Creating layer relu1
I0710 02:16:13.084278  1780 net.cpp:91] Creating Layer relu1
I0710 02:16:13.084288  1780 net.cpp:425] relu1 <- conv1
I0710 02:16:13.084303  1780 net.cpp:386] relu1 -> conv1 (in-place)
I0710 02:16:13.086403  1780 net.cpp:141] Setting up relu1
I0710 02:16:13.086427  1780 net.cpp:148] Top shape: 128 64 61 61 (30482432)
I0710 02:16:13.086433  1780 net.cpp:156] Memory required for data: 269026816
I0710 02:16:13.086438  1780 layer_factory.hpp:77] Creating layer pool1
I0710 02:16:13.086453  1780 net.cpp:91] Creating Layer pool1
I0710 02:16:13.086458  1780 net.cpp:425] pool1 <- conv1
I0710 02:16:13.086467  1780 net.cpp:399] pool1 -> pool1
I0710 02:16:13.086539  1780 net.cpp:141] Setting up pool1
I0710 02:16:13.086556  1780 net.cpp:148] Top shape: 128 64 30 30 (7372800)
I0710 02:16:13.086561  1780 net.cpp:156] Memory required for data: 298518016
I0710 02:16:13.086566  1780 layer_factory.hpp:77] Creating layer conv2
I0710 02:16:13.086580  1780 net.cpp:91] Creating Layer conv2
I0710 02:16:13.086585  1780 net.cpp:425] conv2 <- pool1
I0710 02:16:13.086597  1780 net.cpp:399] conv2 -> conv2
I0710 02:16:13.089684  1780 net.cpp:141] Setting up conv2
I0710 02:16:13.089707  1780 net.cpp:148] Top shape: 128 128 13 13 (2768896)
I0710 02:16:13.089712  1780 net.cpp:156] Memory required for data: 309593600
I0710 02:16:13.089725  1780 layer_factory.hpp:77] Creating layer relu2
I0710 02:16:13.089735  1780 net.cpp:91] Creating Layer relu2
I0710 02:16:13.089740  1780 net.cpp:425] relu2 <- conv2
I0710 02:16:13.089748  1780 net.cpp:386] relu2 -> conv2 (in-place)
I0710 02:16:13.090008  1780 net.cpp:141] Setting up relu2
I0710 02:16:13.090029  1780 net.cpp:148] Top shape: 128 128 13 13 (2768896)
I0710 02:16:13.090034  1780 net.cpp:156] Memory required for data: 320669184
I0710 02:16:13.090039  1780 layer_factory.hpp:77] Creating layer conv3
I0710 02:16:13.090054  1780 net.cpp:91] Creating Layer conv3
I0710 02:16:13.090065  1780 net.cpp:425] conv3 <- conv2
I0710 02:16:13.090075  1780 net.cpp:399] conv3 -> conv3
I0710 02:16:13.093642  1780 net.cpp:141] Setting up conv3
I0710 02:16:13.093665  1780 net.cpp:148] Top shape: 128 256 11 11 (3964928)
I0710 02:16:13.093672  1780 net.cpp:156] Memory required for data: 336528896
I0710 02:16:13.093686  1780 layer_factory.hpp:77] Creating layer relu3
I0710 02:16:13.093696  1780 net.cpp:91] Creating Layer relu3
I0710 02:16:13.093701  1780 net.cpp:425] relu3 <- conv3
I0710 02:16:13.093710  1780 net.cpp:386] relu3 -> conv3 (in-place)
I0710 02:16:13.093987  1780 net.cpp:141] Setting up relu3
I0710 02:16:13.094008  1780 net.cpp:148] Top shape: 128 256 11 11 (3964928)
I0710 02:16:13.094013  1780 net.cpp:156] Memory required for data: 352388608
I0710 02:16:13.094018  1780 layer_factory.hpp:77] Creating layer pool3
I0710 02:16:13.094027  1780 net.cpp:91] Creating Layer pool3
I0710 02:16:13.094033  1780 net.cpp:425] pool3 <- conv3
I0710 02:16:13.094041  1780 net.cpp:399] pool3 -> pool3
I0710 02:16:13.094095  1780 net.cpp:141] Setting up pool3
I0710 02:16:13.094112  1780 net.cpp:148] Top shape: 128 256 5 5 (819200)
I0710 02:16:13.094117  1780 net.cpp:156] Memory required for data: 355665408
I0710 02:16:13.094121  1780 layer_factory.hpp:77] Creating layer fc4
I0710 02:16:13.094132  1780 net.cpp:91] Creating Layer fc4
I0710 02:16:13.094137  1780 net.cpp:425] fc4 <- pool3
I0710 02:16:13.094146  1780 net.cpp:399] fc4 -> fc4
I0710 02:16:13.153872  1780 net.cpp:141] Setting up fc4
I0710 02:16:13.153919  1780 net.cpp:148] Top shape: 128 1024 (131072)
I0710 02:16:13.153924  1780 net.cpp:156] Memory required for data: 356189696
I0710 02:16:13.153940  1780 layer_factory.hpp:77] Creating layer relu4
I0710 02:16:13.153956  1780 net.cpp:91] Creating Layer relu4
I0710 02:16:13.153964  1780 net.cpp:425] relu4 <- fc4
I0710 02:16:13.153977  1780 net.cpp:386] relu4 -> fc4 (in-place)
I0710 02:16:13.154417  1780 net.cpp:141] Setting up relu4
I0710 02:16:13.154438  1780 net.cpp:148] Top shape: 128 1024 (131072)
I0710 02:16:13.154443  1780 net.cpp:156] Memory required for data: 356713984
I0710 02:16:13.154448  1780 layer_factory.hpp:77] Creating layer dropout4
I0710 02:16:13.154464  1780 net.cpp:91] Creating Layer dropout4
I0710 02:16:13.154469  1780 net.cpp:425] dropout4 <- fc4
I0710 02:16:13.154477  1780 net.cpp:386] dropout4 -> fc4 (in-place)
I0710 02:16:13.154506  1780 net.cpp:141] Setting up dropout4
I0710 02:16:13.154521  1780 net.cpp:148] Top shape: 128 1024 (131072)
I0710 02:16:13.154526  1780 net.cpp:156] Memory required for data: 357238272
I0710 02:16:13.154531  1780 layer_factory.hpp:77] Creating layer fc5
I0710 02:16:13.154542  1780 net.cpp:91] Creating Layer fc5
I0710 02:16:13.154546  1780 net.cpp:425] fc5 <- fc4
I0710 02:16:13.154563  1780 net.cpp:399] fc5 -> fc5
I0710 02:16:13.154847  1780 net.cpp:141] Setting up fc5
I0710 02:16:13.154865  1780 net.cpp:148] Top shape: 128 20 (2560)
I0710 02:16:13.154870  1780 net.cpp:156] Memory required for data: 357248512
I0710 02:16:13.154883  1780 layer_factory.hpp:77] Creating layer fc5_fc5_0_split
I0710 02:16:13.154893  1780 net.cpp:91] Creating Layer fc5_fc5_0_split
I0710 02:16:13.154898  1780 net.cpp:425] fc5_fc5_0_split <- fc5
I0710 02:16:13.154907  1780 net.cpp:399] fc5_fc5_0_split -> fc5_fc5_0_split_0
I0710 02:16:13.154917  1780 net.cpp:399] fc5_fc5_0_split -> fc5_fc5_0_split_1
I0710 02:16:13.154955  1780 net.cpp:141] Setting up fc5_fc5_0_split
I0710 02:16:13.154971  1780 net.cpp:148] Top shape: 128 20 (2560)
I0710 02:16:13.154978  1780 net.cpp:148] Top shape: 128 20 (2560)
I0710 02:16:13.154981  1780 net.cpp:156] Memory required for data: 357268992
I0710 02:16:13.154985  1780 layer_factory.hpp:77] Creating layer loss
I0710 02:16:13.154996  1780 net.cpp:91] Creating Layer loss
I0710 02:16:13.155001  1780 net.cpp:425] loss <- fc5_fc5_0_split_0
I0710 02:16:13.155006  1780 net.cpp:425] loss <- label_data_1_split_0
I0710 02:16:13.155014  1780 net.cpp:399] loss -> loss
…
