…
I0710 03:10:39.545792  1856 net.cpp:313] The NetState phase (0) differed from the phase (1) specified by a rule in layer data
I0710 03:10:39.545826  1856 net.cpp:313] The NetState phase (0) differed from the phase (1) specified by a rule in layer accuracy
I0710 03:10:39.545986  1856 net.cpp:49] Initializing net from parameters: 
name: "Model2"
state {
  phase: TRAIN
}
layer {
  name: "data"
  type: "Data"
  top: "data"
  top: "label"
  include {
    phase: TRAIN
  }
  transform_param {
    mirror: true
    mean_file: "../lmdb/mean_file.binaryproto"
  }
  data_param {
    source: "../lmdb/train_lmdb"
    batch_size: 256
    backend: LMDB
  }
}
layer {
  name: "conv1"
  type: "Convolution"
  bottom: "data"
  top: "conv1"
  param {
    lr_mult: 1
    decay_mult: 0
  }
  param {
    lr_mult: 2
    decay_mult: 0
  }
  convolution_param {
    num_output: 64
    kernel_size: 7
    stride: 2
    weight_filler {
      type: "xavier"
    }
    bias_filler {
      type: "constant"
      value: 0.1
    }
  }
}
layer {
  name: "relu1"
  type: "ReLU"
  bottom: "conv1"
  top: "conv1"
}
layer {
  name: "pool1"
  type: "Pooling"
  bottom: "conv1"
  top: "pool1"
  pooling_param {
    pool: MAX
    kernel_size: 3
    stride: 2
  }
}
layer {
  name: "conv2"
  type: "Convolution"
  bottom: "pool1"
  top: "conv2"
  param {
    lr_mult: 1
    decay_mult: 0
  }
  param {
    lr_mult: 2
    decay_mult: 0
  }
  convolution_param {
    num_output: 128
    kernel_size: 5
    stride: 2
    weight_filler {
      type: "xavier"
    }
    bias_filler {
      type: "constant"
      value: 0.1
    }
  }
}
layer {
  name: "relu2"
  type: "ReLU"
  bottom: "conv2"
  top: "conv2"
}
layer {
  name: "conv3"
  type: "Convolution"
  bottom: "conv2"
  top: "conv3"
  param {
    lr_mult: 1
    decay_mult: 0
  }
  param {
    lr_mult: 2
    decay_mult: 0
  }
  convolution_param {
    num_output: 256
    kernel_size: 3
    stride: 1
    weight_filler {
      type: "xavier"
    }
    bias_filler {
      type: "constant"
      value: 0.1
    }
  }
}
layer {
  name: "relu3"
  type: "ReLU"
  bottom: "conv3"
  top: "conv3"
}
layer {
  name: "pool3"
  type: "Pooling"
  bottom: "conv3"
  top: "pool3"
  pooling_param {
    pool: MAX
    kernel_size: 3
    stride: 2
  }
}
layer {
  name: "fc4"
  type: "InnerProduct"
  bottom: "pool3"
  top: "fc4"
  param {
    lr_mult: 1
    decay_mult: 0
  }
  param {
    lr_mult: 2
    decay_mult: 0
  }
  inner_product_param {
    num_output: 1024
    weight_filler {
      type: "xavier"
    }
    bias_filler {
      type: "constant"
      value: 0
    }
  }
}
layer {
  name: "relu4"
  type: "ReLU"
  bottom: "fc4"
  top: "fc4"
}
layer {
  name: "dropout4"
  type: "Dropout"
  bottom: "fc4"
  top: "fc4"
  dropout_param {
    dropout_ratio: 0.5
  }
}
layer {
  name: "fc5"
  type: "InnerProduct"
  bottom: "fc4"
  top: "fc5"
  param {
    lr_mult: 1
    decay_mult: 0
  }
  param {
    lr_mult: 2
    decay_mult: 0
  }
  inner_product_param {
    num_output: 20
    weight_filler {
      type: "xavier"
    }
    bias_filler {
      type: "constant"
      value: 0
    }
  }
}
layer {
  name: "loss"
  type: "SoftmaxWithLoss"
  bottom: "fc5"
  bottom: "label"
  top: "loss"
}
layer {
  name: "accuracy"
  type: "Accuracy"
  bottom: "fc5"
  bottom: "label"
  top: "accuracy"
  include {
    phase: TRAIN
  }
}
I0710 03:10:39.546154  1856 layer_factory.hpp:77] Creating layer data
I0710 03:10:39.546852  1856 net.cpp:91] Creating Layer data
I0710 03:10:39.546880  1856 net.cpp:399] data -> data
I0710 03:10:39.546921  1856 net.cpp:399] data -> label
I0710 03:10:39.546950  1856 data_transformer.cpp:25] Loading mean file from: ../lmdb/mean_file.binaryproto
I0710 03:10:39.547658  1863 db_lmdb.cpp:35] Opened lmdb ../lmdb/train_lmdb
I0710 03:10:39.561183  1856 data_layer.cpp:41] output data size: 256,3,128,128
I0710 03:10:39.664214  1856 net.cpp:141] Setting up data
I0710 03:10:39.664278  1856 net.cpp:148] Top shape: 256 3 128 128 (12582912)
I0710 03:10:39.664286  1856 net.cpp:148] Top shape: 256 (256)
I0710 03:10:39.664291  1856 net.cpp:156] Memory required for data: 50332672
I0710 03:10:39.664307  1856 layer_factory.hpp:77] Creating layer label_data_1_split
I0710 03:10:39.664332  1856 net.cpp:91] Creating Layer label_data_1_split
I0710 03:10:39.664352  1856 net.cpp:425] label_data_1_split <- label
I0710 03:10:39.664374  1856 net.cpp:399] label_data_1_split -> label_data_1_split_0
I0710 03:10:39.664397  1856 net.cpp:399] label_data_1_split -> label_data_1_split_1
I0710 03:10:39.664456  1856 net.cpp:141] Setting up label_data_1_split
I0710 03:10:39.664472  1856 net.cpp:148] Top shape: 256 (256)
I0710 03:10:39.664479  1856 net.cpp:148] Top shape: 256 (256)
I0710 03:10:39.664482  1856 net.cpp:156] Memory required for data: 50334720
I0710 03:10:39.664487  1856 layer_factory.hpp:77] Creating layer conv1
I0710 03:10:39.664520  1856 net.cpp:91] Creating Layer conv1
I0710 03:10:39.664532  1856 net.cpp:425] conv1 <- data
I0710 03:10:39.664543  1856 net.cpp:399] conv1 -> conv1
I0710 03:10:39.844687  1856 net.cpp:141] Setting up conv1
I0710 03:10:39.844739  1856 net.cpp:148] Top shape: 256 64 61 61 (60964864)
I0710 03:10:39.844746  1856 net.cpp:156] Memory required for data: 294194176
I0710 03:10:39.844776  1856 layer_factory.hpp:77] Creating layer relu1
I0710 03:10:39.844795  1856 net.cpp:91] Creating Layer relu1
I0710 03:10:39.844804  1856 net.cpp:425] relu1 <- conv1
I0710 03:10:39.844812  1856 net.cpp:386] relu1 -> conv1 (in-place)
I0710 03:10:39.844977  1856 net.cpp:141] Setting up relu1
I0710 03:10:39.844996  1856 net.cpp:148] Top shape: 256 64 61 61 (60964864)
I0710 03:10:39.845002  1856 net.cpp:156] Memory required for data: 538053632
I0710 03:10:39.845007  1856 layer_factory.hpp:77] Creating layer pool1
I0710 03:10:39.845021  1856 net.cpp:91] Creating Layer pool1
I0710 03:10:39.845031  1856 net.cpp:425] pool1 <- conv1
I0710 03:10:39.845038  1856 net.cpp:399] pool1 -> pool1
I0710 03:10:39.845100  1856 net.cpp:141] Setting up pool1
I0710 03:10:39.845118  1856 net.cpp:148] Top shape: 256 64 30 30 (14745600)
I0710 03:10:39.845124  1856 net.cpp:156] Memory required for data: 597036032
I0710 03:10:39.845129  1856 layer_factory.hpp:77] Creating layer conv2
I0710 03:10:39.845146  1856 net.cpp:91] Creating Layer conv2
I0710 03:10:39.845157  1856 net.cpp:425] conv2 <- pool1
I0710 03:10:39.845166  1856 net.cpp:399] conv2 -> conv2
I0710 03:10:39.847838  1856 net.cpp:141] Setting up conv2
I0710 03:10:39.847861  1856 net.cpp:148] Top shape: 256 128 13 13 (5537792)
I0710 03:10:39.847867  1856 net.cpp:156] Memory required for data: 619187200
I0710 03:10:39.847878  1856 layer_factory.hpp:77] Creating layer relu2
I0710 03:10:39.847887  1856 net.cpp:91] Creating Layer relu2
I0710 03:10:39.847893  1856 net.cpp:425] relu2 <- conv2
I0710 03:10:39.847900  1856 net.cpp:386] relu2 -> conv2 (in-place)
I0710 03:10:39.848140  1856 net.cpp:141] Setting up relu2
I0710 03:10:39.848161  1856 net.cpp:148] Top shape: 256 128 13 13 (5537792)
I0710 03:10:39.848166  1856 net.cpp:156] Memory required for data: 641338368
I0710 03:10:39.848172  1856 layer_factory.hpp:77] Creating layer conv3
I0710 03:10:39.848187  1856 net.cpp:91] Creating Layer conv3
I0710 03:10:39.848193  1856 net.cpp:425] conv3 <- conv2
I0710 03:10:39.848203  1856 net.cpp:399] conv3 -> conv3
I0710 03:10:39.851716  1856 net.cpp:141] Setting up conv3
I0710 03:10:39.851738  1856 net.cpp:148] Top shape: 256 256 11 11 (7929856)
I0710 03:10:39.851744  1856 net.cpp:156] Memory required for data: 673057792
I0710 03:10:39.851758  1856 layer_factory.hpp:77] Creating layer relu3
I0710 03:10:39.851766  1856 net.cpp:91] Creating Layer relu3
I0710 03:10:39.851771  1856 net.cpp:425] relu3 <- conv3
I0710 03:10:39.851799  1856 net.cpp:386] relu3 -> conv3 (in-place)
I0710 03:10:39.852054  1856 net.cpp:141] Setting up relu3
I0710 03:10:39.852074  1856 net.cpp:148] Top shape: 256 256 11 11 (7929856)
I0710 03:10:39.852079  1856 net.cpp:156] Memory required for data: 704777216
I0710 03:10:39.852084  1856 layer_factory.hpp:77] Creating layer pool3
I0710 03:10:39.852095  1856 net.cpp:91] Creating Layer pool3
I0710 03:10:39.852102  1856 net.cpp:425] pool3 <- conv3
I0710 03:10:39.852110  1856 net.cpp:399] pool3 -> pool3
I0710 03:10:39.852161  1856 net.cpp:141] Setting up pool3
I0710 03:10:39.852180  1856 net.cpp:148] Top shape: 256 256 5 5 (1638400)
I0710 03:10:39.852185  1856 net.cpp:156] Memory required for data: 711330816
I0710 03:10:39.852190  1856 layer_factory.hpp:77] Creating layer fc4
I0710 03:10:39.852253  1856 net.cpp:91] Creating Layer fc4
I0710 03:10:39.852262  1856 net.cpp:425] fc4 <- pool3
I0710 03:10:39.852273  1856 net.cpp:399] fc4 -> fc4
I0710 03:10:39.913516  1856 net.cpp:141] Setting up fc4
I0710 03:10:39.913571  1856 net.cpp:148] Top shape: 256 1024 (262144)
I0710 03:10:39.913578  1856 net.cpp:156] Memory required for data: 712379392
I0710 03:10:39.913594  1856 layer_factory.hpp:77] Creating layer relu4
I0710 03:10:39.913614  1856 net.cpp:91] Creating Layer relu4
I0710 03:10:39.913621  1856 net.cpp:425] relu4 <- fc4
I0710 03:10:39.913631  1856 net.cpp:386] relu4 -> fc4 (in-place)
I0710 03:10:39.913884  1856 net.cpp:141] Setting up relu4
I0710 03:10:39.913904  1856 net.cpp:148] Top shape: 256 1024 (262144)
I0710 03:10:39.913909  1856 net.cpp:156] Memory required for data: 713427968
I0710 03:10:39.913914  1856 layer_factory.hpp:77] Creating layer dropout4
I0710 03:10:39.913928  1856 net.cpp:91] Creating Layer dropout4
I0710 03:10:39.913938  1856 net.cpp:425] dropout4 <- fc4
I0710 03:10:39.913944  1856 net.cpp:386] dropout4 -> fc4 (in-place)
I0710 03:10:39.913990  1856 net.cpp:141] Setting up dropout4
I0710 03:10:39.914005  1856 net.cpp:148] Top shape: 256 1024 (262144)
I0710 03:10:39.914011  1856 net.cpp:156] Memory required for data: 714476544
I0710 03:10:39.914014  1856 layer_factory.hpp:77] Creating layer fc5
I0710 03:10:39.914033  1856 net.cpp:91] Creating Layer fc5
I0710 03:10:39.914041  1856 net.cpp:425] fc5 <- fc4
I0710 03:10:39.914050  1856 net.cpp:399] fc5 -> fc5
I0710 03:10:39.914338  1856 net.cpp:141] Setting up fc5
I0710 03:10:39.914356  1856 net.cpp:148] Top shape: 256 20 (5120)
I0710 03:10:39.914361  1856 net.cpp:156] Memory required for data: 714497024
I0710 03:10:39.914378  1856 layer_factory.hpp:77] Creating layer fc5_fc5_0_split
I0710 03:10:39.914391  1856 net.cpp:91] Creating Layer fc5_fc5_0_split
I0710 03:10:39.914396  1856 net.cpp:425] fc5_fc5_0_split <- fc5
I0710 03:10:39.914402  1856 net.cpp:399] fc5_fc5_0_split -> fc5_fc5_0_split_0
I0710 03:10:39.914410  1856 net.cpp:399] fc5_fc5_0_split -> fc5_fc5_0_split_1
I0710 03:10:39.914450  1856 net.cpp:141] Setting up fc5_fc5_0_split
I0710 03:10:39.914466  1856 net.cpp:148] Top shape: 256 20 (5120)
I0710 03:10:39.914472  1856 net.cpp:148] Top shape: 256 20 (5120)
I0710 03:10:39.914476  1856 net.cpp:156] Memory required for data: 714537984
I0710 03:10:39.914481  1856 layer_factory.hpp:77] Creating layer loss
I0710 03:10:39.914492  1856 net.cpp:91] Creating Layer loss
I0710 03:10:39.914497  1856 net.cpp:425] loss <- fc5_fc5_0_split_0
I0710 03:10:39.914504  1856 net.cpp:425] loss <- label_data_1_split_0
I0710 03:10:39.914510  1856 net.cpp:399] loss -> loss
…
I0710 03:10:39.915835  1856 net.cpp:313] The NetState phase (1) differed from the phase (0) specified by a rule in layer data
I0710 03:10:39.915869  1856 net.cpp:313] The NetState phase (1) differed from the phase (0) specified by a rule in layer accuracy
I0710 03:10:39.916018  1856 net.cpp:49] Initializing net from parameters: 
name: "Model2"
state {
  phase: TEST
}
layer {
  name: "data"
  type: "Data"
  top: "data"
  top: "label"
  include {
    phase: TEST
  }
  transform_param {
    mirror: false
    mean_file: "../lmdb/mean_file.binaryproto"
  }
  data_param {
    source: "../lmdb/val_lmdb"
    batch_size: 128
    backend: LMDB
  }
}
layer {
  name: "conv1"
  type: "Convolution"
  bottom: "data"
  top: "conv1"
  param {
    lr_mult: 1
    decay_mult: 0
  }
  param {
    lr_mult: 2
    decay_mult: 0
  }
  convolution_param {
    num_output: 64
    kernel_size: 7
    stride: 2
    weight_filler {
      type: "xavier"
    }
    bias_filler {
      type: "constant"
      value: 0.1
    }
  }
}
layer {
  name: "relu1"
  type: "ReLU"
  bottom: "conv1"
  top: "conv1"
}
layer {
  name: "pool1"
  type: "Pooling"
  bottom: "conv1"
  top: "pool1"
  pooling_param {
    pool: MAX
    kernel_size: 3
    stride: 2
  }
}
layer {
  name: "conv2"
  type: "Convolution"
  bottom: "pool1"
  top: "conv2"
  param {
    lr_mult: 1
    decay_mult: 0
  }
  param {
    lr_mult: 2
    decay_mult: 0
  }
  convolution_param {
    num_output: 128
    kernel_size: 5
    stride: 2
    weight_filler {
      type: "xavier"
    }
    bias_filler {
      type: "constant"
      value: 0.1
    }
  }
}
layer {
  name: "relu2"
  type: "ReLU"
  bottom: "conv2"
  top: "conv2"
}
layer {
  name: "conv3"
  type: "Convolution"
  bottom: "conv2"
  top: "conv3"
  param {
    lr_mult: 1
    decay_mult: 0
  }
  param {
    lr_mult: 2
    decay_mult: 0
  }
  convolution_param {
    num_output: 256
    kernel_size: 3
    stride: 1
    weight_filler {
      type: "xavier"
    }
    bias_filler {
      type: "constant"
      value: 0.1
    }
  }
}
layer {
  name: "relu3"
  type: "ReLU"
  bottom: "conv3"
  top: "conv3"
}
layer {
  name: "pool3"
  type: "Pooling"
  bottom: "conv3"
  top: "pool3"
  pooling_param {
    pool: MAX
    kernel_size: 3
    stride: 2
  }
}
layer {
  name: "fc4"
  type: "InnerProduct"
  bottom: "pool3"
  top: "fc4"
  param {
    lr_mult: 1
    decay_mult: 0
  }
  param {
    lr_mult: 2
    decay_mult: 0
  }
  inner_product_param {
    num_output: 1024
    weight_filler {
      type: "xavier"
    }
    bias_filler {
      type: "constant"
      value: 0
    }
  }
}
layer {
  name: "relu4"
  type: "ReLU"
  bottom: "fc4"
  top: "fc4"
}
layer {
  name: "dropout4"
  type: "Dropout"
  bottom: "fc4"
  top: "fc4"
  dropout_param {
    dropout_ratio: 0.5
  }
}
layer {
  name: "fc5"
  type: "InnerProduct"
  bottom: "fc4"
  top: "fc5"
  param {
    lr_mult: 1
    decay_mult: 0
  }
  param {
    lr_mult: 2
    decay_mult: 0
  }
  inner_product_param {
    num_output: 20
    weight_filler {
      type: "xavier"
    }
    bias_filler {
      type: "constant"
      value: 0
    }
  }
}
layer {
  name: "loss"
  type: "SoftmaxWithLoss"
  bottom: "fc5"
  bottom: "label"
  top: "loss"
}
layer {
  name: "accuracy"
  type: "Accuracy"
  bottom: "fc5"
  bottom: "label"
  top: "accuracy"
  include {
    phase: TEST
  }
}
I0710 03:10:39.916142  1856 layer_factory.hpp:77] Creating layer data
I0710 03:10:39.916307  1856 net.cpp:91] Creating Layer data
I0710 03:10:39.916318  1856 net.cpp:399] data -> data
I0710 03:10:39.916332  1856 net.cpp:399] data -> label
I0710 03:10:39.916345  1856 data_transformer.cpp:25] Loading mean file from: ../lmdb/mean_file.binaryproto
I0710 03:10:39.917083  1865 db_lmdb.cpp:35] Opened lmdb ../lmdb/val_lmdb
I0710 03:10:39.917279  1856 data_layer.cpp:41] output data size: 128,3,128,128
I0710 03:10:39.969197  1856 net.cpp:141] Setting up data
I0710 03:10:39.969249  1856 net.cpp:148] Top shape: 128 3 128 128 (6291456)
I0710 03:10:39.969259  1856 net.cpp:148] Top shape: 128 (128)
I0710 03:10:39.969264  1856 net.cpp:156] Memory required for data: 25166336
I0710 03:10:39.969274  1856 layer_factory.hpp:77] Creating layer label_data_1_split
I0710 03:10:39.969295  1856 net.cpp:91] Creating Layer label_data_1_split
I0710 03:10:39.969302  1856 net.cpp:425] label_data_1_split <- label
I0710 03:10:39.969313  1856 net.cpp:399] label_data_1_split -> label_data_1_split_0
I0710 03:10:39.969331  1856 net.cpp:399] label_data_1_split -> label_data_1_split_1
I0710 03:10:39.969498  1856 net.cpp:141] Setting up label_data_1_split
I0710 03:10:39.969516  1856 net.cpp:148] Top shape: 128 (128)
I0710 03:10:39.969522  1856 net.cpp:148] Top shape: 128 (128)
I0710 03:10:39.969527  1856 net.cpp:156] Memory required for data: 25167360
I0710 03:10:39.969532  1856 layer_factory.hpp:77] Creating layer conv1
I0710 03:10:39.969553  1856 net.cpp:91] Creating Layer conv1
I0710 03:10:39.969563  1856 net.cpp:425] conv1 <- data
I0710 03:10:39.969573  1856 net.cpp:399] conv1 -> conv1
I0710 03:10:39.970921  1856 net.cpp:141] Setting up conv1
I0710 03:10:39.970943  1856 net.cpp:148] Top shape: 128 64 61 61 (30482432)
I0710 03:10:39.970949  1856 net.cpp:156] Memory required for data: 147097088
I0710 03:10:39.970965  1856 layer_factory.hpp:77] Creating layer relu1
I0710 03:10:39.970978  1856 net.cpp:91] Creating Layer relu1
I0710 03:10:39.970983  1856 net.cpp:425] relu1 <- conv1
I0710 03:10:39.970993  1856 net.cpp:386] relu1 -> conv1 (in-place)
I0710 03:10:39.973163  1856 net.cpp:141] Setting up relu1
I0710 03:10:39.973184  1856 net.cpp:148] Top shape: 128 64 61 61 (30482432)
I0710 03:10:39.973189  1856 net.cpp:156] Memory required for data: 269026816
I0710 03:10:39.973196  1856 layer_factory.hpp:77] Creating layer pool1
I0710 03:10:39.973211  1856 net.cpp:91] Creating Layer pool1
I0710 03:10:39.973215  1856 net.cpp:425] pool1 <- conv1
I0710 03:10:39.973224  1856 net.cpp:399] pool1 -> pool1
I0710 03:10:39.973286  1856 net.cpp:141] Setting up pool1
I0710 03:10:39.973302  1856 net.cpp:148] Top shape: 128 64 30 30 (7372800)
I0710 03:10:39.973307  1856 net.cpp:156] Memory required for data: 298518016
I0710 03:10:39.973312  1856 layer_factory.hpp:77] Creating layer conv2
I0710 03:10:39.973326  1856 net.cpp:91] Creating Layer conv2
I0710 03:10:39.973357  1856 net.cpp:425] conv2 <- pool1
I0710 03:10:39.973368  1856 net.cpp:399] conv2 -> conv2
I0710 03:10:39.976410  1856 net.cpp:141] Setting up conv2
I0710 03:10:39.976433  1856 net.cpp:148] Top shape: 128 128 13 13 (2768896)
I0710 03:10:39.976438  1856 net.cpp:156] Memory required for data: 309593600
I0710 03:10:39.976452  1856 layer_factory.hpp:77] Creating layer relu2
I0710 03:10:39.976461  1856 net.cpp:91] Creating Layer relu2
I0710 03:10:39.976466  1856 net.cpp:425] relu2 <- conv2
I0710 03:10:39.976475  1856 net.cpp:386] relu2 -> conv2 (in-place)
I0710 03:10:39.976725  1856 net.cpp:141] Setting up relu2
I0710 03:10:39.976747  1856 net.cpp:148] Top shape: 128 128 13 13 (2768896)
I0710 03:10:39.976752  1856 net.cpp:156] Memory required for data: 320669184
I0710 03:10:39.976758  1856 layer_factory.hpp:77] Creating layer conv3
I0710 03:10:39.976771  1856 net.cpp:91] Creating Layer conv3
I0710 03:10:39.976778  1856 net.cpp:425] conv3 <- conv2
I0710 03:10:39.976786  1856 net.cpp:399] conv3 -> conv3
I0710 03:10:39.980446  1856 net.cpp:141] Setting up conv3
I0710 03:10:39.980469  1856 net.cpp:148] Top shape: 128 256 11 11 (3964928)
I0710 03:10:39.980475  1856 net.cpp:156] Memory required for data: 336528896
I0710 03:10:39.980487  1856 layer_factory.hpp:77] Creating layer relu3
I0710 03:10:39.980500  1856 net.cpp:91] Creating Layer relu3
I0710 03:10:39.980512  1856 net.cpp:425] relu3 <- conv3
I0710 03:10:39.980520  1856 net.cpp:386] relu3 -> conv3 (in-place)
I0710 03:10:39.980763  1856 net.cpp:141] Setting up relu3
I0710 03:10:39.980785  1856 net.cpp:148] Top shape: 128 256 11 11 (3964928)
I0710 03:10:39.980790  1856 net.cpp:156] Memory required for data: 352388608
I0710 03:10:39.980795  1856 layer_factory.hpp:77] Creating layer pool3
I0710 03:10:39.980805  1856 net.cpp:91] Creating Layer pool3
I0710 03:10:39.980810  1856 net.cpp:425] pool3 <- conv3
I0710 03:10:39.980820  1856 net.cpp:399] pool3 -> pool3
I0710 03:10:39.980875  1856 net.cpp:141] Setting up pool3
I0710 03:10:39.980892  1856 net.cpp:148] Top shape: 128 256 5 5 (819200)
I0710 03:10:39.980897  1856 net.cpp:156] Memory required for data: 355665408
I0710 03:10:39.980901  1856 layer_factory.hpp:77] Creating layer fc4
I0710 03:10:39.980916  1856 net.cpp:91] Creating Layer fc4
I0710 03:10:39.980922  1856 net.cpp:425] fc4 <- pool3
I0710 03:10:39.980931  1856 net.cpp:399] fc4 -> fc4
I0710 03:10:40.045590  1856 net.cpp:141] Setting up fc4
I0710 03:10:40.045646  1856 net.cpp:148] Top shape: 128 1024 (131072)
I0710 03:10:40.045652  1856 net.cpp:156] Memory required for data: 356189696
I0710 03:10:40.045668  1856 layer_factory.hpp:77] Creating layer relu4
I0710 03:10:40.045684  1856 net.cpp:91] Creating Layer relu4
I0710 03:10:40.045691  1856 net.cpp:425] relu4 <- fc4
I0710 03:10:40.045702  1856 net.cpp:386] relu4 -> fc4 (in-place)
I0710 03:10:40.046178  1856 net.cpp:141] Setting up relu4
I0710 03:10:40.046200  1856 net.cpp:148] Top shape: 128 1024 (131072)
I0710 03:10:40.046205  1856 net.cpp:156] Memory required for data: 356713984
I0710 03:10:40.046211  1856 layer_factory.hpp:77] Creating layer dropout4
I0710 03:10:40.046221  1856 net.cpp:91] Creating Layer dropout4
I0710 03:10:40.046226  1856 net.cpp:425] dropout4 <- fc4
I0710 03:10:40.046236  1856 net.cpp:386] dropout4 -> fc4 (in-place)
I0710 03:10:40.046267  1856 net.cpp:141] Setting up dropout4
I0710 03:10:40.046281  1856 net.cpp:148] Top shape: 128 1024 (131072)
I0710 03:10:40.046286  1856 net.cpp:156] Memory required for data: 357238272
I0710 03:10:40.046291  1856 layer_factory.hpp:77] Creating layer fc5
I0710 03:10:40.046305  1856 net.cpp:91] Creating Layer fc5
I0710 03:10:40.046314  1856 net.cpp:425] fc5 <- fc4
I0710 03:10:40.046321  1856 net.cpp:399] fc5 -> fc5
I0710 03:10:40.046622  1856 net.cpp:141] Setting up fc5
I0710 03:10:40.046640  1856 net.cpp:148] Top shape: 128 20 (2560)
I0710 03:10:40.046645  1856 net.cpp:156] Memory required for data: 357248512
I0710 03:10:40.046660  1856 layer_factory.hpp:77] Creating layer fc5_fc5_0_split
I0710 03:10:40.046674  1856 net.cpp:91] Creating Layer fc5_fc5_0_split
I0710 03:10:40.046705  1856 net.cpp:425] fc5_fc5_0_split <- fc5
I0710 03:10:40.046712  1856 net.cpp:399] fc5_fc5_0_split -> fc5_fc5_0_split_0
I0710 03:10:40.046721  1856 net.cpp:399] fc5_fc5_0_split -> fc5_fc5_0_split_1
I0710 03:10:40.046764  1856 net.cpp:141] Setting up fc5_fc5_0_split
I0710 03:10:40.046779  1856 net.cpp:148] Top shape: 128 20 (2560)
I0710 03:10:40.046785  1856 net.cpp:148] Top shape: 128 20 (2560)
I0710 03:10:40.046789  1856 net.cpp:156] Memory required for data: 357268992
I0710 03:10:40.046794  1856 layer_factory.hpp:77] Creating layer loss
I0710 03:10:40.046807  1856 net.cpp:91] Creating Layer loss
I0710 03:10:40.046810  1856 net.cpp:425] loss <- fc5_fc5_0_split_0
I0710 03:10:40.046816  1856 net.cpp:425] loss <- label_data_1_split_0
I0710 03:10:40.046826  1856 net.cpp:399] loss -> loss
…
