…
I0710 03:27:20.278084  1949 net.cpp:313] The NetState phase (0) differed from the phase (1) specified by a rule in layer data
I0710 03:27:20.278116  1949 net.cpp:313] The NetState phase (0) differed from the phase (1) specified by a rule in layer accuracy
I0710 03:27:20.278270  1949 net.cpp:49] Initializing net from parameters: 
name: "Model2"
state {
  phase: TRAIN
}
layer {
  name: "data"
  type: "Data"
  top: "data"
  top: "label"
  include {
    phase: TRAIN
  }
  transform_param {
    mirror: true
    mean_file: "../lmdb/mean_file.binaryproto"
  }
  data_param {
    source: "../lmdb/train_lmdb"
    batch_size: 256
    backend: LMDB
  }
}
layer {
  name: "conv1"
  type: "Convolution"
  bottom: "data"
  top: "conv1"
  param {
    lr_mult: 1
    decay_mult: 0
  }
  param {
    lr_mult: 2
    decay_mult: 0
  }
  convolution_param {
    num_output: 64
    kernel_size: 7
    stride: 2
    weight_filler {
      type: "xavier"
    }
    bias_filler {
      type: "constant"
      value: 0.1
    }
  }
}
layer {
  name: "relu1"
  type: "ReLU"
  bottom: "conv1"
  top: "conv1"
}
layer {
  name: "pool1"
  type: "Pooling"
  bottom: "conv1"
  top: "pool1"
  pooling_param {
    pool: MAX
    kernel_size: 3
    stride: 2
  }
}
layer {
  name: "conv2"
  type: "Convolution"
  bottom: "pool1"
  top: "conv2"
  param {
    lr_mult: 1
    decay_mult: 0
  }
  param {
    lr_mult: 2
    decay_mult: 0
  }
  convolution_param {
    num_output: 128
    kernel_size: 5
    stride: 2
    weight_filler {
      type: "xavier"
    }
    bias_filler {
      type: "constant"
      value: 0.1
    }
  }
}
layer {
  name: "relu2"
  type: "ReLU"
  bottom: "conv2"
  top: "conv2"
}
layer {
  name: "conv3"
  type: "Convolution"
  bottom: "conv2"
  top: "conv3"
  param {
    lr_mult: 1
    decay_mult: 0
  }
  param {
    lr_mult: 2
    decay_mult: 0
  }
  convolution_param {
    num_output: 256
    kernel_size: 3
    stride: 1
    weight_filler {
      type: "xavier"
    }
    bias_filler {
      type: "constant"
      value: 0.1
    }
  }
}
layer {
  name: "relu3"
  type: "ReLU"
  bottom: "conv3"
  top: "conv3"
}
layer {
  name: "pool3"
  type: "Pooling"
  bottom: "conv3"
  top: "pool3"
  pooling_param {
    pool: MAX
    kernel_size: 3
    stride: 2
  }
}
layer {
  name: "fc4"
  type: "InnerProduct"
  bottom: "pool3"
  top: "fc4"
  param {
    lr_mult: 1
    decay_mult: 0
  }
  param {
    lr_mult: 2
    decay_mult: 0
  }
  inner_product_param {
    num_output: 1024
    weight_filler {
      type: "xavier"
    }
    bias_filler {
      type: "constant"
      value: 0
    }
  }
}
layer {
  name: "relu4"
  type: "ReLU"
  bottom: "fc4"
  top: "fc4"
}
layer {
  name: "dropout4"
  type: "Dropout"
  bottom: "fc4"
  top: "fc4"
  dropout_param {
    dropout_ratio: 0.5
  }
}
layer {
  name: "fc5"
  type: "InnerProduct"
  bottom: "fc4"
  top: "fc5"
  param {
    lr_mult: 1
    decay_mult: 0
  }
  param {
    lr_mult: 2
    decay_mult: 0
  }
  inner_product_param {
    num_output: 20
    weight_filler {
      type: "xavier"
    }
    bias_filler {
      type: "constant"
      value: 0
    }
  }
}
layer {
  name: "loss"
  type: "SoftmaxWithLoss"
  bottom: "fc5"
  bottom: "label"
  top: "loss"
}
layer {
  name: "accuracy"
  type: "Accuracy"
  bottom: "fc5"
  bottom: "label"
  top: "accuracy"
  include {
    phase: TRAIN
  }
}
I0710 03:27:20.278436  1949 layer_factory.hpp:77] Creating layer data
I0710 03:27:20.279544  1949 net.cpp:91] Creating Layer data
I0710 03:27:20.279587  1949 net.cpp:399] data -> data
I0710 03:27:20.279628  1949 net.cpp:399] data -> label
I0710 03:27:20.279659  1949 data_transformer.cpp:25] Loading mean file from: ../lmdb/mean_file.binaryproto
I0710 03:27:20.280278  1956 db_lmdb.cpp:35] Opened lmdb ../lmdb/train_lmdb
I0710 03:27:20.293627  1949 data_layer.cpp:41] output data size: 256,3,128,128
I0710 03:27:20.397039  1949 net.cpp:141] Setting up data
I0710 03:27:20.397100  1949 net.cpp:148] Top shape: 256 3 128 128 (12582912)
I0710 03:27:20.397109  1949 net.cpp:148] Top shape: 256 (256)
I0710 03:27:20.397114  1949 net.cpp:156] Memory required for data: 50332672
I0710 03:27:20.397130  1949 layer_factory.hpp:77] Creating layer label_data_1_split
I0710 03:27:20.397153  1949 net.cpp:91] Creating Layer label_data_1_split
I0710 03:27:20.397164  1949 net.cpp:425] label_data_1_split <- label
I0710 03:27:20.397184  1949 net.cpp:399] label_data_1_split -> label_data_1_split_0
I0710 03:27:20.397208  1949 net.cpp:399] label_data_1_split -> label_data_1_split_1
I0710 03:27:20.397266  1949 net.cpp:141] Setting up label_data_1_split
I0710 03:27:20.397282  1949 net.cpp:148] Top shape: 256 (256)
I0710 03:27:20.397289  1949 net.cpp:148] Top shape: 256 (256)
I0710 03:27:20.397292  1949 net.cpp:156] Memory required for data: 50334720
I0710 03:27:20.397297  1949 layer_factory.hpp:77] Creating layer conv1
I0710 03:27:20.397330  1949 net.cpp:91] Creating Layer conv1
I0710 03:27:20.397342  1949 net.cpp:425] conv1 <- data
I0710 03:27:20.397351  1949 net.cpp:399] conv1 -> conv1
I0710 03:27:20.571277  1949 net.cpp:141] Setting up conv1
I0710 03:27:20.571331  1949 net.cpp:148] Top shape: 256 64 61 61 (60964864)
I0710 03:27:20.571336  1949 net.cpp:156] Memory required for data: 294194176
I0710 03:27:20.571367  1949 layer_factory.hpp:77] Creating layer relu1
I0710 03:27:20.571387  1949 net.cpp:91] Creating Layer relu1
I0710 03:27:20.571393  1949 net.cpp:425] relu1 <- conv1
I0710 03:27:20.571403  1949 net.cpp:386] relu1 -> conv1 (in-place)
I0710 03:27:20.571573  1949 net.cpp:141] Setting up relu1
I0710 03:27:20.571593  1949 net.cpp:148] Top shape: 256 64 61 61 (60964864)
I0710 03:27:20.571597  1949 net.cpp:156] Memory required for data: 538053632
I0710 03:27:20.571602  1949 layer_factory.hpp:77] Creating layer pool1
I0710 03:27:20.571616  1949 net.cpp:91] Creating Layer pool1
I0710 03:27:20.571621  1949 net.cpp:425] pool1 <- conv1
I0710 03:27:20.571629  1949 net.cpp:399] pool1 -> pool1
I0710 03:27:20.571691  1949 net.cpp:141] Setting up pool1
I0710 03:27:20.571707  1949 net.cpp:148] Top shape: 256 64 30 30 (14745600)
I0710 03:27:20.571712  1949 net.cpp:156] Memory required for data: 597036032
I0710 03:27:20.571717  1949 layer_factory.hpp:77] Creating layer conv2
I0710 03:27:20.571738  1949 net.cpp:91] Creating Layer conv2
I0710 03:27:20.571744  1949 net.cpp:425] conv2 <- pool1
I0710 03:27:20.571753  1949 net.cpp:399] conv2 -> conv2
I0710 03:27:20.574596  1949 net.cpp:141] Setting up conv2
I0710 03:27:20.574620  1949 net.cpp:148] Top shape: 256 128 13 13 (5537792)
I0710 03:27:20.574626  1949 net.cpp:156] Memory required for data: 619187200
I0710 03:27:20.574695  1949 layer_factory.hpp:77] Creating layer relu2
I0710 03:27:20.574718  1949 net.cpp:91] Creating Layer relu2
I0710 03:27:20.574724  1949 net.cpp:425] relu2 <- conv2
I0710 03:27:20.574733  1949 net.cpp:386] relu2 -> conv2 (in-place)
I0710 03:27:20.574965  1949 net.cpp:141] Setting up relu2
I0710 03:27:20.574985  1949 net.cpp:148] Top shape: 256 128 13 13 (5537792)
I0710 03:27:20.574991  1949 net.cpp:156] Memory required for data: 641338368
I0710 03:27:20.574996  1949 layer_factory.hpp:77] Creating layer conv3
I0710 03:27:20.575009  1949 net.cpp:91] Creating Layer conv3
I0710 03:27:20.575014  1949 net.cpp:425] conv3 <- conv2
I0710 03:27:20.575022  1949 net.cpp:399] conv3 -> conv3
I0710 03:27:20.578495  1949 net.cpp:141] Setting up conv3
I0710 03:27:20.578518  1949 net.cpp:148] Top shape: 256 256 11 11 (7929856)
I0710 03:27:20.578524  1949 net.cpp:156] Memory required for data: 673057792
I0710 03:27:20.578536  1949 layer_factory.hpp:77] Creating layer relu3
I0710 03:27:20.578547  1949 net.cpp:91] Creating Layer relu3
I0710 03:27:20.578552  1949 net.cpp:425] relu3 <- conv3
I0710 03:27:20.578579  1949 net.cpp:386] relu3 -> conv3 (in-place)
I0710 03:27:20.578814  1949 net.cpp:141] Setting up relu3
I0710 03:27:20.578835  1949 net.cpp:148] Top shape: 256 256 11 11 (7929856)
I0710 03:27:20.578840  1949 net.cpp:156] Memory required for data: 704777216
I0710 03:27:20.578845  1949 layer_factory.hpp:77] Creating layer pool3
I0710 03:27:20.578858  1949 net.cpp:91] Creating Layer pool3
I0710 03:27:20.578863  1949 net.cpp:425] pool3 <- conv3
I0710 03:27:20.578871  1949 net.cpp:399] pool3 -> pool3
I0710 03:27:20.578927  1949 net.cpp:141] Setting up pool3
I0710 03:27:20.578944  1949 net.cpp:148] Top shape: 256 256 5 5 (1638400)
I0710 03:27:20.578948  1949 net.cpp:156] Memory required for data: 711330816
I0710 03:27:20.578953  1949 layer_factory.hpp:77] Creating layer fc4
I0710 03:27:20.578969  1949 net.cpp:91] Creating Layer fc4
I0710 03:27:20.578976  1949 net.cpp:425] fc4 <- pool3
I0710 03:27:20.578984  1949 net.cpp:399] fc4 -> fc4
I0710 03:27:20.639744  1949 net.cpp:141] Setting up fc4
I0710 03:27:20.639802  1949 net.cpp:148] Top shape: 256 1024 (262144)
I0710 03:27:20.639809  1949 net.cpp:156] Memory required for data: 712379392
I0710 03:27:20.639824  1949 layer_factory.hpp:77] Creating layer relu4
I0710 03:27:20.639842  1949 net.cpp:91] Creating Layer relu4
I0710 03:27:20.639849  1949 net.cpp:425] relu4 <- fc4
I0710 03:27:20.639868  1949 net.cpp:386] relu4 -> fc4 (in-place)
I0710 03:27:20.640141  1949 net.cpp:141] Setting up relu4
I0710 03:27:20.640161  1949 net.cpp:148] Top shape: 256 1024 (262144)
I0710 03:27:20.640166  1949 net.cpp:156] Memory required for data: 713427968
I0710 03:27:20.640171  1949 layer_factory.hpp:77] Creating layer dropout4
I0710 03:27:20.640187  1949 net.cpp:91] Creating Layer dropout4
I0710 03:27:20.640195  1949 net.cpp:425] dropout4 <- fc4
I0710 03:27:20.640204  1949 net.cpp:386] dropout4 -> fc4 (in-place)
I0710 03:27:20.640246  1949 net.cpp:141] Setting up dropout4
I0710 03:27:20.640262  1949 net.cpp:148] Top shape: 256 1024 (262144)
I0710 03:27:20.640267  1949 net.cpp:156] Memory required for data: 714476544
I0710 03:27:20.640271  1949 layer_factory.hpp:77] Creating layer fc5
I0710 03:27:20.640282  1949 net.cpp:91] Creating Layer fc5
I0710 03:27:20.640287  1949 net.cpp:425] fc5 <- fc4
I0710 03:27:20.640298  1949 net.cpp:399] fc5 -> fc5
I0710 03:27:20.640570  1949 net.cpp:141] Setting up fc5
I0710 03:27:20.640588  1949 net.cpp:148] Top shape: 256 20 (5120)
I0710 03:27:20.640593  1949 net.cpp:156] Memory required for data: 714497024
I0710 03:27:20.640607  1949 layer_factory.hpp:77] Creating layer fc5_fc5_0_split
I0710 03:27:20.640616  1949 net.cpp:91] Creating Layer fc5_fc5_0_split
I0710 03:27:20.640624  1949 net.cpp:425] fc5_fc5_0_split <- fc5
I0710 03:27:20.640632  1949 net.cpp:399] fc5_fc5_0_split -> fc5_fc5_0_split_0
I0710 03:27:20.640641  1949 net.cpp:399] fc5_fc5_0_split -> fc5_fc5_0_split_1
I0710 03:27:20.640681  1949 net.cpp:141] Setting up fc5_fc5_0_split
I0710 03:27:20.640697  1949 net.cpp:148] Top shape: 256 20 (5120)
I0710 03:27:20.640703  1949 net.cpp:148] Top shape: 256 20 (5120)
I0710 03:27:20.640708  1949 net.cpp:156] Memory required for data: 714537984
I0710 03:27:20.640712  1949 layer_factory.hpp:77] Creating layer loss
I0710 03:27:20.640724  1949 net.cpp:91] Creating Layer loss
I0710 03:27:20.640729  1949 net.cpp:425] loss <- fc5_fc5_0_split_0
I0710 03:27:20.640735  1949 net.cpp:425] loss <- label_data_1_split_0
I0710 03:27:20.640741  1949 net.cpp:399] loss -> loss
…
I0710 03:27:20.642046  1949 net.cpp:313] The NetState phase (1) differed from the phase (0) specified by a rule in layer data
I0710 03:27:20.642081  1949 net.cpp:313] The NetState phase (1) differed from the phase (0) specified by a rule in layer accuracy
I0710 03:27:20.642235  1949 net.cpp:49] Initializing net from parameters: 
name: "Model2"
state {
  phase: TEST
}
layer {
  name: "data"
  type: "Data"
  top: "data"
  top: "label"
  include {
    phase: TEST
  }
  transform_param {
    mirror: false
    mean_file: "../lmdb/mean_file.binaryproto"
  }
  data_param {
    source: "../lmdb/val_lmdb"
    batch_size: 128
    backend: LMDB
  }
}
layer {
  name: "conv1"
  type: "Convolution"
  bottom: "data"
  top: "conv1"
  param {
    lr_mult: 1
    decay_mult: 0
  }
  param {
    lr_mult: 2
    decay_mult: 0
  }
  convolution_param {
    num_output: 64
    kernel_size: 7
    stride: 2
    weight_filler {
      type: "xavier"
    }
    bias_filler {
      type: "constant"
      value: 0.1
    }
  }
}
layer {
  name: "relu1"
  type: "ReLU"
  bottom: "conv1"
  top: "conv1"
}
layer {
  name: "pool1"
  type: "Pooling"
  bottom: "conv1"
  top: "pool1"
  pooling_param {
    pool: MAX
    kernel_size: 3
    stride: 2
  }
}
layer {
  name: "conv2"
  type: "Convolution"
  bottom: "pool1"
  top: "conv2"
  param {
    lr_mult: 1
    decay_mult: 0
  }
  param {
    lr_mult: 2
    decay_mult: 0
  }
  convolution_param {
    num_output: 128
    kernel_size: 5
    stride: 2
    weight_filler {
      type: "xavier"
    }
    bias_filler {
      type: "constant"
      value: 0.1
    }
  }
}
layer {
  name: "relu2"
  type: "ReLU"
  bottom: "conv2"
  top: "conv2"
}
layer {
  name: "conv3"
  type: "Convolution"
  bottom: "conv2"
  top: "conv3"
  param {
    lr_mult: 1
    decay_mult: 0
  }
  param {
    lr_mult: 2
    decay_mult: 0
  }
  convolution_param {
    num_output: 256
    kernel_size: 3
    stride: 1
    weight_filler {
      type: "xavier"
    }
    bias_filler {
      type: "constant"
      value: 0.1
    }
  }
}
layer {
  name: "relu3"
  type: "ReLU"
  bottom: "conv3"
  top: "conv3"
}
layer {
  name: "pool3"
  type: "Pooling"
  bottom: "conv3"
  top: "pool3"
  pooling_param {
    pool: MAX
    kernel_size: 3
    stride: 2
  }
}
layer {
  name: "fc4"
  type: "InnerProduct"
  bottom: "pool3"
  top: "fc4"
  param {
    lr_mult: 1
    decay_mult: 0
  }
  param {
    lr_mult: 2
    decay_mult: 0
  }
  inner_product_param {
    num_output: 1024
    weight_filler {
      type: "xavier"
    }
    bias_filler {
      type: "constant"
      value: 0
    }
  }
}
layer {
  name: "relu4"
  type: "ReLU"
  bottom: "fc4"
  top: "fc4"
}
layer {
  name: "dropout4"
  type: "Dropout"
  bottom: "fc4"
  top: "fc4"
  dropout_param {
    dropout_ratio: 0.5
  }
}
layer {
  name: "fc5"
  type: "InnerProduct"
  bottom: "fc4"
  top: "fc5"
  param {
    lr_mult: 1
    decay_mult: 0
  }
  param {
    lr_mult: 2
    decay_mult: 0
  }
  inner_product_param {
    num_output: 20
    weight_filler {
      type: "xavier"
    }
    bias_filler {
      type: "constant"
      value: 0
    }
  }
}
layer {
  name: "loss"
  type: "SoftmaxWithLoss"
  bottom: "fc5"
  bottom: "label"
  top: "loss"
}
layer {
  name: "accuracy"
  type: "Accuracy"
  bottom: "fc5"
  bottom: "label"
  top: "accuracy"
  include {
    phase: TEST
  }
}
I0710 03:27:20.642355  1949 layer_factory.hpp:77] Creating layer data
I0710 03:27:20.642524  1949 net.cpp:91] Creating Layer data
I0710 03:27:20.642539  1949 net.cpp:399] data -> data
I0710 03:27:20.642549  1949 net.cpp:399] data -> label
I0710 03:27:20.642560  1949 data_transformer.cpp:25] Loading mean file from: ../lmdb/mean_file.binaryproto
I0710 03:27:20.643270  1958 db_lmdb.cpp:35] Opened lmdb ../lmdb/val_lmdb
I0710 03:27:20.643462  1949 data_layer.cpp:41] output data size: 128,3,128,128
I0710 03:27:20.696796  1949 net.cpp:141] Setting up data
I0710 03:27:20.696847  1949 net.cpp:148] Top shape: 128 3 128 128 (6291456)
I0710 03:27:20.696856  1949 net.cpp:148] Top shape: 128 (128)
I0710 03:27:20.696861  1949 net.cpp:156] Memory required for data: 25166336
I0710 03:27:20.696871  1949 layer_factory.hpp:77] Creating layer label_data_1_split
I0710 03:27:20.696892  1949 net.cpp:91] Creating Layer label_data_1_split
I0710 03:27:20.696899  1949 net.cpp:425] label_data_1_split <- label
I0710 03:27:20.696912  1949 net.cpp:399] label_data_1_split -> label_data_1_split_0
I0710 03:27:20.696938  1949 net.cpp:399] label_data_1_split -> label_data_1_split_1
I0710 03:27:20.697130  1949 net.cpp:141] Setting up label_data_1_split
I0710 03:27:20.697149  1949 net.cpp:148] Top shape: 128 (128)
I0710 03:27:20.697154  1949 net.cpp:148] Top shape: 128 (128)
I0710 03:27:20.697159  1949 net.cpp:156] Memory required for data: 25167360
I0710 03:27:20.697163  1949 layer_factory.hpp:77] Creating layer conv1
I0710 03:27:20.697186  1949 net.cpp:91] Creating Layer conv1
I0710 03:27:20.697197  1949 net.cpp:425] conv1 <- data
I0710 03:27:20.697207  1949 net.cpp:399] conv1 -> conv1
I0710 03:27:20.700575  1949 net.cpp:141] Setting up conv1
I0710 03:27:20.700601  1949 net.cpp:148] Top shape: 128 64 61 61 (30482432)
I0710 03:27:20.700608  1949 net.cpp:156] Memory required for data: 147097088
I0710 03:27:20.700623  1949 layer_factory.hpp:77] Creating layer relu1
I0710 03:27:20.700635  1949 net.cpp:91] Creating Layer relu1
I0710 03:27:20.700642  1949 net.cpp:425] relu1 <- conv1
I0710 03:27:20.700650  1949 net.cpp:386] relu1 -> conv1 (in-place)
I0710 03:27:20.700817  1949 net.cpp:141] Setting up relu1
I0710 03:27:20.700844  1949 net.cpp:148] Top shape: 128 64 61 61 (30482432)
I0710 03:27:20.700850  1949 net.cpp:156] Memory required for data: 269026816
I0710 03:27:20.700855  1949 layer_factory.hpp:77] Creating layer pool1
I0710 03:27:20.700868  1949 net.cpp:91] Creating Layer pool1
I0710 03:27:20.700875  1949 net.cpp:425] pool1 <- conv1
I0710 03:27:20.700883  1949 net.cpp:399] pool1 -> pool1
I0710 03:27:20.700937  1949 net.cpp:141] Setting up pool1
I0710 03:27:20.700953  1949 net.cpp:148] Top shape: 128 64 30 30 (7372800)
I0710 03:27:20.700963  1949 net.cpp:156] Memory required for data: 298518016
I0710 03:27:20.700968  1949 layer_factory.hpp:77] Creating layer conv2
I0710 03:27:20.700981  1949 net.cpp:91] Creating Layer conv2
I0710 03:27:20.701014  1949 net.cpp:425] conv2 <- pool1
I0710 03:27:20.701025  1949 net.cpp:399] conv2 -> conv2
I0710 03:27:20.704047  1949 net.cpp:141] Setting up conv2
I0710 03:27:20.704071  1949 net.cpp:148] Top shape: 128 128 13 13 (2768896)
I0710 03:27:20.704077  1949 net.cpp:156] Memory required for data: 309593600
I0710 03:27:20.704089  1949 layer_factory.hpp:77] Creating layer relu2
I0710 03:27:20.704098  1949 net.cpp:91] Creating Layer relu2
I0710 03:27:20.704107  1949 net.cpp:425] relu2 <- conv2
I0710 03:27:20.704114  1949 net.cpp:386] relu2 -> conv2 (in-place)
I0710 03:27:20.704361  1949 net.cpp:141] Setting up relu2
I0710 03:27:20.704381  1949 net.cpp:148] Top shape: 128 128 13 13 (2768896)
I0710 03:27:20.704386  1949 net.cpp:156] Memory required for data: 320669184
I0710 03:27:20.704391  1949 layer_factory.hpp:77] Creating layer conv3
I0710 03:27:20.704406  1949 net.cpp:91] Creating Layer conv3
I0710 03:27:20.704411  1949 net.cpp:425] conv3 <- conv2
I0710 03:27:20.704421  1949 net.cpp:399] conv3 -> conv3
I0710 03:27:20.708201  1949 net.cpp:141] Setting up conv3
I0710 03:27:20.708225  1949 net.cpp:148] Top shape: 128 256 11 11 (3964928)
I0710 03:27:20.708230  1949 net.cpp:156] Memory required for data: 336528896
I0710 03:27:20.708242  1949 layer_factory.hpp:77] Creating layer relu3
I0710 03:27:20.708256  1949 net.cpp:91] Creating Layer relu3
I0710 03:27:20.708267  1949 net.cpp:425] relu3 <- conv3
I0710 03:27:20.708276  1949 net.cpp:386] relu3 -> conv3 (in-place)
I0710 03:27:20.708516  1949 net.cpp:141] Setting up relu3
I0710 03:27:20.708536  1949 net.cpp:148] Top shape: 128 256 11 11 (3964928)
I0710 03:27:20.708541  1949 net.cpp:156] Memory required for data: 352388608
I0710 03:27:20.708547  1949 layer_factory.hpp:77] Creating layer pool3
I0710 03:27:20.708556  1949 net.cpp:91] Creating Layer pool3
I0710 03:27:20.708561  1949 net.cpp:425] pool3 <- conv3
I0710 03:27:20.708570  1949 net.cpp:399] pool3 -> pool3
I0710 03:27:20.708626  1949 net.cpp:141] Setting up pool3
I0710 03:27:20.708643  1949 net.cpp:148] Top shape: 128 256 5 5 (819200)
I0710 03:27:20.708648  1949 net.cpp:156] Memory required for data: 355665408
I0710 03:27:20.708652  1949 layer_factory.hpp:77] Creating layer fc4
I0710 03:27:20.708667  1949 net.cpp:91] Creating Layer fc4
I0710 03:27:20.708674  1949 net.cpp:425] fc4 <- pool3
I0710 03:27:20.708684  1949 net.cpp:399] fc4 -> fc4
I0710 03:27:20.772910  1949 net.cpp:141] Setting up fc4
I0710 03:27:20.772965  1949 net.cpp:148] Top shape: 128 1024 (131072)
I0710 03:27:20.772971  1949 net.cpp:156] Memory required for data: 356189696
I0710 03:27:20.772986  1949 layer_factory.hpp:77] Creating layer relu4
I0710 03:27:20.773006  1949 net.cpp:91] Creating Layer relu4
I0710 03:27:20.773015  1949 net.cpp:425] relu4 <- fc4
I0710 03:27:20.773025  1949 net.cpp:386] relu4 -> fc4 (in-place)
I0710 03:27:20.773509  1949 net.cpp:141] Setting up relu4
I0710 03:27:20.773530  1949 net.cpp:148] Top shape: 128 1024 (131072)
I0710 03:27:20.773535  1949 net.cpp:156] Memory required for data: 356713984
I0710 03:27:20.773540  1949 layer_factory.hpp:77] Creating layer dropout4
I0710 03:27:20.773551  1949 net.cpp:91] Creating Layer dropout4
I0710 03:27:20.773556  1949 net.cpp:425] dropout4 <- fc4
I0710 03:27:20.773566  1949 net.cpp:386] dropout4 -> fc4 (in-place)
I0710 03:27:20.773597  1949 net.cpp:141] Setting up dropout4
I0710 03:27:20.773612  1949 net.cpp:148] Top shape: 128 1024 (131072)
I0710 03:27:20.773617  1949 net.cpp:156] Memory required for data: 357238272
I0710 03:27:20.773622  1949 layer_factory.hpp:77] Creating layer fc5
I0710 03:27:20.773636  1949 net.cpp:91] Creating Layer fc5
I0710 03:27:20.773651  1949 net.cpp:425] fc5 <- fc4
I0710 03:27:20.773660  1949 net.cpp:399] fc5 -> fc5
I0710 03:27:20.773952  1949 net.cpp:141] Setting up fc5
I0710 03:27:20.773972  1949 net.cpp:148] Top shape: 128 20 (2560)
I0710 03:27:20.773977  1949 net.cpp:156] Memory required for data: 357248512
I0710 03:27:20.773991  1949 layer_factory.hpp:77] Creating layer fc5_fc5_0_split
I0710 03:27:20.774001  1949 net.cpp:91] Creating Layer fc5_fc5_0_split
I0710 03:27:20.774032  1949 net.cpp:425] fc5_fc5_0_split <- fc5
I0710 03:27:20.774044  1949 net.cpp:399] fc5_fc5_0_split -> fc5_fc5_0_split_0
I0710 03:27:20.774052  1949 net.cpp:399] fc5_fc5_0_split -> fc5_fc5_0_split_1
I0710 03:27:20.774094  1949 net.cpp:141] Setting up fc5_fc5_0_split
I0710 03:27:20.774109  1949 net.cpp:148] Top shape: 128 20 (2560)
I0710 03:27:20.774116  1949 net.cpp:148] Top shape: 128 20 (2560)
I0710 03:27:20.774119  1949 net.cpp:156] Memory required for data: 357268992
I0710 03:27:20.774124  1949 layer_factory.hpp:77] Creating layer loss
I0710 03:27:20.774135  1949 net.cpp:91] Creating Layer loss
I0710 03:27:20.774140  1949 net.cpp:425] loss <- fc5_fc5_0_split_0
I0710 03:27:20.774147  1949 net.cpp:425] loss <- label_data_1_split_0
I0710 03:27:20.774153  1949 net.cpp:399] loss -> loss
…
