…
I0710 06:08:58.076690 17460 net.cpp:313] The NetState phase (0) differed from the phase (1) specified by a rule in layer data
I0710 06:08:58.076725 17460 net.cpp:313] The NetState phase (0) differed from the phase (1) specified by a rule in layer accuracy
I0710 06:08:58.076896 17460 net.cpp:49] Initializing net from parameters: 
name: "Model4"
state {
  phase: TRAIN
}
layer {
  name: "data"
  type: "Data"
  top: "data"
  top: "label"
  include {
    phase: TRAIN
  }
  transform_param {
    mirror: true
    mean_file: "../lmdb/mean_file.binaryproto"
  }
  data_param {
    source: "../lmdb/train_lmdb"
    batch_size: 256
    backend: LMDB
  }
}
layer {
  name: "conv1"
  type: "Convolution"
  bottom: "data"
  top: "conv1"
  param {
    lr_mult: 1
    decay_mult: 0
  }
  param {
    lr_mult: 2
    decay_mult: 0
  }
  convolution_param {
    num_output: 64
    kernel_size: 7
    stride: 2
    weight_filler {
      type: "xavier"
    }
    bias_filler {
      type: "constant"
      value: 0.1
    }
  }
}
layer {
  name: "relu1"
  type: "ReLU"
  bottom: "conv1"
  top: "conv1"
}
layer {
  name: "norm1"
  type: "LRN"
  bottom: "conv1"
  top: "norm1"
  lrn_param {
    local_size: 5
    alpha: 0.0001
    beta: 0.75
  }
}
layer {
  name: "pool1"
  type: "Pooling"
  bottom: "norm1"
  top: "pool1"
  pooling_param {
    pool: MAX
    kernel_size: 3
    stride: 2
  }
}
layer {
  name: "conv2"
  type: "Convolution"
  bottom: "pool1"
  top: "conv2"
  param {
    lr_mult: 1
    decay_mult: 0
  }
  param {
    lr_mult: 2
    decay_mult: 0
  }
  convolution_param {
    num_output: 128
    kernel_size: 5
    stride: 2
    weight_filler {
      type: "xavier"
    }
    bias_filler {
      type: "constant"
      value: 0.1
    }
  }
}
layer {
  name: "relu2"
  type: "ReLU"
  bottom: "conv2"
  top: "conv2"
}
layer {
  name: "norm2"
  type: "LRN"
  bottom: "conv2"
  top: "norm2"
  lrn_param {
    local_size: 5
    alpha: 0.0001
    beta: 0.75
  }
}
layer {
  name: "conv3"
  type: "Convolution"
  bottom: "norm2"
  top: "conv3"
  param {
    lr_mult: 1
    decay_mult: 0
  }
  param {
    lr_mult: 2
    decay_mult: 0
  }
  convolution_param {
    num_output: 256
    kernel_size: 3
    stride: 1
    weight_filler {
      type: "xavier"
    }
    bias_filler {
      type: "constant"
      value: 0.1
    }
  }
}
layer {
  name: "relu3"
  type: "ReLU"
  bottom: "conv3"
  top: "conv3"
}
layer {
  name: "pool3"
  type: "Pooling"
  bottom: "conv3"
  top: "pool3"
  pooling_param {
    pool: MAX
    kernel_size: 3
    stride: 2
  }
}
layer {
  name: "dropout3"
  type: "Dropout"
  bottom: "pool3"
  top: "pool3"
  dropout_param {
    dropout_ratio: 0.5
  }
}
layer {
  name: "fc4"
  type: "InnerProduct"
  bottom: "pool3"
  top: "fc4"
  param {
    lr_mult: 1
    decay_mult: 0
  }
  param {
    lr_mult: 2
    decay_mult: 0
  }
  inner_product_param {
    num_output: 1024
    weight_filler {
      type: "xavier"
    }
    bias_filler {
      type: "constant"
      value: 0
    }
  }
}
layer {
  name: "relu4"
  type: "ReLU"
  bottom: "fc4"
  top: "fc4"
}
layer {
  name: "dropout4"
  type: "Dropout"
  bottom: "fc4"
  top: "fc4"
  dropout_param {
    dropout_ratio: 0.5
  }
}
layer {
  name: "fc5"
  type: "InnerProduct"
  bottom: "fc4"
  top: "fc5"
  param {
    lr_mult: 1
    decay_mult: 0
  }
  param {
    lr_mult: 2
    decay_mult: 0
  }
  inner_product_param {
    num_output: 20
    weight_filler {
      type: "xavier"
    }
    bias_filler {
      type: "constant"
      value: 0
    }
  }
}
layer {
  name: "loss"
  type: "SoftmaxWithLoss"
  bottom: "fc5"
  bottom: "label"
  top: "loss"
}
layer {
  name: "accuracy"
  type: "Accuracy"
  bottom: "fc5"
  bottom: "label"
  top: "accuracy"
  include {
    phase: TRAIN
  }
}
I0710 06:08:58.077085 17460 layer_factory.hpp:77] Creating layer data
I0710 06:08:58.077785 17460 net.cpp:91] Creating Layer data
I0710 06:08:58.077811 17460 net.cpp:399] data -> data
I0710 06:08:58.077854 17460 net.cpp:399] data -> label
I0710 06:08:58.077885 17460 data_transformer.cpp:25] Loading mean file from: ../lmdb/mean_file.binaryproto
I0710 06:08:58.078532 17467 db_lmdb.cpp:35] Opened lmdb ../lmdb/train_lmdb
I0710 06:08:58.091333 17460 data_layer.cpp:41] output data size: 256,3,128,128
I0710 06:08:58.178856 17460 net.cpp:141] Setting up data
I0710 06:08:58.178920 17460 net.cpp:148] Top shape: 256 3 128 128 (12582912)
I0710 06:08:58.178930 17460 net.cpp:148] Top shape: 256 (256)
I0710 06:08:58.178935 17460 net.cpp:156] Memory required for data: 50332672
I0710 06:08:58.178949 17460 layer_factory.hpp:77] Creating layer label_data_1_split
I0710 06:08:58.178972 17460 net.cpp:91] Creating Layer label_data_1_split
I0710 06:08:58.178983 17460 net.cpp:425] label_data_1_split <- label
I0710 06:08:58.179003 17460 net.cpp:399] label_data_1_split -> label_data_1_split_0
I0710 06:08:58.179026 17460 net.cpp:399] label_data_1_split -> label_data_1_split_1
I0710 06:08:58.179080 17460 net.cpp:141] Setting up label_data_1_split
I0710 06:08:58.179096 17460 net.cpp:148] Top shape: 256 (256)
I0710 06:08:58.179102 17460 net.cpp:148] Top shape: 256 (256)
I0710 06:08:58.179107 17460 net.cpp:156] Memory required for data: 50334720
I0710 06:08:58.179112 17460 layer_factory.hpp:77] Creating layer conv1
I0710 06:08:58.179141 17460 net.cpp:91] Creating Layer conv1
I0710 06:08:58.179153 17460 net.cpp:425] conv1 <- data
I0710 06:08:58.179162 17460 net.cpp:399] conv1 -> conv1
I0710 06:08:58.345047 17460 net.cpp:141] Setting up conv1
I0710 06:08:58.345095 17460 net.cpp:148] Top shape: 256 64 61 61 (60964864)
I0710 06:08:58.345100 17460 net.cpp:156] Memory required for data: 294194176
I0710 06:08:58.345130 17460 layer_factory.hpp:77] Creating layer relu1
I0710 06:08:58.345149 17460 net.cpp:91] Creating Layer relu1
I0710 06:08:58.345155 17460 net.cpp:425] relu1 <- conv1
I0710 06:08:58.345163 17460 net.cpp:386] relu1 -> conv1 (in-place)
I0710 06:08:58.345321 17460 net.cpp:141] Setting up relu1
I0710 06:08:58.345341 17460 net.cpp:148] Top shape: 256 64 61 61 (60964864)
I0710 06:08:58.345350 17460 net.cpp:156] Memory required for data: 538053632
I0710 06:08:58.345356 17460 layer_factory.hpp:77] Creating layer norm1
I0710 06:08:58.345378 17460 net.cpp:91] Creating Layer norm1
I0710 06:08:58.345384 17460 net.cpp:425] norm1 <- conv1
I0710 06:08:58.345392 17460 net.cpp:399] norm1 -> norm1
I0710 06:08:58.345688 17460 net.cpp:141] Setting up norm1
I0710 06:08:58.345710 17460 net.cpp:148] Top shape: 256 64 61 61 (60964864)
I0710 06:08:58.345715 17460 net.cpp:156] Memory required for data: 781913088
I0710 06:08:58.345721 17460 layer_factory.hpp:77] Creating layer pool1
I0710 06:08:58.345731 17460 net.cpp:91] Creating Layer pool1
I0710 06:08:58.345736 17460 net.cpp:425] pool1 <- norm1
I0710 06:08:58.345746 17460 net.cpp:399] pool1 -> pool1
I0710 06:08:58.345803 17460 net.cpp:141] Setting up pool1
I0710 06:08:58.345820 17460 net.cpp:148] Top shape: 256 64 30 30 (14745600)
I0710 06:08:58.345825 17460 net.cpp:156] Memory required for data: 840895488
I0710 06:08:58.345829 17460 layer_factory.hpp:77] Creating layer conv2
I0710 06:08:58.345851 17460 net.cpp:91] Creating Layer conv2
I0710 06:08:58.345862 17460 net.cpp:425] conv2 <- pool1
I0710 06:08:58.345870 17460 net.cpp:399] conv2 -> conv2
I0710 06:08:58.348647 17460 net.cpp:141] Setting up conv2
I0710 06:08:58.348670 17460 net.cpp:148] Top shape: 256 128 13 13 (5537792)
I0710 06:08:58.348675 17460 net.cpp:156] Memory required for data: 863046656
I0710 06:08:58.348687 17460 layer_factory.hpp:77] Creating layer relu2
I0710 06:08:58.348695 17460 net.cpp:91] Creating Layer relu2
I0710 06:08:58.348701 17460 net.cpp:425] relu2 <- conv2
I0710 06:08:58.348711 17460 net.cpp:386] relu2 -> conv2 (in-place)
I0710 06:08:58.348907 17460 net.cpp:141] Setting up relu2
I0710 06:08:58.348925 17460 net.cpp:148] Top shape: 256 128 13 13 (5537792)
I0710 06:08:58.348930 17460 net.cpp:156] Memory required for data: 885197824
I0710 06:08:58.348935 17460 layer_factory.hpp:77] Creating layer norm2
I0710 06:08:58.348948 17460 net.cpp:91] Creating Layer norm2
I0710 06:08:58.348954 17460 net.cpp:425] norm2 <- conv2
I0710 06:08:58.348961 17460 net.cpp:399] norm2 -> norm2
I0710 06:08:58.349234 17460 net.cpp:141] Setting up norm2
I0710 06:08:58.349256 17460 net.cpp:148] Top shape: 256 128 13 13 (5537792)
I0710 06:08:58.349261 17460 net.cpp:156] Memory required for data: 907348992
I0710 06:08:58.349266 17460 layer_factory.hpp:77] Creating layer conv3
I0710 06:08:58.349279 17460 net.cpp:91] Creating Layer conv3
I0710 06:08:58.349285 17460 net.cpp:425] conv3 <- norm2
I0710 06:08:58.349295 17460 net.cpp:399] conv3 -> conv3
I0710 06:08:58.352696 17460 net.cpp:141] Setting up conv3
I0710 06:08:58.352720 17460 net.cpp:148] Top shape: 256 256 11 11 (7929856)
I0710 06:08:58.352725 17460 net.cpp:156] Memory required for data: 939068416
I0710 06:08:58.352737 17460 layer_factory.hpp:77] Creating layer relu3
I0710 06:08:58.352748 17460 net.cpp:91] Creating Layer relu3
I0710 06:08:58.352753 17460 net.cpp:425] relu3 <- conv3
I0710 06:08:58.352759 17460 net.cpp:386] relu3 -> conv3 (in-place)
I0710 06:08:58.353001 17460 net.cpp:141] Setting up relu3
I0710 06:08:58.353023 17460 net.cpp:148] Top shape: 256 256 11 11 (7929856)
I0710 06:08:58.353029 17460 net.cpp:156] Memory required for data: 970787840
I0710 06:08:58.353034 17460 layer_factory.hpp:77] Creating layer pool3
I0710 06:08:58.353041 17460 net.cpp:91] Creating Layer pool3
I0710 06:08:58.353045 17460 net.cpp:425] pool3 <- conv3
I0710 06:08:58.353055 17460 net.cpp:399] pool3 -> pool3
I0710 06:08:58.353102 17460 net.cpp:141] Setting up pool3
I0710 06:08:58.353122 17460 net.cpp:148] Top shape: 256 256 5 5 (1638400)
I0710 06:08:58.353127 17460 net.cpp:156] Memory required for data: 977341440
I0710 06:08:58.353132 17460 layer_factory.hpp:77] Creating layer dropout3
I0710 06:08:58.353147 17460 net.cpp:91] Creating Layer dropout3
I0710 06:08:58.353152 17460 net.cpp:425] dropout3 <- pool3
I0710 06:08:58.353157 17460 net.cpp:386] dropout3 -> pool3 (in-place)
I0710 06:08:58.353193 17460 net.cpp:141] Setting up dropout3
I0710 06:08:58.353209 17460 net.cpp:148] Top shape: 256 256 5 5 (1638400)
I0710 06:08:58.353214 17460 net.cpp:156] Memory required for data: 983895040
I0710 06:08:58.353217 17460 layer_factory.hpp:77] Creating layer fc4
I0710 06:08:58.353232 17460 net.cpp:91] Creating Layer fc4
I0710 06:08:58.353237 17460 net.cpp:425] fc4 <- pool3
I0710 06:08:58.353245 17460 net.cpp:399] fc4 -> fc4
I0710 06:08:58.410094 17460 net.cpp:141] Setting up fc4
I0710 06:08:58.410148 17460 net.cpp:148] Top shape: 256 1024 (262144)
I0710 06:08:58.410156 17460 net.cpp:156] Memory required for data: 984943616
I0710 06:08:58.410169 17460 layer_factory.hpp:77] Creating layer relu4
I0710 06:08:58.410186 17460 net.cpp:91] Creating Layer relu4
I0710 06:08:58.410192 17460 net.cpp:425] relu4 <- fc4
I0710 06:08:58.410205 17460 net.cpp:386] relu4 -> fc4 (in-place)
I0710 06:08:58.410554 17460 net.cpp:141] Setting up relu4
I0710 06:08:58.410575 17460 net.cpp:148] Top shape: 256 1024 (262144)
I0710 06:08:58.410580 17460 net.cpp:156] Memory required for data: 985992192
I0710 06:08:58.410585 17460 layer_factory.hpp:77] Creating layer dropout4
I0710 06:08:58.410598 17460 net.cpp:91] Creating Layer dropout4
I0710 06:08:58.410604 17460 net.cpp:425] dropout4 <- fc4
I0710 06:08:58.410612 17460 net.cpp:386] dropout4 -> fc4 (in-place)
I0710 06:08:58.410655 17460 net.cpp:141] Setting up dropout4
I0710 06:08:58.410671 17460 net.cpp:148] Top shape: 256 1024 (262144)
I0710 06:08:58.410676 17460 net.cpp:156] Memory required for data: 987040768
I0710 06:08:58.410681 17460 layer_factory.hpp:77] Creating layer fc5
I0710 06:08:58.410699 17460 net.cpp:91] Creating Layer fc5
I0710 06:08:58.410704 17460 net.cpp:425] fc5 <- fc4
I0710 06:08:58.410733 17460 net.cpp:399] fc5 -> fc5
I0710 06:08:58.411007 17460 net.cpp:141] Setting up fc5
I0710 06:08:58.411026 17460 net.cpp:148] Top shape: 256 20 (5120)
I0710 06:08:58.411031 17460 net.cpp:156] Memory required for data: 987061248
I0710 06:08:58.411043 17460 layer_factory.hpp:77] Creating layer fc5_fc5_0_split
I0710 06:08:58.411056 17460 net.cpp:91] Creating Layer fc5_fc5_0_split
I0710 06:08:58.411062 17460 net.cpp:425] fc5_fc5_0_split <- fc5
I0710 06:08:58.411068 17460 net.cpp:399] fc5_fc5_0_split -> fc5_fc5_0_split_0
I0710 06:08:58.411077 17460 net.cpp:399] fc5_fc5_0_split -> fc5_fc5_0_split_1
I0710 06:08:58.411113 17460 net.cpp:141] Setting up fc5_fc5_0_split
I0710 06:08:58.411130 17460 net.cpp:148] Top shape: 256 20 (5120)
I0710 06:08:58.411137 17460 net.cpp:148] Top shape: 256 20 (5120)
I0710 06:08:58.411141 17460 net.cpp:156] Memory required for data: 987102208
I0710 06:08:58.411145 17460 layer_factory.hpp:77] Creating layer loss
I0710 06:08:58.411157 17460 net.cpp:91] Creating Layer loss
I0710 06:08:58.411161 17460 net.cpp:425] loss <- fc5_fc5_0_split_0
I0710 06:08:58.411167 17460 net.cpp:425] loss <- label_data_1_split_0
I0710 06:08:58.411175 17460 net.cpp:399] loss -> loss
…
I0710 06:08:58.412396 17460 net.cpp:313] The NetState phase (1) differed from the phase (0) specified by a rule in layer data
I0710 06:08:58.412446 17460 net.cpp:313] The NetState phase (1) differed from the phase (0) specified by a rule in layer accuracy
I0710 06:08:58.412607 17460 net.cpp:49] Initializing net from parameters: 
name: "Model4"
state {
  phase: TEST
}
layer {
  name: "data"
  type: "Data"
  top: "data"
  top: "label"
  include {
    phase: TEST
  }
  transform_param {
    mirror: false
    mean_file: "../lmdb/mean_file.binaryproto"
  }
  data_param {
    source: "../lmdb/val_lmdb"
    batch_size: 128
    backend: LMDB
  }
}
layer {
  name: "conv1"
  type: "Convolution"
  bottom: "data"
  top: "conv1"
  param {
    lr_mult: 1
    decay_mult: 0
  }
  param {
    lr_mult: 2
    decay_mult: 0
  }
  convolution_param {
    num_output: 64
    kernel_size: 7
    stride: 2
    weight_filler {
      type: "xavier"
    }
    bias_filler {
      type: "constant"
      value: 0.1
    }
  }
}
layer {
  name: "relu1"
  type: "ReLU"
  bottom: "conv1"
  top: "conv1"
}
layer {
  name: "norm1"
  type: "LRN"
  bottom: "conv1"
  top: "norm1"
  lrn_param {
    local_size: 5
    alpha: 0.0001
    beta: 0.75
  }
}
layer {
  name: "pool1"
  type: "Pooling"
  bottom: "norm1"
  top: "pool1"
  pooling_param {
    pool: MAX
    kernel_size: 3
    stride: 2
  }
}
layer {
  name: "conv2"
  type: "Convolution"
  bottom: "pool1"
  top: "conv2"
  param {
    lr_mult: 1
    decay_mult: 0
  }
  param {
    lr_mult: 2
    decay_mult: 0
  }
  convolution_param {
    num_output: 128
    kernel_size: 5
    stride: 2
    weight_filler {
      type: "xavier"
    }
    bias_filler {
      type: "constant"
      value: 0.1
    }
  }
}
layer {
  name: "relu2"
  type: "ReLU"
  bottom: "conv2"
  top: "conv2"
}
layer {
  name: "norm2"
  type: "LRN"
  bottom: "conv2"
  top: "norm2"
  lrn_param {
    local_size: 5
    alpha: 0.0001
    beta: 0.75
  }
}
layer {
  name: "conv3"
  type: "Convolution"
  bottom: "norm2"
  top: "conv3"
  param {
    lr_mult: 1
    decay_mult: 0
  }
  param {
    lr_mult: 2
    decay_mult: 0
  }
  convolution_param {
    num_output: 256
    kernel_size: 3
    stride: 1
    weight_filler {
      type: "xavier"
    }
    bias_filler {
      type: "constant"
      value: 0.1
    }
  }
}
layer {
  name: "relu3"
  type: "ReLU"
  bottom: "conv3"
  top: "conv3"
}
layer {
  name: "pool3"
  type: "Pooling"
  bottom: "conv3"
  top: "pool3"
  pooling_param {
    pool: MAX
    kernel_size: 3
    stride: 2
  }
}
layer {
  name: "dropout3"
  type: "Dropout"
  bottom: "pool3"
  top: "pool3"
  dropout_param {
    dropout_ratio: 0.5
  }
}
layer {
  name: "fc4"
  type: "InnerProduct"
  bottom: "pool3"
  top: "fc4"
  param {
    lr_mult: 1
    decay_mult: 0
  }
  param {
    lr_mult: 2
    decay_mult: 0
  }
  inner_product_param {
    num_output: 1024
    weight_filler {
      type: "xavier"
    }
    bias_filler {
      type: "constant"
      value: 0
    }
  }
}
layer {
  name: "relu4"
  type: "ReLU"
  bottom: "fc4"
  top: "fc4"
}
layer {
  name: "dropout4"
  type: "Dropout"
  bottom: "fc4"
  top: "fc4"
  dropout_param {
    dropout_ratio: 0.5
  }
}
layer {
  name: "fc5"
  type: "InnerProduct"
  bottom: "fc4"
  top: "fc5"
  param {
    lr_mult: 1
    decay_mult: 0
  }
  param {
    lr_mult: 2
    decay_mult: 0
  }
  inner_product_param {
    num_output: 20
    weight_filler {
      type: "xavier"
    }
    bias_filler {
      type: "constant"
      value: 0
    }
  }
}
layer {
  name: "loss"
  type: "SoftmaxWithLoss"
  bottom: "fc5"
  bottom: "label"
  top: "loss"
}
layer {
  name: "accuracy"
  type: "Accuracy"
  bottom: "fc5"
  bottom: "label"
  top: "accuracy"
  include {
    phase: TEST
  }
}
I0710 06:08:58.412725 17460 layer_factory.hpp:77] Creating layer data
I0710 06:08:58.412889 17460 net.cpp:91] Creating Layer data
I0710 06:08:58.412902 17460 net.cpp:399] data -> data
I0710 06:08:58.412914 17460 net.cpp:399] data -> label
I0710 06:08:58.412925 17460 data_transformer.cpp:25] Loading mean file from: ../lmdb/mean_file.binaryproto
I0710 06:08:58.413658 17469 db_lmdb.cpp:35] Opened lmdb ../lmdb/val_lmdb
I0710 06:08:58.413854 17460 data_layer.cpp:41] output data size: 128,3,128,128
I0710 06:08:58.458264 17460 net.cpp:141] Setting up data
I0710 06:08:58.458312 17460 net.cpp:148] Top shape: 128 3 128 128 (6291456)
I0710 06:08:58.458320 17460 net.cpp:148] Top shape: 128 (128)
I0710 06:08:58.458324 17460 net.cpp:156] Memory required for data: 25166336
I0710 06:08:58.458334 17460 layer_factory.hpp:77] Creating layer label_data_1_split
I0710 06:08:58.458354 17460 net.cpp:91] Creating Layer label_data_1_split
I0710 06:08:58.458360 17460 net.cpp:425] label_data_1_split <- label
I0710 06:08:58.458375 17460 net.cpp:399] label_data_1_split -> label_data_1_split_0
I0710 06:08:58.458398 17460 net.cpp:399] label_data_1_split -> label_data_1_split_1
I0710 06:08:58.458564 17460 net.cpp:141] Setting up label_data_1_split
I0710 06:08:58.458582 17460 net.cpp:148] Top shape: 128 (128)
I0710 06:08:58.458588 17460 net.cpp:148] Top shape: 128 (128)
I0710 06:08:58.458592 17460 net.cpp:156] Memory required for data: 25167360
I0710 06:08:58.458597 17460 layer_factory.hpp:77] Creating layer conv1
I0710 06:08:58.458616 17460 net.cpp:91] Creating Layer conv1
I0710 06:08:58.458628 17460 net.cpp:425] conv1 <- data
I0710 06:08:58.458637 17460 net.cpp:399] conv1 -> conv1
I0710 06:08:58.461894 17460 net.cpp:141] Setting up conv1
I0710 06:08:58.461921 17460 net.cpp:148] Top shape: 128 64 61 61 (30482432)
I0710 06:08:58.461926 17460 net.cpp:156] Memory required for data: 147097088
I0710 06:08:58.461941 17460 layer_factory.hpp:77] Creating layer relu1
I0710 06:08:58.461952 17460 net.cpp:91] Creating Layer relu1
I0710 06:08:58.461957 17460 net.cpp:425] relu1 <- conv1
I0710 06:08:58.461964 17460 net.cpp:386] relu1 -> conv1 (in-place)
I0710 06:08:58.462118 17460 net.cpp:141] Setting up relu1
I0710 06:08:58.462136 17460 net.cpp:148] Top shape: 128 64 61 61 (30482432)
I0710 06:08:58.462141 17460 net.cpp:156] Memory required for data: 269026816
I0710 06:08:58.462146 17460 layer_factory.hpp:77] Creating layer norm1
I0710 06:08:58.462158 17460 net.cpp:91] Creating Layer norm1
I0710 06:08:58.462163 17460 net.cpp:425] norm1 <- conv1
I0710 06:08:58.462172 17460 net.cpp:399] norm1 -> norm1
I0710 06:08:58.462442 17460 net.cpp:141] Setting up norm1
I0710 06:08:58.462467 17460 net.cpp:148] Top shape: 128 64 61 61 (30482432)
I0710 06:08:58.462472 17460 net.cpp:156] Memory required for data: 390956544
I0710 06:08:58.462477 17460 layer_factory.hpp:77] Creating layer pool1
I0710 06:08:58.462487 17460 net.cpp:91] Creating Layer pool1
I0710 06:08:58.462492 17460 net.cpp:425] pool1 <- norm1
I0710 06:08:58.462501 17460 net.cpp:399] pool1 -> pool1
I0710 06:08:58.462544 17460 net.cpp:141] Setting up pool1
I0710 06:08:58.462563 17460 net.cpp:148] Top shape: 128 64 30 30 (7372800)
I0710 06:08:58.462568 17460 net.cpp:156] Memory required for data: 420447744
I0710 06:08:58.462573 17460 layer_factory.hpp:77] Creating layer conv2
I0710 06:08:58.462585 17460 net.cpp:91] Creating Layer conv2
I0710 06:08:58.462590 17460 net.cpp:425] conv2 <- pool1
I0710 06:08:58.462599 17460 net.cpp:399] conv2 -> conv2
I0710 06:08:58.465365 17460 net.cpp:141] Setting up conv2
I0710 06:08:58.465389 17460 net.cpp:148] Top shape: 128 128 13 13 (2768896)
I0710 06:08:58.465394 17460 net.cpp:156] Memory required for data: 431523328
I0710 06:08:58.465406 17460 layer_factory.hpp:77] Creating layer relu2
I0710 06:08:58.465415 17460 net.cpp:91] Creating Layer relu2
I0710 06:08:58.465420 17460 net.cpp:425] relu2 <- conv2
I0710 06:08:58.465426 17460 net.cpp:386] relu2 -> conv2 (in-place)
I0710 06:08:58.465587 17460 net.cpp:141] Setting up relu2
I0710 06:08:58.465605 17460 net.cpp:148] Top shape: 128 128 13 13 (2768896)
I0710 06:08:58.465610 17460 net.cpp:156] Memory required for data: 442598912
I0710 06:08:58.465615 17460 layer_factory.hpp:77] Creating layer norm2
I0710 06:08:58.465626 17460 net.cpp:91] Creating Layer norm2
I0710 06:08:58.465631 17460 net.cpp:425] norm2 <- conv2
I0710 06:08:58.465637 17460 net.cpp:399] norm2 -> norm2
I0710 06:08:58.465991 17460 net.cpp:141] Setting up norm2
I0710 06:08:58.466012 17460 net.cpp:148] Top shape: 128 128 13 13 (2768896)
I0710 06:08:58.466039 17460 net.cpp:156] Memory required for data: 453674496
I0710 06:08:58.466047 17460 layer_factory.hpp:77] Creating layer conv3
I0710 06:08:58.466060 17460 net.cpp:91] Creating Layer conv3
I0710 06:08:58.466071 17460 net.cpp:425] conv3 <- norm2
I0710 06:08:58.466083 17460 net.cpp:399] conv3 -> conv3
I0710 06:08:58.469538 17460 net.cpp:141] Setting up conv3
I0710 06:08:58.469561 17460 net.cpp:148] Top shape: 128 256 11 11 (3964928)
I0710 06:08:58.469568 17460 net.cpp:156] Memory required for data: 469534208
I0710 06:08:58.469579 17460 layer_factory.hpp:77] Creating layer relu3
I0710 06:08:58.469589 17460 net.cpp:91] Creating Layer relu3
I0710 06:08:58.469595 17460 net.cpp:425] relu3 <- conv3
I0710 06:08:58.469601 17460 net.cpp:386] relu3 -> conv3 (in-place)
I0710 06:08:58.469776 17460 net.cpp:141] Setting up relu3
I0710 06:08:58.469795 17460 net.cpp:148] Top shape: 128 256 11 11 (3964928)
I0710 06:08:58.469800 17460 net.cpp:156] Memory required for data: 485393920
I0710 06:08:58.469805 17460 layer_factory.hpp:77] Creating layer pool3
I0710 06:08:58.469815 17460 net.cpp:91] Creating Layer pool3
I0710 06:08:58.469820 17460 net.cpp:425] pool3 <- conv3
I0710 06:08:58.469830 17460 net.cpp:399] pool3 -> pool3
I0710 06:08:58.469882 17460 net.cpp:141] Setting up pool3
I0710 06:08:58.469899 17460 net.cpp:148] Top shape: 128 256 5 5 (819200)
I0710 06:08:58.469904 17460 net.cpp:156] Memory required for data: 488670720
I0710 06:08:58.469908 17460 layer_factory.hpp:77] Creating layer dropout3
I0710 06:08:58.469918 17460 net.cpp:91] Creating Layer dropout3
I0710 06:08:58.469923 17460 net.cpp:425] dropout3 <- pool3
I0710 06:08:58.469928 17460 net.cpp:386] dropout3 -> pool3 (in-place)
I0710 06:08:58.469960 17460 net.cpp:141] Setting up dropout3
I0710 06:08:58.469975 17460 net.cpp:148] Top shape: 128 256 5 5 (819200)
I0710 06:08:58.469980 17460 net.cpp:156] Memory required for data: 491947520
I0710 06:08:58.469985 17460 layer_factory.hpp:77] Creating layer fc4
I0710 06:08:58.469996 17460 net.cpp:91] Creating Layer fc4
I0710 06:08:58.470001 17460 net.cpp:425] fc4 <- pool3
I0710 06:08:58.470008 17460 net.cpp:399] fc4 -> fc4
I0710 06:08:58.526350 17460 net.cpp:141] Setting up fc4
I0710 06:08:58.526399 17460 net.cpp:148] Top shape: 128 1024 (131072)
I0710 06:08:58.526406 17460 net.cpp:156] Memory required for data: 492471808
I0710 06:08:58.526422 17460 layer_factory.hpp:77] Creating layer relu4
I0710 06:08:58.526437 17460 net.cpp:91] Creating Layer relu4
I0710 06:08:58.526443 17460 net.cpp:425] relu4 <- fc4
I0710 06:08:58.526453 17460 net.cpp:386] relu4 -> fc4 (in-place)
I0710 06:08:58.526921 17460 net.cpp:141] Setting up relu4
I0710 06:08:58.526942 17460 net.cpp:148] Top shape: 128 1024 (131072)
I0710 06:08:58.526947 17460 net.cpp:156] Memory required for data: 492996096
I0710 06:08:58.526952 17460 layer_factory.hpp:77] Creating layer dropout4
I0710 06:08:58.526965 17460 net.cpp:91] Creating Layer dropout4
I0710 06:08:58.526970 17460 net.cpp:425] dropout4 <- fc4
I0710 06:08:58.526978 17460 net.cpp:386] dropout4 -> fc4 (in-place)
I0710 06:08:58.527009 17460 net.cpp:141] Setting up dropout4
I0710 06:08:58.527026 17460 net.cpp:148] Top shape: 128 1024 (131072)
I0710 06:08:58.527031 17460 net.cpp:156] Memory required for data: 493520384
I0710 06:08:58.527035 17460 layer_factory.hpp:77] Creating layer fc5
I0710 06:08:58.527050 17460 net.cpp:91] Creating Layer fc5
I0710 06:08:58.527055 17460 net.cpp:425] fc5 <- fc4
I0710 06:08:58.527065 17460 net.cpp:399] fc5 -> fc5
I0710 06:08:58.527361 17460 net.cpp:141] Setting up fc5
I0710 06:08:58.527380 17460 net.cpp:148] Top shape: 128 20 (2560)
I0710 06:08:58.527385 17460 net.cpp:156] Memory required for data: 493530624
I0710 06:08:58.527400 17460 layer_factory.hpp:77] Creating layer fc5_fc5_0_split
I0710 06:08:58.527408 17460 net.cpp:91] Creating Layer fc5_fc5_0_split
I0710 06:08:58.527413 17460 net.cpp:425] fc5_fc5_0_split <- fc5
I0710 06:08:58.527422 17460 net.cpp:399] fc5_fc5_0_split -> fc5_fc5_0_split_0
I0710 06:08:58.527431 17460 net.cpp:399] fc5_fc5_0_split -> fc5_fc5_0_split_1
I0710 06:08:58.527500 17460 net.cpp:141] Setting up fc5_fc5_0_split
I0710 06:08:58.527518 17460 net.cpp:148] Top shape: 128 20 (2560)
I0710 06:08:58.527524 17460 net.cpp:148] Top shape: 128 20 (2560)
I0710 06:08:58.527529 17460 net.cpp:156] Memory required for data: 493551104
I0710 06:08:58.527532 17460 layer_factory.hpp:77] Creating layer loss
I0710 06:08:58.527544 17460 net.cpp:91] Creating Layer loss
I0710 06:08:58.527549 17460 net.cpp:425] loss <- fc5_fc5_0_split_0
I0710 06:08:58.527567 17460 net.cpp:425] loss <- label_data_1_split_0
I0710 06:08:58.527580 17460 net.cpp:399] loss -> loss
…
