…
I0710 07:12:38.648265 17778 net.cpp:313] The NetState phase (0) differed from the phase (1) specified by a rule in layer data
I0710 07:12:38.648301 17778 net.cpp:313] The NetState phase (0) differed from the phase (1) specified by a rule in layer accuracy
I0710 07:12:38.648470 17778 net.cpp:49] Initializing net from parameters: 
name: "Model4"
state {
  phase: TRAIN
}
layer {
  name: "data"
  type: "Data"
  top: "data"
  top: "label"
  include {
    phase: TRAIN
  }
  transform_param {
    mirror: true
    mean_file: "../lmdb/mean_file.binaryproto"
  }
  data_param {
    source: "../lmdb/train_lmdb"
    batch_size: 256
    backend: LMDB
  }
}
layer {
  name: "conv1"
  type: "Convolution"
  bottom: "data"
  top: "conv1"
  param {
    lr_mult: 1
    decay_mult: 0
  }
  param {
    lr_mult: 2
    decay_mult: 0
  }
  convolution_param {
    num_output: 64
    kernel_size: 7
    stride: 2
    weight_filler {
      type: "xavier"
    }
    bias_filler {
      type: "constant"
      value: 0.1
    }
  }
}
layer {
  name: "relu1"
  type: "ReLU"
  bottom: "conv1"
  top: "conv1"
}
layer {
  name: "norm1"
  type: "LRN"
  bottom: "conv1"
  top: "norm1"
  lrn_param {
    local_size: 5
    alpha: 0.0001
    beta: 0.75
  }
}
layer {
  name: "pool1"
  type: "Pooling"
  bottom: "norm1"
  top: "pool1"
  pooling_param {
    pool: MAX
    kernel_size: 3
    stride: 2
  }
}
layer {
  name: "conv2"
  type: "Convolution"
  bottom: "pool1"
  top: "conv2"
  param {
    lr_mult: 1
    decay_mult: 0
  }
  param {
    lr_mult: 2
    decay_mult: 0
  }
  convolution_param {
    num_output: 128
    kernel_size: 5
    stride: 2
    weight_filler {
      type: "xavier"
    }
    bias_filler {
      type: "constant"
      value: 0.1
    }
  }
}
layer {
  name: "relu2"
  type: "ReLU"
  bottom: "conv2"
  top: "conv2"
}
layer {
  name: "norm2"
  type: "LRN"
  bottom: "conv2"
  top: "norm2"
  lrn_param {
    local_size: 5
    alpha: 0.0001
    beta: 0.75
  }
}
layer {
  name: "conv3"
  type: "Convolution"
  bottom: "norm2"
  top: "conv3"
  param {
    lr_mult: 1
    decay_mult: 0
  }
  param {
    lr_mult: 2
    decay_mult: 0
  }
  convolution_param {
    num_output: 256
    kernel_size: 3
    stride: 1
    weight_filler {
      type: "xavier"
    }
    bias_filler {
      type: "constant"
      value: 0.1
    }
  }
}
layer {
  name: "relu3"
  type: "ReLU"
  bottom: "conv3"
  top: "conv3"
}
layer {
  name: "pool3"
  type: "Pooling"
  bottom: "conv3"
  top: "pool3"
  pooling_param {
    pool: MAX
    kernel_size: 3
    stride: 2
  }
}
layer {
  name: "dropout3"
  type: "Dropout"
  bottom: "pool3"
  top: "pool3"
  dropout_param {
    dropout_ratio: 0.5
  }
}
layer {
  name: "fc4"
  type: "InnerProduct"
  bottom: "pool3"
  top: "fc4"
  param {
    lr_mult: 1
    decay_mult: 0
  }
  param {
    lr_mult: 2
    decay_mult: 0
  }
  inner_product_param {
    num_output: 1024
    weight_filler {
      type: "xavier"
    }
    bias_filler {
      type: "constant"
      value: 0
    }
  }
}
layer {
  name: "relu4"
  type: "ReLU"
  bottom: "fc4"
  top: "fc4"
}
layer {
  name: "dropout4"
  type: "Dropout"
  bottom: "fc4"
  top: "fc4"
  dropout_param {
    dropout_ratio: 0.5
  }
}
layer {
  name: "fc5"
  type: "InnerProduct"
  bottom: "fc4"
  top: "fc5"
  param {
    lr_mult: 1
    decay_mult: 0
  }
  param {
    lr_mult: 2
    decay_mult: 0
  }
  inner_product_param {
    num_output: 20
    weight_filler {
      type: "xavier"
    }
    bias_filler {
      type: "constant"
      value: 0
    }
  }
}
layer {
  name: "loss"
  type: "SoftmaxWithLoss"
  bottom: "fc5"
  bottom: "label"
  top: "loss"
}
layer {
  name: "accuracy"
  type: "Accuracy"
  bottom: "fc5"
  bottom: "label"
  top: "accuracy"
  include {
    phase: TRAIN
  }
}
I0710 07:12:38.648658 17778 layer_factory.hpp:77] Creating layer data
I0710 07:12:38.649356 17778 net.cpp:91] Creating Layer data
I0710 07:12:38.649401 17778 net.cpp:399] data -> data
I0710 07:12:38.649451 17778 net.cpp:399] data -> label
I0710 07:12:38.649482 17778 data_transformer.cpp:25] Loading mean file from: ../lmdb/mean_file.binaryproto
I0710 07:12:38.650102 17785 db_lmdb.cpp:35] Opened lmdb ../lmdb/train_lmdb
I0710 07:12:38.662802 17778 data_layer.cpp:41] output data size: 256,3,128,128
I0710 07:12:38.750547 17778 net.cpp:141] Setting up data
I0710 07:12:38.750643 17778 net.cpp:148] Top shape: 256 3 128 128 (12582912)
I0710 07:12:38.750651 17778 net.cpp:148] Top shape: 256 (256)
I0710 07:12:38.750656 17778 net.cpp:156] Memory required for data: 50332672
I0710 07:12:38.750672 17778 layer_factory.hpp:77] Creating layer label_data_1_split
I0710 07:12:38.750695 17778 net.cpp:91] Creating Layer label_data_1_split
I0710 07:12:38.750706 17778 net.cpp:425] label_data_1_split <- label
I0710 07:12:38.750727 17778 net.cpp:399] label_data_1_split -> label_data_1_split_0
I0710 07:12:38.750744 17778 net.cpp:399] label_data_1_split -> label_data_1_split_1
I0710 07:12:38.750813 17778 net.cpp:141] Setting up label_data_1_split
I0710 07:12:38.750828 17778 net.cpp:148] Top shape: 256 (256)
I0710 07:12:38.750834 17778 net.cpp:148] Top shape: 256 (256)
I0710 07:12:38.750838 17778 net.cpp:156] Memory required for data: 50334720
I0710 07:12:38.750844 17778 layer_factory.hpp:77] Creating layer conv1
I0710 07:12:38.750871 17778 net.cpp:91] Creating Layer conv1
I0710 07:12:38.750876 17778 net.cpp:425] conv1 <- data
I0710 07:12:38.750885 17778 net.cpp:399] conv1 -> conv1
I0710 07:12:38.914731 17778 net.cpp:141] Setting up conv1
I0710 07:12:38.914783 17778 net.cpp:148] Top shape: 256 64 61 61 (60964864)
I0710 07:12:38.914790 17778 net.cpp:156] Memory required for data: 294194176
I0710 07:12:38.914819 17778 layer_factory.hpp:77] Creating layer relu1
I0710 07:12:38.914837 17778 net.cpp:91] Creating Layer relu1
I0710 07:12:38.914845 17778 net.cpp:425] relu1 <- conv1
I0710 07:12:38.914855 17778 net.cpp:386] relu1 -> conv1 (in-place)
I0710 07:12:38.915010 17778 net.cpp:141] Setting up relu1
I0710 07:12:38.915032 17778 net.cpp:148] Top shape: 256 64 61 61 (60964864)
I0710 07:12:38.915041 17778 net.cpp:156] Memory required for data: 538053632
I0710 07:12:38.915050 17778 layer_factory.hpp:77] Creating layer norm1
I0710 07:12:38.915079 17778 net.cpp:91] Creating Layer norm1
I0710 07:12:38.915101 17778 net.cpp:425] norm1 <- conv1
I0710 07:12:38.915112 17778 net.cpp:399] norm1 -> norm1
I0710 07:12:38.915395 17778 net.cpp:141] Setting up norm1
I0710 07:12:38.915416 17778 net.cpp:148] Top shape: 256 64 61 61 (60964864)
I0710 07:12:38.915421 17778 net.cpp:156] Memory required for data: 781913088
I0710 07:12:38.915426 17778 layer_factory.hpp:77] Creating layer pool1
I0710 07:12:38.915437 17778 net.cpp:91] Creating Layer pool1
I0710 07:12:38.915442 17778 net.cpp:425] pool1 <- norm1
I0710 07:12:38.915449 17778 net.cpp:399] pool1 -> pool1
I0710 07:12:38.915505 17778 net.cpp:141] Setting up pool1
I0710 07:12:38.915523 17778 net.cpp:148] Top shape: 256 64 30 30 (14745600)
I0710 07:12:38.915527 17778 net.cpp:156] Memory required for data: 840895488
I0710 07:12:38.915532 17778 layer_factory.hpp:77] Creating layer conv2
I0710 07:12:38.915549 17778 net.cpp:91] Creating Layer conv2
I0710 07:12:38.915568 17778 net.cpp:425] conv2 <- pool1
I0710 07:12:38.915576 17778 net.cpp:399] conv2 -> conv2
I0710 07:12:38.918426 17778 net.cpp:141] Setting up conv2
I0710 07:12:38.918448 17778 net.cpp:148] Top shape: 256 128 13 13 (5537792)
I0710 07:12:38.918453 17778 net.cpp:156] Memory required for data: 863046656
I0710 07:12:38.918467 17778 layer_factory.hpp:77] Creating layer relu2
I0710 07:12:38.918474 17778 net.cpp:91] Creating Layer relu2
I0710 07:12:38.918480 17778 net.cpp:425] relu2 <- conv2
I0710 07:12:38.918486 17778 net.cpp:386] relu2 -> conv2 (in-place)
I0710 07:12:38.918654 17778 net.cpp:141] Setting up relu2
I0710 07:12:38.918674 17778 net.cpp:148] Top shape: 256 128 13 13 (5537792)
I0710 07:12:38.918679 17778 net.cpp:156] Memory required for data: 885197824
I0710 07:12:38.918684 17778 layer_factory.hpp:77] Creating layer norm2
I0710 07:12:38.918694 17778 net.cpp:91] Creating Layer norm2
I0710 07:12:38.918700 17778 net.cpp:425] norm2 <- conv2
I0710 07:12:38.918707 17778 net.cpp:399] norm2 -> norm2
I0710 07:12:38.918968 17778 net.cpp:141] Setting up norm2
I0710 07:12:38.918990 17778 net.cpp:148] Top shape: 256 128 13 13 (5537792)
I0710 07:12:38.918995 17778 net.cpp:156] Memory required for data: 907348992
I0710 07:12:38.919000 17778 layer_factory.hpp:77] Creating layer conv3
I0710 07:12:38.919013 17778 net.cpp:91] Creating Layer conv3
I0710 07:12:38.919018 17778 net.cpp:425] conv3 <- norm2
I0710 07:12:38.919026 17778 net.cpp:399] conv3 -> conv3
I0710 07:12:38.922591 17778 net.cpp:141] Setting up conv3
I0710 07:12:38.922621 17778 net.cpp:148] Top shape: 256 256 11 11 (7929856)
I0710 07:12:38.922632 17778 net.cpp:156] Memory required for data: 939068416
I0710 07:12:38.922655 17778 layer_factory.hpp:77] Creating layer relu3
I0710 07:12:38.922670 17778 net.cpp:91] Creating Layer relu3
I0710 07:12:38.922677 17778 net.cpp:425] relu3 <- conv3
I0710 07:12:38.922683 17778 net.cpp:386] relu3 -> conv3 (in-place)
I0710 07:12:38.923002 17778 net.cpp:141] Setting up relu3
I0710 07:12:38.923029 17778 net.cpp:148] Top shape: 256 256 11 11 (7929856)
I0710 07:12:38.923040 17778 net.cpp:156] Memory required for data: 970787840
I0710 07:12:38.923050 17778 layer_factory.hpp:77] Creating layer pool3
I0710 07:12:38.923063 17778 net.cpp:91] Creating Layer pool3
I0710 07:12:38.923069 17778 net.cpp:425] pool3 <- conv3
I0710 07:12:38.923076 17778 net.cpp:399] pool3 -> pool3
I0710 07:12:38.923126 17778 net.cpp:141] Setting up pool3
I0710 07:12:38.923143 17778 net.cpp:148] Top shape: 256 256 5 5 (1638400)
I0710 07:12:38.923148 17778 net.cpp:156] Memory required for data: 977341440
I0710 07:12:38.923153 17778 layer_factory.hpp:77] Creating layer dropout3
I0710 07:12:38.923166 17778 net.cpp:91] Creating Layer dropout3
I0710 07:12:38.923171 17778 net.cpp:425] dropout3 <- pool3
I0710 07:12:38.923178 17778 net.cpp:386] dropout3 -> pool3 (in-place)
I0710 07:12:38.923213 17778 net.cpp:141] Setting up dropout3
I0710 07:12:38.923228 17778 net.cpp:148] Top shape: 256 256 5 5 (1638400)
I0710 07:12:38.923233 17778 net.cpp:156] Memory required for data: 983895040
I0710 07:12:38.923238 17778 layer_factory.hpp:77] Creating layer fc4
I0710 07:12:38.923250 17778 net.cpp:91] Creating Layer fc4
I0710 07:12:38.923255 17778 net.cpp:425] fc4 <- pool3
I0710 07:12:38.923264 17778 net.cpp:399] fc4 -> fc4
I0710 07:12:38.980458 17778 net.cpp:141] Setting up fc4
I0710 07:12:38.980514 17778 net.cpp:148] Top shape: 256 1024 (262144)
I0710 07:12:38.980520 17778 net.cpp:156] Memory required for data: 984943616
I0710 07:12:38.980540 17778 layer_factory.hpp:77] Creating layer relu4
I0710 07:12:38.980556 17778 net.cpp:91] Creating Layer relu4
I0710 07:12:38.980563 17778 net.cpp:425] relu4 <- fc4
I0710 07:12:38.980574 17778 net.cpp:386] relu4 -> fc4 (in-place)
I0710 07:12:38.980916 17778 net.cpp:141] Setting up relu4
I0710 07:12:38.980937 17778 net.cpp:148] Top shape: 256 1024 (262144)
I0710 07:12:38.980942 17778 net.cpp:156] Memory required for data: 985992192
I0710 07:12:38.980947 17778 layer_factory.hpp:77] Creating layer dropout4
I0710 07:12:38.980960 17778 net.cpp:91] Creating Layer dropout4
I0710 07:12:38.980965 17778 net.cpp:425] dropout4 <- fc4
I0710 07:12:38.980973 17778 net.cpp:386] dropout4 -> fc4 (in-place)
I0710 07:12:38.981000 17778 net.cpp:141] Setting up dropout4
I0710 07:12:38.981016 17778 net.cpp:148] Top shape: 256 1024 (262144)
I0710 07:12:38.981021 17778 net.cpp:156] Memory required for data: 987040768
I0710 07:12:38.981025 17778 layer_factory.hpp:77] Creating layer fc5
I0710 07:12:38.981043 17778 net.cpp:91] Creating Layer fc5
I0710 07:12:38.981048 17778 net.cpp:425] fc5 <- fc4
I0710 07:12:38.981076 17778 net.cpp:399] fc5 -> fc5
I0710 07:12:38.981369 17778 net.cpp:141] Setting up fc5
I0710 07:12:38.981386 17778 net.cpp:148] Top shape: 256 20 (5120)
I0710 07:12:38.981390 17778 net.cpp:156] Memory required for data: 987061248
I0710 07:12:38.981403 17778 layer_factory.hpp:77] Creating layer fc5_fc5_0_split
I0710 07:12:38.981413 17778 net.cpp:91] Creating Layer fc5_fc5_0_split
I0710 07:12:38.981428 17778 net.cpp:425] fc5_fc5_0_split <- fc5
I0710 07:12:38.981436 17778 net.cpp:399] fc5_fc5_0_split -> fc5_fc5_0_split_0
I0710 07:12:38.981447 17778 net.cpp:399] fc5_fc5_0_split -> fc5_fc5_0_split_1
I0710 07:12:38.981483 17778 net.cpp:141] Setting up fc5_fc5_0_split
I0710 07:12:38.981498 17778 net.cpp:148] Top shape: 256 20 (5120)
I0710 07:12:38.981503 17778 net.cpp:148] Top shape: 256 20 (5120)
I0710 07:12:38.981508 17778 net.cpp:156] Memory required for data: 987102208
I0710 07:12:38.981513 17778 layer_factory.hpp:77] Creating layer loss
I0710 07:12:38.981523 17778 net.cpp:91] Creating Layer loss
I0710 07:12:38.981528 17778 net.cpp:425] loss <- fc5_fc5_0_split_0
I0710 07:12:38.981534 17778 net.cpp:425] loss <- label_data_1_split_0
I0710 07:12:38.981545 17778 net.cpp:399] loss -> loss
…
I0710 07:12:38.982852 17778 net.cpp:313] The NetState phase (1) differed from the phase (0) specified by a rule in layer data
I0710 07:12:38.982898 17778 net.cpp:313] The NetState phase (1) differed from the phase (0) specified by a rule in layer accuracy
I0710 07:12:38.983062 17778 net.cpp:49] Initializing net from parameters: 
name: "Model4"
state {
  phase: TEST
}
layer {
  name: "data"
  type: "Data"
  top: "data"
  top: "label"
  include {
    phase: TEST
  }
  transform_param {
    mirror: false
    mean_file: "../lmdb/mean_file.binaryproto"
  }
  data_param {
    source: "../lmdb/val_lmdb"
    batch_size: 128
    backend: LMDB
  }
}
layer {
  name: "conv1"
  type: "Convolution"
  bottom: "data"
  top: "conv1"
  param {
    lr_mult: 1
    decay_mult: 0
  }
  param {
    lr_mult: 2
    decay_mult: 0
  }
  convolution_param {
    num_output: 64
    kernel_size: 7
    stride: 2
    weight_filler {
      type: "xavier"
    }
    bias_filler {
      type: "constant"
      value: 0.1
    }
  }
}
layer {
  name: "relu1"
  type: "ReLU"
  bottom: "conv1"
  top: "conv1"
}
layer {
  name: "norm1"
  type: "LRN"
  bottom: "conv1"
  top: "norm1"
  lrn_param {
    local_size: 5
    alpha: 0.0001
    beta: 0.75
  }
}
layer {
  name: "pool1"
  type: "Pooling"
  bottom: "norm1"
  top: "pool1"
  pooling_param {
    pool: MAX
    kernel_size: 3
    stride: 2
  }
}
layer {
  name: "conv2"
  type: "Convolution"
  bottom: "pool1"
  top: "conv2"
  param {
    lr_mult: 1
    decay_mult: 0
  }
  param {
    lr_mult: 2
    decay_mult: 0
  }
  convolution_param {
    num_output: 128
    kernel_size: 5
    stride: 2
    weight_filler {
      type: "xavier"
    }
    bias_filler {
      type: "constant"
      value: 0.1
    }
  }
}
layer {
  name: "relu2"
  type: "ReLU"
  bottom: "conv2"
  top: "conv2"
}
layer {
  name: "norm2"
  type: "LRN"
  bottom: "conv2"
  top: "norm2"
  lrn_param {
    local_size: 5
    alpha: 0.0001
    beta: 0.75
  }
}
layer {
  name: "conv3"
  type: "Convolution"
  bottom: "norm2"
  top: "conv3"
  param {
    lr_mult: 1
    decay_mult: 0
  }
  param {
    lr_mult: 2
    decay_mult: 0
  }
  convolution_param {
    num_output: 256
    kernel_size: 3
    stride: 1
    weight_filler {
      type: "xavier"
    }
    bias_filler {
      type: "constant"
      value: 0.1
    }
  }
}
layer {
  name: "relu3"
  type: "ReLU"
  bottom: "conv3"
  top: "conv3"
}
layer {
  name: "pool3"
  type: "Pooling"
  bottom: "conv3"
  top: "pool3"
  pooling_param {
    pool: MAX
    kernel_size: 3
    stride: 2
  }
}
layer {
  name: "dropout3"
  type: "Dropout"
  bottom: "pool3"
  top: "pool3"
  dropout_param {
    dropout_ratio: 0.5
  }
}
layer {
  name: "fc4"
  type: "InnerProduct"
  bottom: "pool3"
  top: "fc4"
  param {
    lr_mult: 1
    decay_mult: 0
  }
  param {
    lr_mult: 2
    decay_mult: 0
  }
  inner_product_param {
    num_output: 1024
    weight_filler {
      type: "xavier"
    }
    bias_filler {
      type: "constant"
      value: 0
    }
  }
}
layer {
  name: "relu4"
  type: "ReLU"
  bottom: "fc4"
  top: "fc4"
}
layer {
  name: "dropout4"
  type: "Dropout"
  bottom: "fc4"
  top: "fc4"
  dropout_param {
    dropout_ratio: 0.5
  }
}
layer {
  name: "fc5"
  type: "InnerProduct"
  bottom: "fc4"
  top: "fc5"
  param {
    lr_mult: 1
    decay_mult: 0
  }
  param {
    lr_mult: 2
    decay_mult: 0
  }
  inner_product_param {
    num_output: 20
    weight_filler {
      type: "xavier"
    }
    bias_filler {
      type: "constant"
      value: 0
    }
  }
}
layer {
  name: "loss"
  type: "SoftmaxWithLoss"
  bottom: "fc5"
  bottom: "label"
  top: "loss"
}
layer {
  name: "accuracy"
  type: "Accuracy"
  bottom: "fc5"
  bottom: "label"
  top: "accuracy"
  include {
    phase: TEST
  }
}
I0710 07:12:38.983184 17778 layer_factory.hpp:77] Creating layer data
I0710 07:12:38.983342 17778 net.cpp:91] Creating Layer data
I0710 07:12:38.983367 17778 net.cpp:399] data -> data
I0710 07:12:38.983381 17778 net.cpp:399] data -> label
I0710 07:12:38.983393 17778 data_transformer.cpp:25] Loading mean file from: ../lmdb/mean_file.binaryproto
I0710 07:12:38.984145 17787 db_lmdb.cpp:35] Opened lmdb ../lmdb/val_lmdb
I0710 07:12:38.984326 17778 data_layer.cpp:41] output data size: 128,3,128,128
I0710 07:12:39.028800 17778 net.cpp:141] Setting up data
I0710 07:12:39.028849 17778 net.cpp:148] Top shape: 128 3 128 128 (6291456)
I0710 07:12:39.028856 17778 net.cpp:148] Top shape: 128 (128)
I0710 07:12:39.028861 17778 net.cpp:156] Memory required for data: 25166336
I0710 07:12:39.028872 17778 layer_factory.hpp:77] Creating layer label_data_1_split
I0710 07:12:39.028893 17778 net.cpp:91] Creating Layer label_data_1_split
I0710 07:12:39.028899 17778 net.cpp:425] label_data_1_split <- label
I0710 07:12:39.028910 17778 net.cpp:399] label_data_1_split -> label_data_1_split_0
I0710 07:12:39.028926 17778 net.cpp:399] label_data_1_split -> label_data_1_split_1
I0710 07:12:39.029146 17778 net.cpp:141] Setting up label_data_1_split
I0710 07:12:39.029165 17778 net.cpp:148] Top shape: 128 (128)
I0710 07:12:39.029170 17778 net.cpp:148] Top shape: 128 (128)
I0710 07:12:39.029175 17778 net.cpp:156] Memory required for data: 25167360
I0710 07:12:39.029181 17778 layer_factory.hpp:77] Creating layer conv1
I0710 07:12:39.029201 17778 net.cpp:91] Creating Layer conv1
I0710 07:12:39.029206 17778 net.cpp:425] conv1 <- data
I0710 07:12:39.029213 17778 net.cpp:399] conv1 -> conv1
I0710 07:12:39.030490 17778 net.cpp:141] Setting up conv1
I0710 07:12:39.030511 17778 net.cpp:148] Top shape: 128 64 61 61 (30482432)
I0710 07:12:39.030517 17778 net.cpp:156] Memory required for data: 147097088
I0710 07:12:39.030532 17778 layer_factory.hpp:77] Creating layer relu1
I0710 07:12:39.030544 17778 net.cpp:91] Creating Layer relu1
I0710 07:12:39.030549 17778 net.cpp:425] relu1 <- conv1
I0710 07:12:39.030555 17778 net.cpp:386] relu1 -> conv1 (in-place)
I0710 07:12:39.032743 17778 net.cpp:141] Setting up relu1
I0710 07:12:39.032768 17778 net.cpp:148] Top shape: 128 64 61 61 (30482432)
I0710 07:12:39.032773 17778 net.cpp:156] Memory required for data: 269026816
I0710 07:12:39.032778 17778 layer_factory.hpp:77] Creating layer norm1
I0710 07:12:39.032791 17778 net.cpp:91] Creating Layer norm1
I0710 07:12:39.032796 17778 net.cpp:425] norm1 <- conv1
I0710 07:12:39.032804 17778 net.cpp:399] norm1 -> norm1
I0710 07:12:39.033092 17778 net.cpp:141] Setting up norm1
I0710 07:12:39.033114 17778 net.cpp:148] Top shape: 128 64 61 61 (30482432)
I0710 07:12:39.033119 17778 net.cpp:156] Memory required for data: 390956544
I0710 07:12:39.033128 17778 layer_factory.hpp:77] Creating layer pool1
I0710 07:12:39.033139 17778 net.cpp:91] Creating Layer pool1
I0710 07:12:39.033144 17778 net.cpp:425] pool1 <- norm1
I0710 07:12:39.033152 17778 net.cpp:399] pool1 -> pool1
I0710 07:12:39.033197 17778 net.cpp:141] Setting up pool1
I0710 07:12:39.033213 17778 net.cpp:148] Top shape: 128 64 30 30 (7372800)
I0710 07:12:39.033218 17778 net.cpp:156] Memory required for data: 420447744
I0710 07:12:39.033223 17778 layer_factory.hpp:77] Creating layer conv2
I0710 07:12:39.033236 17778 net.cpp:91] Creating Layer conv2
I0710 07:12:39.033241 17778 net.cpp:425] conv2 <- pool1
I0710 07:12:39.033249 17778 net.cpp:399] conv2 -> conv2
I0710 07:12:39.036190 17778 net.cpp:141] Setting up conv2
I0710 07:12:39.036212 17778 net.cpp:148] Top shape: 128 128 13 13 (2768896)
I0710 07:12:39.036218 17778 net.cpp:156] Memory required for data: 431523328
I0710 07:12:39.036231 17778 layer_factory.hpp:77] Creating layer relu2
I0710 07:12:39.036240 17778 net.cpp:91] Creating Layer relu2
I0710 07:12:39.036245 17778 net.cpp:425] relu2 <- conv2
I0710 07:12:39.036252 17778 net.cpp:386] relu2 -> conv2 (in-place)
I0710 07:12:39.036406 17778 net.cpp:141] Setting up relu2
I0710 07:12:39.036424 17778 net.cpp:148] Top shape: 128 128 13 13 (2768896)
I0710 07:12:39.036429 17778 net.cpp:156] Memory required for data: 442598912
I0710 07:12:39.036434 17778 layer_factory.hpp:77] Creating layer norm2
I0710 07:12:39.036444 17778 net.cpp:91] Creating Layer norm2
I0710 07:12:39.036448 17778 net.cpp:425] norm2 <- conv2
I0710 07:12:39.036456 17778 net.cpp:399] norm2 -> norm2
I0710 07:12:39.036820 17778 net.cpp:141] Setting up norm2
I0710 07:12:39.036842 17778 net.cpp:148] Top shape: 128 128 13 13 (2768896)
I0710 07:12:39.036872 17778 net.cpp:156] Memory required for data: 453674496
I0710 07:12:39.036878 17778 layer_factory.hpp:77] Creating layer conv3
I0710 07:12:39.036893 17778 net.cpp:91] Creating Layer conv3
I0710 07:12:39.036898 17778 net.cpp:425] conv3 <- norm2
I0710 07:12:39.036909 17778 net.cpp:399] conv3 -> conv3
I0710 07:12:39.040432 17778 net.cpp:141] Setting up conv3
I0710 07:12:39.040458 17778 net.cpp:148] Top shape: 128 256 11 11 (3964928)
I0710 07:12:39.040463 17778 net.cpp:156] Memory required for data: 469534208
I0710 07:12:39.040475 17778 layer_factory.hpp:77] Creating layer relu3
I0710 07:12:39.040484 17778 net.cpp:91] Creating Layer relu3
I0710 07:12:39.040489 17778 net.cpp:425] relu3 <- conv3
I0710 07:12:39.040496 17778 net.cpp:386] relu3 -> conv3 (in-place)
I0710 07:12:39.040663 17778 net.cpp:141] Setting up relu3
I0710 07:12:39.040683 17778 net.cpp:148] Top shape: 128 256 11 11 (3964928)
I0710 07:12:39.040690 17778 net.cpp:156] Memory required for data: 485393920
I0710 07:12:39.040695 17778 layer_factory.hpp:77] Creating layer pool3
I0710 07:12:39.040704 17778 net.cpp:91] Creating Layer pool3
I0710 07:12:39.040709 17778 net.cpp:425] pool3 <- conv3
I0710 07:12:39.040716 17778 net.cpp:399] pool3 -> pool3
I0710 07:12:39.040769 17778 net.cpp:141] Setting up pool3
I0710 07:12:39.040787 17778 net.cpp:148] Top shape: 128 256 5 5 (819200)
I0710 07:12:39.040793 17778 net.cpp:156] Memory required for data: 488670720
I0710 07:12:39.040798 17778 layer_factory.hpp:77] Creating layer dropout3
I0710 07:12:39.040807 17778 net.cpp:91] Creating Layer dropout3
I0710 07:12:39.040812 17778 net.cpp:425] dropout3 <- pool3
I0710 07:12:39.040820 17778 net.cpp:386] dropout3 -> pool3 (in-place)
I0710 07:12:39.040850 17778 net.cpp:141] Setting up dropout3
I0710 07:12:39.040869 17778 net.cpp:148] Top shape: 128 256 5 5 (819200)
I0710 07:12:39.040874 17778 net.cpp:156] Memory required for data: 491947520
I0710 07:12:39.040879 17778 layer_factory.hpp:77] Creating layer fc4
I0710 07:12:39.040889 17778 net.cpp:91] Creating Layer fc4
I0710 07:12:39.040892 17778 net.cpp:425] fc4 <- pool3
I0710 07:12:39.040904 17778 net.cpp:399] fc4 -> fc4
I0710 07:12:39.101140 17778 net.cpp:141] Setting up fc4
I0710 07:12:39.101192 17778 net.cpp:148] Top shape: 128 1024 (131072)
I0710 07:12:39.101198 17778 net.cpp:156] Memory required for data: 492471808
I0710 07:12:39.101213 17778 layer_factory.hpp:77] Creating layer relu4
I0710 07:12:39.101228 17778 net.cpp:91] Creating Layer relu4
I0710 07:12:39.101235 17778 net.cpp:425] relu4 <- fc4
I0710 07:12:39.101248 17778 net.cpp:386] relu4 -> fc4 (in-place)
I0710 07:12:39.101680 17778 net.cpp:141] Setting up relu4
I0710 07:12:39.101702 17778 net.cpp:148] Top shape: 128 1024 (131072)
I0710 07:12:39.101707 17778 net.cpp:156] Memory required for data: 492996096
I0710 07:12:39.101713 17778 layer_factory.hpp:77] Creating layer dropout4
I0710 07:12:39.101723 17778 net.cpp:91] Creating Layer dropout4
I0710 07:12:39.101727 17778 net.cpp:425] dropout4 <- fc4
I0710 07:12:39.101737 17778 net.cpp:386] dropout4 -> fc4 (in-place)
I0710 07:12:39.101769 17778 net.cpp:141] Setting up dropout4
I0710 07:12:39.101781 17778 net.cpp:148] Top shape: 128 1024 (131072)
I0710 07:12:39.101785 17778 net.cpp:156] Memory required for data: 493520384
I0710 07:12:39.101790 17778 layer_factory.hpp:77] Creating layer fc5
I0710 07:12:39.101809 17778 net.cpp:91] Creating Layer fc5
I0710 07:12:39.101814 17778 net.cpp:425] fc5 <- fc4
I0710 07:12:39.101824 17778 net.cpp:399] fc5 -> fc5
I0710 07:12:39.102108 17778 net.cpp:141] Setting up fc5
I0710 07:12:39.102125 17778 net.cpp:148] Top shape: 128 20 (2560)
I0710 07:12:39.102130 17778 net.cpp:156] Memory required for data: 493530624
I0710 07:12:39.102146 17778 layer_factory.hpp:77] Creating layer fc5_fc5_0_split
I0710 07:12:39.102155 17778 net.cpp:91] Creating Layer fc5_fc5_0_split
I0710 07:12:39.102160 17778 net.cpp:425] fc5_fc5_0_split <- fc5
I0710 07:12:39.102167 17778 net.cpp:399] fc5_fc5_0_split -> fc5_fc5_0_split_0
I0710 07:12:39.102175 17778 net.cpp:399] fc5_fc5_0_split -> fc5_fc5_0_split_1
I0710 07:12:39.102242 17778 net.cpp:141] Setting up fc5_fc5_0_split
I0710 07:12:39.102259 17778 net.cpp:148] Top shape: 128 20 (2560)
I0710 07:12:39.102264 17778 net.cpp:148] Top shape: 128 20 (2560)
I0710 07:12:39.102269 17778 net.cpp:156] Memory required for data: 493551104
I0710 07:12:39.102273 17778 layer_factory.hpp:77] Creating layer loss
I0710 07:12:39.102282 17778 net.cpp:91] Creating Layer loss
I0710 07:12:39.102285 17778 net.cpp:425] loss <- fc5_fc5_0_split_0
I0710 07:12:39.102291 17778 net.cpp:425] loss <- label_data_1_split_0
I0710 07:12:39.102301 17778 net.cpp:399] loss -> loss
…
