…
I0710 07:46:06.457895 17829 net.cpp:313] The NetState phase (0) differed from the phase (1) specified by a rule in layer data
I0710 07:46:06.457932 17829 net.cpp:313] The NetState phase (0) differed from the phase (1) specified by a rule in layer accuracy
I0710 07:46:06.458133 17829 net.cpp:49] Initializing net from parameters: 
name: "Model4"
state {
  phase: TRAIN
}
layer {
  name: "data"
  type: "Data"
  top: "data"
  top: "label"
  include {
    phase: TRAIN
  }
  transform_param {
    mirror: true
    mean_file: "../lmdb/mean_file.binaryproto"
  }
  data_param {
    source: "../lmdb/train_lmdb"
    batch_size: 256
    backend: LMDB
  }
}
layer {
  name: "conv1"
  type: "Convolution"
  bottom: "data"
  top: "conv1"
  param {
    lr_mult: 1
    decay_mult: 0
  }
  param {
    lr_mult: 2
    decay_mult: 0
  }
  convolution_param {
    num_output: 64
    kernel_size: 7
    stride: 2
    weight_filler {
      type: "xavier"
    }
    bias_filler {
      type: "constant"
      value: 0.1
    }
  }
}
layer {
  name: "relu1"
  type: "ReLU"
  bottom: "conv1"
  top: "conv1"
}
layer {
  name: "norm1"
  type: "LRN"
  bottom: "conv1"
  top: "norm1"
  lrn_param {
    local_size: 5
    alpha: 0.0001
    beta: 0.75
  }
}
layer {
  name: "pool1"
  type: "Pooling"
  bottom: "norm1"
  top: "pool1"
  pooling_param {
    pool: MAX
    kernel_size: 3
    stride: 2
  }
}
layer {
  name: "conv2"
  type: "Convolution"
  bottom: "pool1"
  top: "conv2"
  param {
    lr_mult: 1
    decay_mult: 0
  }
  param {
    lr_mult: 2
    decay_mult: 0
  }
  convolution_param {
    num_output: 128
    kernel_size: 5
    stride: 2
    weight_filler {
      type: "xavier"
    }
    bias_filler {
      type: "constant"
      value: 0.1
    }
  }
}
layer {
  name: "relu2"
  type: "ReLU"
  bottom: "conv2"
  top: "conv2"
}
layer {
  name: "norm2"
  type: "LRN"
  bottom: "conv2"
  top: "norm2"
  lrn_param {
    local_size: 5
    alpha: 0.0001
    beta: 0.75
  }
}
layer {
  name: "conv3"
  type: "Convolution"
  bottom: "norm2"
  top: "conv3"
  param {
    lr_mult: 1
    decay_mult: 0
  }
  param {
    lr_mult: 2
    decay_mult: 0
  }
  convolution_param {
    num_output: 256
    kernel_size: 3
    stride: 1
    weight_filler {
      type: "xavier"
    }
    bias_filler {
      type: "constant"
      value: 0.1
    }
  }
}
layer {
  name: "relu3"
  type: "ReLU"
  bottom: "conv3"
  top: "conv3"
}
layer {
  name: "pool3"
  type: "Pooling"
  bottom: "conv3"
  top: "pool3"
  pooling_param {
    pool: MAX
    kernel_size: 3
    stride: 2
  }
}
layer {
  name: "dropout3"
  type: "Dropout"
  bottom: "pool3"
  top: "pool3"
  dropout_param {
    dropout_ratio: 0.5
  }
}
layer {
  name: "fc4"
  type: "InnerProduct"
  bottom: "pool3"
  top: "fc4"
  param {
    lr_mult: 1
    decay_mult: 0
  }
  param {
    lr_mult: 2
    decay_mult: 0
  }
  inner_product_param {
    num_output: 1024
    weight_filler {
      type: "xavier"
    }
    bias_filler {
      type: "constant"
      value: 0
    }
  }
}
layer {
  name: "relu4"
  type: "ReLU"
  bottom: "fc4"
  top: "fc4"
}
layer {
  name: "dropout4"
  type: "Dropout"
  bottom: "fc4"
  top: "fc4"
  dropout_param {
    dropout_ratio: 0.5
  }
}
layer {
  name: "fc5"
  type: "InnerProduct"
  bottom: "fc4"
  top: "fc5"
  param {
    lr_mult: 1
    decay_mult: 0
  }
  param {
    lr_mult: 2
    decay_mult: 0
  }
  inner_product_param {
    num_output: 20
    weight_filler {
      type: "xavier"
    }
    bias_filler {
      type: "constant"
      value: 0
    }
  }
}
layer {
  name: "loss"
  type: "SoftmaxWithLoss"
  bottom: "fc5"
  bottom: "label"
  top: "loss"
}
layer {
  name: "accuracy"
  type: "Accuracy"
  bottom: "fc5"
  bottom: "label"
  top: "accuracy"
  include {
    phase: TRAIN
  }
}
I0710 07:46:06.458350 17829 layer_factory.hpp:77] Creating layer data
I0710 07:46:06.459050 17829 net.cpp:91] Creating Layer data
I0710 07:46:06.459079 17829 net.cpp:399] data -> data
I0710 07:46:06.459120 17829 net.cpp:399] data -> label
I0710 07:46:06.459154 17829 data_transformer.cpp:25] Loading mean file from: ../lmdb/mean_file.binaryproto
I0710 07:46:06.459800 17836 db_lmdb.cpp:35] Opened lmdb ../lmdb/train_lmdb
I0710 07:46:06.472719 17829 data_layer.cpp:41] output data size: 256,3,128,128
I0710 07:46:06.559970 17829 net.cpp:141] Setting up data
I0710 07:46:06.560032 17829 net.cpp:148] Top shape: 256 3 128 128 (12582912)
I0710 07:46:06.560041 17829 net.cpp:148] Top shape: 256 (256)
I0710 07:46:06.560046 17829 net.cpp:156] Memory required for data: 50332672
I0710 07:46:06.560066 17829 layer_factory.hpp:77] Creating layer label_data_1_split
I0710 07:46:06.560091 17829 net.cpp:91] Creating Layer label_data_1_split
I0710 07:46:06.560099 17829 net.cpp:425] label_data_1_split <- label
I0710 07:46:06.560120 17829 net.cpp:399] label_data_1_split -> label_data_1_split_0
I0710 07:46:06.560137 17829 net.cpp:399] label_data_1_split -> label_data_1_split_1
I0710 07:46:06.560214 17829 net.cpp:141] Setting up label_data_1_split
I0710 07:46:06.560231 17829 net.cpp:148] Top shape: 256 (256)
I0710 07:46:06.560237 17829 net.cpp:148] Top shape: 256 (256)
I0710 07:46:06.560242 17829 net.cpp:156] Memory required for data: 50334720
I0710 07:46:06.560247 17829 layer_factory.hpp:77] Creating layer conv1
I0710 07:46:06.560276 17829 net.cpp:91] Creating Layer conv1
I0710 07:46:06.560281 17829 net.cpp:425] conv1 <- data
I0710 07:46:06.560291 17829 net.cpp:399] conv1 -> conv1
I0710 07:46:06.720096 17829 net.cpp:141] Setting up conv1
I0710 07:46:06.720146 17829 net.cpp:148] Top shape: 256 64 61 61 (60964864)
I0710 07:46:06.720154 17829 net.cpp:156] Memory required for data: 294194176
I0710 07:46:06.720182 17829 layer_factory.hpp:77] Creating layer relu1
I0710 07:46:06.720201 17829 net.cpp:91] Creating Layer relu1
I0710 07:46:06.720207 17829 net.cpp:425] relu1 <- conv1
I0710 07:46:06.720216 17829 net.cpp:386] relu1 -> conv1 (in-place)
I0710 07:46:06.720371 17829 net.cpp:141] Setting up relu1
I0710 07:46:06.720389 17829 net.cpp:148] Top shape: 256 64 61 61 (60964864)
I0710 07:46:06.720394 17829 net.cpp:156] Memory required for data: 538053632
I0710 07:46:06.720399 17829 layer_factory.hpp:77] Creating layer norm1
I0710 07:46:06.720419 17829 net.cpp:91] Creating Layer norm1
I0710 07:46:06.720425 17829 net.cpp:425] norm1 <- conv1
I0710 07:46:06.720432 17829 net.cpp:399] norm1 -> norm1
I0710 07:46:06.720700 17829 net.cpp:141] Setting up norm1
I0710 07:46:06.720721 17829 net.cpp:148] Top shape: 256 64 61 61 (60964864)
I0710 07:46:06.720726 17829 net.cpp:156] Memory required for data: 781913088
I0710 07:46:06.720731 17829 layer_factory.hpp:77] Creating layer pool1
I0710 07:46:06.720742 17829 net.cpp:91] Creating Layer pool1
I0710 07:46:06.720747 17829 net.cpp:425] pool1 <- norm1
I0710 07:46:06.720754 17829 net.cpp:399] pool1 -> pool1
I0710 07:46:06.720808 17829 net.cpp:141] Setting up pool1
I0710 07:46:06.720825 17829 net.cpp:148] Top shape: 256 64 30 30 (14745600)
I0710 07:46:06.720830 17829 net.cpp:156] Memory required for data: 840895488
I0710 07:46:06.720835 17829 layer_factory.hpp:77] Creating layer conv2
I0710 07:46:06.720852 17829 net.cpp:91] Creating Layer conv2
I0710 07:46:06.720857 17829 net.cpp:425] conv2 <- pool1
I0710 07:46:06.720865 17829 net.cpp:399] conv2 -> conv2
I0710 07:46:06.723532 17829 net.cpp:141] Setting up conv2
I0710 07:46:06.723567 17829 net.cpp:148] Top shape: 256 128 13 13 (5537792)
I0710 07:46:06.723574 17829 net.cpp:156] Memory required for data: 863046656
I0710 07:46:06.723587 17829 layer_factory.hpp:77] Creating layer relu2
I0710 07:46:06.723595 17829 net.cpp:91] Creating Layer relu2
I0710 07:46:06.723600 17829 net.cpp:425] relu2 <- conv2
I0710 07:46:06.723608 17829 net.cpp:386] relu2 -> conv2 (in-place)
I0710 07:46:06.723764 17829 net.cpp:141] Setting up relu2
I0710 07:46:06.723783 17829 net.cpp:148] Top shape: 256 128 13 13 (5537792)
I0710 07:46:06.723788 17829 net.cpp:156] Memory required for data: 885197824
I0710 07:46:06.723793 17829 layer_factory.hpp:77] Creating layer norm2
I0710 07:46:06.723804 17829 net.cpp:91] Creating Layer norm2
I0710 07:46:06.723809 17829 net.cpp:425] norm2 <- conv2
I0710 07:46:06.723816 17829 net.cpp:399] norm2 -> norm2
I0710 07:46:06.724067 17829 net.cpp:141] Setting up norm2
I0710 07:46:06.724088 17829 net.cpp:148] Top shape: 256 128 13 13 (5537792)
I0710 07:46:06.724093 17829 net.cpp:156] Memory required for data: 907348992
I0710 07:46:06.724098 17829 layer_factory.hpp:77] Creating layer conv3
I0710 07:46:06.724110 17829 net.cpp:91] Creating Layer conv3
I0710 07:46:06.724117 17829 net.cpp:425] conv3 <- norm2
I0710 07:46:06.724124 17829 net.cpp:399] conv3 -> conv3
I0710 07:46:06.727458 17829 net.cpp:141] Setting up conv3
I0710 07:46:06.727479 17829 net.cpp:148] Top shape: 256 256 11 11 (7929856)
I0710 07:46:06.727485 17829 net.cpp:156] Memory required for data: 939068416
I0710 07:46:06.727497 17829 layer_factory.hpp:77] Creating layer relu3
I0710 07:46:06.727505 17829 net.cpp:91] Creating Layer relu3
I0710 07:46:06.727511 17829 net.cpp:425] relu3 <- conv3
I0710 07:46:06.727519 17829 net.cpp:386] relu3 -> conv3 (in-place)
I0710 07:46:06.727780 17829 net.cpp:141] Setting up relu3
I0710 07:46:06.727802 17829 net.cpp:148] Top shape: 256 256 11 11 (7929856)
I0710 07:46:06.727807 17829 net.cpp:156] Memory required for data: 970787840
I0710 07:46:06.727813 17829 layer_factory.hpp:77] Creating layer pool3
I0710 07:46:06.727820 17829 net.cpp:91] Creating Layer pool3
I0710 07:46:06.727825 17829 net.cpp:425] pool3 <- conv3
I0710 07:46:06.727834 17829 net.cpp:399] pool3 -> pool3
I0710 07:46:06.727885 17829 net.cpp:141] Setting up pool3
I0710 07:46:06.727900 17829 net.cpp:148] Top shape: 256 256 5 5 (1638400)
I0710 07:46:06.727905 17829 net.cpp:156] Memory required for data: 977341440
I0710 07:46:06.727910 17829 layer_factory.hpp:77] Creating layer dropout3
I0710 07:46:06.727924 17829 net.cpp:91] Creating Layer dropout3
I0710 07:46:06.727929 17829 net.cpp:425] dropout3 <- pool3
I0710 07:46:06.727936 17829 net.cpp:386] dropout3 -> pool3 (in-place)
I0710 07:46:06.727968 17829 net.cpp:141] Setting up dropout3
I0710 07:46:06.727984 17829 net.cpp:148] Top shape: 256 256 5 5 (1638400)
I0710 07:46:06.727989 17829 net.cpp:156] Memory required for data: 983895040
I0710 07:46:06.727994 17829 layer_factory.hpp:77] Creating layer fc4
I0710 07:46:06.728009 17829 net.cpp:91] Creating Layer fc4
I0710 07:46:06.728014 17829 net.cpp:425] fc4 <- pool3
I0710 07:46:06.728021 17829 net.cpp:399] fc4 -> fc4
I0710 07:46:06.785212 17829 net.cpp:141] Setting up fc4
I0710 07:46:06.785266 17829 net.cpp:148] Top shape: 256 1024 (262144)
I0710 07:46:06.785272 17829 net.cpp:156] Memory required for data: 984943616
I0710 07:46:06.785287 17829 layer_factory.hpp:77] Creating layer relu4
I0710 07:46:06.785302 17829 net.cpp:91] Creating Layer relu4
I0710 07:46:06.785310 17829 net.cpp:425] relu4 <- fc4
I0710 07:46:06.785323 17829 net.cpp:386] relu4 -> fc4 (in-place)
I0710 07:46:06.785656 17829 net.cpp:141] Setting up relu4
I0710 07:46:06.785678 17829 net.cpp:148] Top shape: 256 1024 (262144)
I0710 07:46:06.785683 17829 net.cpp:156] Memory required for data: 985992192
I0710 07:46:06.785688 17829 layer_factory.hpp:77] Creating layer dropout4
I0710 07:46:06.785701 17829 net.cpp:91] Creating Layer dropout4
I0710 07:46:06.785707 17829 net.cpp:425] dropout4 <- fc4
I0710 07:46:06.785717 17829 net.cpp:386] dropout4 -> fc4 (in-place)
I0710 07:46:06.785744 17829 net.cpp:141] Setting up dropout4
I0710 07:46:06.785759 17829 net.cpp:148] Top shape: 256 1024 (262144)
I0710 07:46:06.785764 17829 net.cpp:156] Memory required for data: 987040768
I0710 07:46:06.785769 17829 layer_factory.hpp:77] Creating layer fc5
I0710 07:46:06.785789 17829 net.cpp:91] Creating Layer fc5
I0710 07:46:06.785794 17829 net.cpp:425] fc5 <- fc4
I0710 07:46:06.785825 17829 net.cpp:399] fc5 -> fc5
I0710 07:46:06.786092 17829 net.cpp:141] Setting up fc5
I0710 07:46:06.786109 17829 net.cpp:148] Top shape: 256 20 (5120)
I0710 07:46:06.786113 17829 net.cpp:156] Memory required for data: 987061248
I0710 07:46:06.786126 17829 layer_factory.hpp:77] Creating layer fc5_fc5_0_split
I0710 07:46:06.786139 17829 net.cpp:91] Creating Layer fc5_fc5_0_split
I0710 07:46:06.786145 17829 net.cpp:425] fc5_fc5_0_split <- fc5
I0710 07:46:06.786151 17829 net.cpp:399] fc5_fc5_0_split -> fc5_fc5_0_split_0
I0710 07:46:06.786159 17829 net.cpp:399] fc5_fc5_0_split -> fc5_fc5_0_split_1
I0710 07:46:06.786197 17829 net.cpp:141] Setting up fc5_fc5_0_split
I0710 07:46:06.786219 17829 net.cpp:148] Top shape: 256 20 (5120)
I0710 07:46:06.786226 17829 net.cpp:148] Top shape: 256 20 (5120)
I0710 07:46:06.786231 17829 net.cpp:156] Memory required for data: 987102208
I0710 07:46:06.786236 17829 layer_factory.hpp:77] Creating layer loss
I0710 07:46:06.786247 17829 net.cpp:91] Creating Layer loss
I0710 07:46:06.786252 17829 net.cpp:425] loss <- fc5_fc5_0_split_0
I0710 07:46:06.786258 17829 net.cpp:425] loss <- label_data_1_split_0
I0710 07:46:06.786264 17829 net.cpp:399] loss -> loss
…
I0710 07:46:06.787489 17829 net.cpp:313] The NetState phase (1) differed from the phase (0) specified by a rule in layer data
I0710 07:46:06.787546 17829 net.cpp:313] The NetState phase (1) differed from the phase (0) specified by a rule in layer accuracy
I0710 07:46:06.787741 17829 net.cpp:49] Initializing net from parameters: 
name: "Model4"
state {
  phase: TEST
}
layer {
  name: "data"
  type: "Data"
  top: "data"
  top: "label"
  include {
    phase: TEST
  }
  transform_param {
    mirror: false
    mean_file: "../lmdb/mean_file.binaryproto"
  }
  data_param {
    source: "../lmdb/val_lmdb"
    batch_size: 128
    backend: LMDB
  }
}
layer {
  name: "conv1"
  type: "Convolution"
  bottom: "data"
  top: "conv1"
  param {
    lr_mult: 1
    decay_mult: 0
  }
  param {
    lr_mult: 2
    decay_mult: 0
  }
  convolution_param {
    num_output: 64
    kernel_size: 7
    stride: 2
    weight_filler {
      type: "xavier"
    }
    bias_filler {
      type: "constant"
      value: 0.1
    }
  }
}
layer {
  name: "relu1"
  type: "ReLU"
  bottom: "conv1"
  top: "conv1"
}
layer {
  name: "norm1"
  type: "LRN"
  bottom: "conv1"
  top: "norm1"
  lrn_param {
    local_size: 5
    alpha: 0.0001
    beta: 0.75
  }
}
layer {
  name: "pool1"
  type: "Pooling"
  bottom: "norm1"
  top: "pool1"
  pooling_param {
    pool: MAX
    kernel_size: 3
    stride: 2
  }
}
layer {
  name: "conv2"
  type: "Convolution"
  bottom: "pool1"
  top: "conv2"
  param {
    lr_mult: 1
    decay_mult: 0
  }
  param {
    lr_mult: 2
    decay_mult: 0
  }
  convolution_param {
    num_output: 128
    kernel_size: 5
    stride: 2
    weight_filler {
      type: "xavier"
    }
    bias_filler {
      type: "constant"
      value: 0.1
    }
  }
}
layer {
  name: "relu2"
  type: "ReLU"
  bottom: "conv2"
  top: "conv2"
}
layer {
  name: "norm2"
  type: "LRN"
  bottom: "conv2"
  top: "norm2"
  lrn_param {
    local_size: 5
    alpha: 0.0001
    beta: 0.75
  }
}
layer {
  name: "conv3"
  type: "Convolution"
  bottom: "norm2"
  top: "conv3"
  param {
    lr_mult: 1
    decay_mult: 0
  }
  param {
    lr_mult: 2
    decay_mult: 0
  }
  convolution_param {
    num_output: 256
    kernel_size: 3
    stride: 1
    weight_filler {
      type: "xavier"
    }
    bias_filler {
      type: "constant"
      value: 0.1
    }
  }
}
layer {
  name: "relu3"
  type: "ReLU"
  bottom: "conv3"
  top: "conv3"
}
layer {
  name: "pool3"
  type: "Pooling"
  bottom: "conv3"
  top: "pool3"
  pooling_param {
    pool: MAX
    kernel_size: 3
    stride: 2
  }
}
layer {
  name: "dropout3"
  type: "Dropout"
  bottom: "pool3"
  top: "pool3"
  dropout_param {
    dropout_ratio: 0.5
  }
}
layer {
  name: "fc4"
  type: "InnerProduct"
  bottom: "pool3"
  top: "fc4"
  param {
    lr_mult: 1
    decay_mult: 0
  }
  param {
    lr_mult: 2
    decay_mult: 0
  }
  inner_product_param {
    num_output: 1024
    weight_filler {
      type: "xavier"
    }
    bias_filler {
      type: "constant"
      value: 0
    }
  }
}
layer {
  name: "relu4"
  type: "ReLU"
  bottom: "fc4"
  top: "fc4"
}
layer {
  name: "dropout4"
  type: "Dropout"
  bottom: "fc4"
  top: "fc4"
  dropout_param {
    dropout_ratio: 0.5
  }
}
layer {
  name: "fc5"
  type: "InnerProduct"
  bottom: "fc4"
  top: "fc5"
  param {
    lr_mult: 1
    decay_mult: 0
  }
  param {
    lr_mult: 2
    decay_mult: 0
  }
  inner_product_param {
    num_output: 20
    weight_filler {
      type: "xavier"
    }
    bias_filler {
      type: "constant"
      value: 0
    }
  }
}
layer {
  name: "loss"
  type: "SoftmaxWithLoss"
  bottom: "fc5"
  bottom: "label"
  top: "loss"
}
layer {
  name: "accuracy"
  type: "Accuracy"
  bottom: "fc5"
  bottom: "label"
  top: "accuracy"
  include {
    phase: TEST
  }
}
I0710 07:46:06.787858 17829 layer_factory.hpp:77] Creating layer data
I0710 07:46:06.788426 17829 net.cpp:91] Creating Layer data
I0710 07:46:06.788442 17829 net.cpp:399] data -> data
I0710 07:46:06.788455 17829 net.cpp:399] data -> label
I0710 07:46:06.788465 17829 data_transformer.cpp:25] Loading mean file from: ../lmdb/mean_file.binaryproto
I0710 07:46:06.789171 17838 db_lmdb.cpp:35] Opened lmdb ../lmdb/val_lmdb
I0710 07:46:06.789351 17829 data_layer.cpp:41] output data size: 128,3,128,128
I0710 07:46:06.833585 17829 net.cpp:141] Setting up data
I0710 07:46:06.833631 17829 net.cpp:148] Top shape: 128 3 128 128 (6291456)
I0710 07:46:06.833639 17829 net.cpp:148] Top shape: 128 (128)
I0710 07:46:06.833644 17829 net.cpp:156] Memory required for data: 25166336
I0710 07:46:06.833654 17829 layer_factory.hpp:77] Creating layer label_data_1_split
I0710 07:46:06.833673 17829 net.cpp:91] Creating Layer label_data_1_split
I0710 07:46:06.833680 17829 net.cpp:425] label_data_1_split <- label
I0710 07:46:06.833690 17829 net.cpp:399] label_data_1_split -> label_data_1_split_0
I0710 07:46:06.833706 17829 net.cpp:399] label_data_1_split -> label_data_1_split_1
I0710 07:46:06.833899 17829 net.cpp:141] Setting up label_data_1_split
I0710 07:46:06.833917 17829 net.cpp:148] Top shape: 128 (128)
I0710 07:46:06.833923 17829 net.cpp:148] Top shape: 128 (128)
I0710 07:46:06.833927 17829 net.cpp:156] Memory required for data: 25167360
I0710 07:46:06.833932 17829 layer_factory.hpp:77] Creating layer conv1
I0710 07:46:06.833952 17829 net.cpp:91] Creating Layer conv1
I0710 07:46:06.833957 17829 net.cpp:425] conv1 <- data
I0710 07:46:06.833966 17829 net.cpp:399] conv1 -> conv1
I0710 07:46:06.837126 17829 net.cpp:141] Setting up conv1
I0710 07:46:06.837152 17829 net.cpp:148] Top shape: 128 64 61 61 (30482432)
I0710 07:46:06.837158 17829 net.cpp:156] Memory required for data: 147097088
I0710 07:46:06.837173 17829 layer_factory.hpp:77] Creating layer relu1
I0710 07:46:06.837183 17829 net.cpp:91] Creating Layer relu1
I0710 07:46:06.837188 17829 net.cpp:425] relu1 <- conv1
I0710 07:46:06.837195 17829 net.cpp:386] relu1 -> conv1 (in-place)
I0710 07:46:06.837343 17829 net.cpp:141] Setting up relu1
I0710 07:46:06.837362 17829 net.cpp:148] Top shape: 128 64 61 61 (30482432)
I0710 07:46:06.837366 17829 net.cpp:156] Memory required for data: 269026816
I0710 07:46:06.837371 17829 layer_factory.hpp:77] Creating layer norm1
I0710 07:46:06.837388 17829 net.cpp:91] Creating Layer norm1
I0710 07:46:06.837393 17829 net.cpp:425] norm1 <- conv1
I0710 07:46:06.837401 17829 net.cpp:399] norm1 -> norm1
I0710 07:46:06.837677 17829 net.cpp:141] Setting up norm1
I0710 07:46:06.837697 17829 net.cpp:148] Top shape: 128 64 61 61 (30482432)
I0710 07:46:06.837702 17829 net.cpp:156] Memory required for data: 390956544
I0710 07:46:06.837707 17829 layer_factory.hpp:77] Creating layer pool1
I0710 07:46:06.837718 17829 net.cpp:91] Creating Layer pool1
I0710 07:46:06.837723 17829 net.cpp:425] pool1 <- norm1
I0710 07:46:06.837729 17829 net.cpp:399] pool1 -> pool1
I0710 07:46:06.837774 17829 net.cpp:141] Setting up pool1
I0710 07:46:06.837790 17829 net.cpp:148] Top shape: 128 64 30 30 (7372800)
I0710 07:46:06.837795 17829 net.cpp:156] Memory required for data: 420447744
I0710 07:46:06.837800 17829 layer_factory.hpp:77] Creating layer conv2
I0710 07:46:06.837812 17829 net.cpp:91] Creating Layer conv2
I0710 07:46:06.837817 17829 net.cpp:425] conv2 <- pool1
I0710 07:46:06.837831 17829 net.cpp:399] conv2 -> conv2
I0710 07:46:06.840680 17829 net.cpp:141] Setting up conv2
I0710 07:46:06.840703 17829 net.cpp:148] Top shape: 128 128 13 13 (2768896)
I0710 07:46:06.840708 17829 net.cpp:156] Memory required for data: 431523328
I0710 07:46:06.840720 17829 layer_factory.hpp:77] Creating layer relu2
I0710 07:46:06.840729 17829 net.cpp:91] Creating Layer relu2
I0710 07:46:06.840734 17829 net.cpp:425] relu2 <- conv2
I0710 07:46:06.840742 17829 net.cpp:386] relu2 -> conv2 (in-place)
I0710 07:46:06.840894 17829 net.cpp:141] Setting up relu2
I0710 07:46:06.840912 17829 net.cpp:148] Top shape: 128 128 13 13 (2768896)
I0710 07:46:06.840917 17829 net.cpp:156] Memory required for data: 442598912
I0710 07:46:06.840922 17829 layer_factory.hpp:77] Creating layer norm2
I0710 07:46:06.840932 17829 net.cpp:91] Creating Layer norm2
I0710 07:46:06.840937 17829 net.cpp:425] norm2 <- conv2
I0710 07:46:06.840945 17829 net.cpp:399] norm2 -> norm2
I0710 07:46:06.841306 17829 net.cpp:141] Setting up norm2
I0710 07:46:06.841327 17829 net.cpp:148] Top shape: 128 128 13 13 (2768896)
I0710 07:46:06.841356 17829 net.cpp:156] Memory required for data: 453674496
I0710 07:46:06.841361 17829 layer_factory.hpp:77] Creating layer conv3
I0710 07:46:06.841373 17829 net.cpp:91] Creating Layer conv3
I0710 07:46:06.841378 17829 net.cpp:425] conv3 <- norm2
I0710 07:46:06.841388 17829 net.cpp:399] conv3 -> conv3
I0710 07:46:06.845022 17829 net.cpp:141] Setting up conv3
I0710 07:46:06.845046 17829 net.cpp:148] Top shape: 128 256 11 11 (3964928)
I0710 07:46:06.845052 17829 net.cpp:156] Memory required for data: 469534208
I0710 07:46:06.845063 17829 layer_factory.hpp:77] Creating layer relu3
I0710 07:46:06.845075 17829 net.cpp:91] Creating Layer relu3
I0710 07:46:06.845082 17829 net.cpp:425] relu3 <- conv3
I0710 07:46:06.845088 17829 net.cpp:386] relu3 -> conv3 (in-place)
I0710 07:46:06.845249 17829 net.cpp:141] Setting up relu3
I0710 07:46:06.845268 17829 net.cpp:148] Top shape: 128 256 11 11 (3964928)
I0710 07:46:06.845273 17829 net.cpp:156] Memory required for data: 485393920
I0710 07:46:06.845278 17829 layer_factory.hpp:77] Creating layer pool3
I0710 07:46:06.845288 17829 net.cpp:91] Creating Layer pool3
I0710 07:46:06.845291 17829 net.cpp:425] pool3 <- conv3
I0710 07:46:06.845301 17829 net.cpp:399] pool3 -> pool3
I0710 07:46:06.845353 17829 net.cpp:141] Setting up pool3
I0710 07:46:06.845372 17829 net.cpp:148] Top shape: 128 256 5 5 (819200)
I0710 07:46:06.845378 17829 net.cpp:156] Memory required for data: 488670720
I0710 07:46:06.845382 17829 layer_factory.hpp:77] Creating layer dropout3
I0710 07:46:06.845391 17829 net.cpp:91] Creating Layer dropout3
I0710 07:46:06.845396 17829 net.cpp:425] dropout3 <- pool3
I0710 07:46:06.845402 17829 net.cpp:386] dropout3 -> pool3 (in-place)
I0710 07:46:06.845435 17829 net.cpp:141] Setting up dropout3
I0710 07:46:06.845451 17829 net.cpp:148] Top shape: 128 256 5 5 (819200)
I0710 07:46:06.845456 17829 net.cpp:156] Memory required for data: 491947520
I0710 07:46:06.845460 17829 layer_factory.hpp:77] Creating layer fc4
I0710 07:46:06.845473 17829 net.cpp:91] Creating Layer fc4
I0710 07:46:06.845477 17829 net.cpp:425] fc4 <- pool3
I0710 07:46:06.845485 17829 net.cpp:399] fc4 -> fc4
I0710 07:46:06.902029 17829 net.cpp:141] Setting up fc4
I0710 07:46:06.902078 17829 net.cpp:148] Top shape: 128 1024 (131072)
I0710 07:46:06.902084 17829 net.cpp:156] Memory required for data: 492471808
I0710 07:46:06.902101 17829 layer_factory.hpp:77] Creating layer relu4
I0710 07:46:06.902114 17829 net.cpp:91] Creating Layer relu4
I0710 07:46:06.902122 17829 net.cpp:425] relu4 <- fc4
I0710 07:46:06.902132 17829 net.cpp:386] relu4 -> fc4 (in-place)
I0710 07:46:06.902557 17829 net.cpp:141] Setting up relu4
I0710 07:46:06.902578 17829 net.cpp:148] Top shape: 128 1024 (131072)
I0710 07:46:06.902583 17829 net.cpp:156] Memory required for data: 492996096
I0710 07:46:06.902590 17829 layer_factory.hpp:77] Creating layer dropout4
I0710 07:46:06.902601 17829 net.cpp:91] Creating Layer dropout4
I0710 07:46:06.902611 17829 net.cpp:425] dropout4 <- fc4
I0710 07:46:06.902617 17829 net.cpp:386] dropout4 -> fc4 (in-place)
I0710 07:46:06.902650 17829 net.cpp:141] Setting up dropout4
I0710 07:46:06.902667 17829 net.cpp:148] Top shape: 128 1024 (131072)
I0710 07:46:06.902672 17829 net.cpp:156] Memory required for data: 493520384
I0710 07:46:06.902675 17829 layer_factory.hpp:77] Creating layer fc5
I0710 07:46:06.902691 17829 net.cpp:91] Creating Layer fc5
I0710 07:46:06.902695 17829 net.cpp:425] fc5 <- fc4
I0710 07:46:06.902706 17829 net.cpp:399] fc5 -> fc5
I0710 07:46:06.902983 17829 net.cpp:141] Setting up fc5
I0710 07:46:06.903002 17829 net.cpp:148] Top shape: 128 20 (2560)
I0710 07:46:06.903007 17829 net.cpp:156] Memory required for data: 493530624
I0710 07:46:06.903019 17829 layer_factory.hpp:77] Creating layer fc5_fc5_0_split
I0710 07:46:06.903029 17829 net.cpp:91] Creating Layer fc5_fc5_0_split
I0710 07:46:06.903033 17829 net.cpp:425] fc5_fc5_0_split <- fc5
I0710 07:46:06.903043 17829 net.cpp:399] fc5_fc5_0_split -> fc5_fc5_0_split_0
I0710 07:46:06.903051 17829 net.cpp:399] fc5_fc5_0_split -> fc5_fc5_0_split_1
I0710 07:46:06.903125 17829 net.cpp:141] Setting up fc5_fc5_0_split
I0710 07:46:06.903141 17829 net.cpp:148] Top shape: 128 20 (2560)
I0710 07:46:06.903147 17829 net.cpp:148] Top shape: 128 20 (2560)
I0710 07:46:06.903151 17829 net.cpp:156] Memory required for data: 493551104
I0710 07:46:06.903156 17829 layer_factory.hpp:77] Creating layer loss
I0710 07:46:06.903167 17829 net.cpp:91] Creating Layer loss
I0710 07:46:06.903172 17829 net.cpp:425] loss <- fc5_fc5_0_split_0
I0710 07:46:06.903177 17829 net.cpp:425] loss <- label_data_1_split_0
I0710 07:46:06.903184 17829 net.cpp:399] loss -> loss
…
