…
I0711 07:16:12.960523 16510 net.cpp:313] The NetState phase (0) differed from the phase (1) specified by a rule in layer data
I0711 07:16:12.960563 16510 net.cpp:313] The NetState phase (0) differed from the phase (1) specified by a rule in layer accuracy_test
I0711 07:16:12.960789 16510 net.cpp:49] Initializing net from parameters: 
name: "Model3"
state {
  phase: TRAIN
}
layer {
  name: "data"
  type: "Data"
  top: "data"
  top: "label"
  include {
    phase: TRAIN
  }
  transform_param {
    mirror: true
    mean_file: "../lmdb/mean_file.binaryproto"
  }
  data_param {
    source: "../lmdb/train_lmdb"
    batch_size: 256
    backend: LMDB
  }
}
layer {
  name: "conv1"
  type: "Convolution"
  bottom: "data"
  top: "conv1"
  param {
    lr_mult: 1
    decay_mult: 1
  }
  param {
    lr_mult: 2
    decay_mult: 0
  }
  convolution_param {
    num_output: 96
    kernel_size: 11
    stride: 4
    weight_filler {
      type: "gaussian"
      std: 0.01
    }
    bias_filler {
      type: "constant"
      value: 0
    }
  }
}
layer {
  name: "relu1"
  type: "ReLU"
  bottom: "conv1"
  top: "conv1"
}
layer {
  name: "norm1"
  type: "LRN"
  bottom: "conv1"
  top: "norm1"
  lrn_param {
    local_size: 5
    alpha: 0.0001
    beta: 0.75
  }
}
layer {
  name: "pool1"
  type: "Pooling"
  bottom: "norm1"
  top: "pool1"
  pooling_param {
    pool: MAX
    kernel_size: 3
    stride: 2
  }
}
layer {
  name: "conv2"
  type: "Convolution"
  bottom: "pool1"
  top: "conv2"
  param {
    lr_mult: 1
    decay_mult: 1
  }
  param {
    lr_mult: 2
    decay_mult: 0
  }
  convolution_param {
    num_output: 256
    pad: 2
    kernel_size: 5
    group: 2
    weight_filler {
      type: "gaussian"
      std: 0.01
    }
    bias_filler {
      type: "constant"
      value: 0.1
    }
  }
}
layer {
  name: "relu2"
  type: "ReLU"
  bottom: "conv2"
  top: "conv2"
}
layer {
  name: "norm2"
  type: "LRN"
  bottom: "conv2"
  top: "norm2"
  lrn_param {
    local_size: 5
    alpha: 0.0001
    beta: 0.75
  }
}
layer {
  name: "pool2"
  type: "Pooling"
  bottom: "norm2"
  top: "pool2"
  pooling_param {
    pool: MAX
    kernel_size: 3
    stride: 2
  }
}
layer {
  name: "conv3"
  type: "Convolution"
  bottom: "pool2"
  top: "conv3"
  param {
    lr_mult: 1
    decay_mult: 1
  }
  param {
    lr_mult: 2
    decay_mult: 0
  }
  convolution_param {
    num_output: 384
    pad: 1
    kernel_size: 3
    weight_filler {
      type: "gaussian"
      std: 0.01
    }
    bias_filler {
      type: "constant"
      value: 0
    }
  }
}
layer {
  name: "relu3"
  type: "ReLU"
  bottom: "conv3"
  top: "conv3"
}
layer {
  name: "conv4"
  type: "Convolution"
  bottom: "conv3"
  top: "conv4"
  param {
    lr_mult: 1
    decay_mult: 1
  }
  param {
    lr_mult: 2
    decay_mult: 0
  }
  convolution_param {
    num_output: 384
    pad: 1
    kernel_size: 3
    group: 2
    weight_filler {
      type: "gaussian"
      std: 0.01
    }
    bias_filler {
      type: "constant"
      value: 0.1
    }
  }
}
layer {
  name: "relu4"
  type: "ReLU"
  bottom: "conv4"
  top: "conv4"
}
layer {
  name: "conv5"
  type: "Convolution"
  bottom: "conv4"
  top: "conv5"
  param {
    lr_mult: 1
    decay_mult: 1
  }
  param {
    lr_mult: 2
    decay_mult: 0
  }
  convolution_param {
    num_output: 256
    pad: 1
    kernel_size: 3
    group: 2
    weight_filler {
      type: "gaussian"
      std: 0.01
    }
    bias_filler {
      type: "constant"
      value: 0.1
    }
  }
}
layer {
  name: "relu5"
  type: "ReLU"
  bottom: "conv5"
  top: "conv5"
}
layer {
  name: "pool5"
  type: "Pooling"
  bottom: "conv5"
  top: "pool5"
  pooling_param {
    pool: MAX
    kernel_size: 3
    stride: 2
  }
}
layer {
  name: "model3_fc6"
  type: "InnerProduct"
  bottom: "pool5"
  top: "model3_fc6"
  param {
    lr_mult: 1
    decay_mult: 1
  }
  param {
    lr_mult: 2
    decay_mult: 0
  }
  inner_product_param {
    num_output: 4096
    weight_filler {
      type: "gaussian"
      std: 0.005
    }
    bias_filler {
      type: "constant"
      value: 0.1
    }
  }
}
layer {
  name: "relu6"
  type: "ReLU"
  bottom: "model3_fc6"
  top: "model3_fc6"
}
layer {
  name: "drop6"
  type: "Dropout"
  bottom: "model3_fc6"
  top: "model3_fc6"
  dropout_param {
    dropout_ratio: 0.5
  }
}
layer {
  name: "model3_fc7"
  type: "InnerProduct"
  bottom: "model3_fc6"
  top: "model3_fc7"
  param {
    lr_mult: 1
    decay_mult: 1
  }
  param {
    lr_mult: 2
    decay_mult: 0
  }
  inner_product_param {
    num_output: 4096
    weight_filler {
      type: "gaussian"
      std: 0.005
    }
    bias_filler {
      type: "constant"
      value: 0.1
    }
  }
}
layer {
  name: "relu7"
  type: "ReLU"
  bottom: "model3_fc7"
  top: "model3_fc7"
}
layer {
  name: "drop7"
  type: "Dropout"
  bottom: "model3_fc7"
  top: "model3_fc7"
  dropout_param {
    dropout_ratio: 0.5
  }
}
layer {
  name: "model3_fc8"
  type: "InnerProduct"
  bottom: "model3_fc7"
  top: "model3_fc8"
  param {
    lr_mult: 1
    decay_mult: 1
  }
  param {
    lr_mult: 2
    decay_mult: 0
  }
  inner_product_param {
    num_output: 20
    weight_filler {
      type: "gaussian"
      std: 0.01
    }
    bias_filler {
      type: "constant"
      value: 0
    }
  }
}
layer {
  name: "accuracy_train"
  type: "Accuracy"
  bottom: "model3_fc8"
  bottom: "label"
  top: "accuracy_train"
  include {
    phase: TRAIN
  }
}
layer {
  name: "loss"
  type: "SoftmaxWithLoss"
  bottom: "model3_fc8"
  bottom: "label"
  top: "loss"
}
I0711 07:16:12.960990 16510 layer_factory.hpp:77] Creating layer data
I0711 07:16:12.961983 16510 net.cpp:91] Creating Layer data
I0711 07:16:12.962008 16510 net.cpp:399] data -> data
I0711 07:16:12.962071 16510 net.cpp:399] data -> label
I0711 07:16:12.962101 16510 data_transformer.cpp:25] Loading mean file from: ../lmdb/mean_file.binaryproto
I0711 07:16:12.962725 16514 db_lmdb.cpp:35] Opened lmdb ../lmdb/train_lmdb
I0711 07:16:13.276613 16510 data_layer.cpp:41] output data size: 256,3,128,128
I0711 07:16:13.442227 16510 net.cpp:141] Setting up data
I0711 07:16:13.442291 16510 net.cpp:148] Top shape: 256 3 128 128 (12582912)
I0711 07:16:13.442301 16510 net.cpp:148] Top shape: 256 (256)
I0711 07:16:13.442306 16510 net.cpp:156] Memory required for data: 50332672
I0711 07:16:13.442322 16510 layer_factory.hpp:77] Creating layer label_data_1_split
I0711 07:16:13.442354 16510 net.cpp:91] Creating Layer label_data_1_split
I0711 07:16:13.442363 16510 net.cpp:425] label_data_1_split <- label
I0711 07:16:13.442384 16510 net.cpp:399] label_data_1_split -> label_data_1_split_0
I0711 07:16:13.442406 16510 net.cpp:399] label_data_1_split -> label_data_1_split_1
I0711 07:16:13.442454 16510 net.cpp:141] Setting up label_data_1_split
I0711 07:16:13.442473 16510 net.cpp:148] Top shape: 256 (256)
I0711 07:16:13.442479 16510 net.cpp:148] Top shape: 256 (256)
I0711 07:16:13.442493 16510 net.cpp:156] Memory required for data: 50334720
I0711 07:16:13.442503 16510 layer_factory.hpp:77] Creating layer conv1
I0711 07:16:13.442544 16510 net.cpp:91] Creating Layer conv1
I0711 07:16:13.442556 16510 net.cpp:425] conv1 <- data
I0711 07:16:13.442574 16510 net.cpp:399] conv1 -> conv1
I0711 07:16:14.495820 16510 net.cpp:141] Setting up conv1
I0711 07:16:14.495872 16510 net.cpp:148] Top shape: 256 96 30 30 (22118400)
I0711 07:16:14.495883 16510 net.cpp:156] Memory required for data: 138808320
I0711 07:16:14.495925 16510 layer_factory.hpp:77] Creating layer relu1
I0711 07:16:14.495959 16510 net.cpp:91] Creating Layer relu1
I0711 07:16:14.495967 16510 net.cpp:425] relu1 <- conv1
I0711 07:16:14.495977 16510 net.cpp:386] relu1 -> conv1 (in-place)
I0711 07:16:14.517757 16510 net.cpp:141] Setting up relu1
I0711 07:16:14.517792 16510 net.cpp:148] Top shape: 256 96 30 30 (22118400)
I0711 07:16:14.517799 16510 net.cpp:156] Memory required for data: 227281920
I0711 07:16:14.517804 16510 layer_factory.hpp:77] Creating layer norm1
I0711 07:16:14.517823 16510 net.cpp:91] Creating Layer norm1
I0711 07:16:14.517832 16510 net.cpp:425] norm1 <- conv1
I0711 07:16:14.517839 16510 net.cpp:399] norm1 -> norm1
I0711 07:16:14.533085 16510 net.cpp:141] Setting up norm1
I0711 07:16:14.533107 16510 net.cpp:148] Top shape: 256 96 30 30 (22118400)
I0711 07:16:14.533113 16510 net.cpp:156] Memory required for data: 315755520
I0711 07:16:14.533118 16510 layer_factory.hpp:77] Creating layer pool1
I0711 07:16:14.533128 16510 net.cpp:91] Creating Layer pool1
I0711 07:16:14.533133 16510 net.cpp:425] pool1 <- norm1
I0711 07:16:14.533140 16510 net.cpp:399] pool1 -> pool1
I0711 07:16:14.533193 16510 net.cpp:141] Setting up pool1
I0711 07:16:14.533210 16510 net.cpp:148] Top shape: 256 96 15 15 (5529600)
I0711 07:16:14.533215 16510 net.cpp:156] Memory required for data: 337873920
I0711 07:16:14.533221 16510 layer_factory.hpp:77] Creating layer conv2
I0711 07:16:14.533237 16510 net.cpp:91] Creating Layer conv2
I0711 07:16:14.533252 16510 net.cpp:425] conv2 <- pool1
I0711 07:16:14.533262 16510 net.cpp:399] conv2 -> conv2
I0711 07:16:14.657160 16510 net.cpp:141] Setting up conv2
I0711 07:16:14.657186 16510 net.cpp:148] Top shape: 256 256 15 15 (14745600)
I0711 07:16:14.657191 16510 net.cpp:156] Memory required for data: 396856320
I0711 07:16:14.657204 16510 layer_factory.hpp:77] Creating layer relu2
I0711 07:16:14.657215 16510 net.cpp:91] Creating Layer relu2
I0711 07:16:14.657227 16510 net.cpp:425] relu2 <- conv2
I0711 07:16:14.657235 16510 net.cpp:386] relu2 -> conv2 (in-place)
I0711 07:16:14.663715 16510 net.cpp:141] Setting up relu2
I0711 07:16:14.663738 16510 net.cpp:148] Top shape: 256 256 15 15 (14745600)
I0711 07:16:14.663743 16510 net.cpp:156] Memory required for data: 455838720
I0711 07:16:14.663749 16510 layer_factory.hpp:77] Creating layer norm2
I0711 07:16:14.663759 16510 net.cpp:91] Creating Layer norm2
I0711 07:16:14.663764 16510 net.cpp:425] norm2 <- conv2
I0711 07:16:14.663774 16510 net.cpp:399] norm2 -> norm2
I0711 07:16:14.665411 16510 net.cpp:141] Setting up norm2
I0711 07:16:14.665431 16510 net.cpp:148] Top shape: 256 256 15 15 (14745600)
I0711 07:16:14.665436 16510 net.cpp:156] Memory required for data: 514821120
I0711 07:16:14.665441 16510 layer_factory.hpp:77] Creating layer pool2
I0711 07:16:14.665448 16510 net.cpp:91] Creating Layer pool2
I0711 07:16:14.665453 16510 net.cpp:425] pool2 <- norm2
I0711 07:16:14.665462 16510 net.cpp:399] pool2 -> pool2
I0711 07:16:14.665505 16510 net.cpp:141] Setting up pool2
I0711 07:16:14.665520 16510 net.cpp:148] Top shape: 256 256 7 7 (3211264)
I0711 07:16:14.665526 16510 net.cpp:156] Memory required for data: 527666176
I0711 07:16:14.665530 16510 layer_factory.hpp:77] Creating layer conv3
I0711 07:16:14.665549 16510 net.cpp:91] Creating Layer conv3
I0711 07:16:14.665556 16510 net.cpp:425] conv3 <- pool2
I0711 07:16:14.665565 16510 net.cpp:399] conv3 -> conv3
I0711 07:16:14.741647 16510 net.cpp:141] Setting up conv3
I0711 07:16:14.741669 16510 net.cpp:148] Top shape: 256 384 7 7 (4816896)
I0711 07:16:14.741675 16510 net.cpp:156] Memory required for data: 546933760
I0711 07:16:14.741688 16510 layer_factory.hpp:77] Creating layer relu3
I0711 07:16:14.741699 16510 net.cpp:91] Creating Layer relu3
I0711 07:16:14.741708 16510 net.cpp:425] relu3 <- conv3
I0711 07:16:14.741715 16510 net.cpp:386] relu3 -> conv3 (in-place)
I0711 07:16:14.766423 16510 net.cpp:141] Setting up relu3
I0711 07:16:14.766446 16510 net.cpp:148] Top shape: 256 384 7 7 (4816896)
I0711 07:16:14.766453 16510 net.cpp:156] Memory required for data: 566201344
I0711 07:16:14.766458 16510 layer_factory.hpp:77] Creating layer conv4
I0711 07:16:14.766471 16510 net.cpp:91] Creating Layer conv4
I0711 07:16:14.766476 16510 net.cpp:425] conv4 <- conv3
I0711 07:16:14.766487 16510 net.cpp:399] conv4 -> conv4
I0711 07:16:14.828606 16510 net.cpp:141] Setting up conv4
I0711 07:16:14.828644 16510 net.cpp:148] Top shape: 256 384 7 7 (4816896)
I0711 07:16:14.828650 16510 net.cpp:156] Memory required for data: 585468928
I0711 07:16:14.828660 16510 layer_factory.hpp:77] Creating layer relu4
I0711 07:16:14.828667 16510 net.cpp:91] Creating Layer relu4
I0711 07:16:14.828672 16510 net.cpp:425] relu4 <- conv4
I0711 07:16:14.828680 16510 net.cpp:386] relu4 -> conv4 (in-place)
I0711 07:16:14.829793 16510 net.cpp:141] Setting up relu4
I0711 07:16:14.829814 16510 net.cpp:148] Top shape: 256 384 7 7 (4816896)
I0711 07:16:14.829820 16510 net.cpp:156] Memory required for data: 604736512
I0711 07:16:14.829825 16510 layer_factory.hpp:77] Creating layer conv5
I0711 07:16:14.829841 16510 net.cpp:91] Creating Layer conv5
I0711 07:16:14.829857 16510 net.cpp:425] conv5 <- conv4
I0711 07:16:14.829866 16510 net.cpp:399] conv5 -> conv5
I0711 07:16:14.871505 16510 net.cpp:141] Setting up conv5
I0711 07:16:14.871551 16510 net.cpp:148] Top shape: 256 256 7 7 (3211264)
I0711 07:16:14.871557 16510 net.cpp:156] Memory required for data: 617581568
I0711 07:16:14.871578 16510 layer_factory.hpp:77] Creating layer relu5
I0711 07:16:14.871597 16510 net.cpp:91] Creating Layer relu5
I0711 07:16:14.871603 16510 net.cpp:425] relu5 <- conv5
I0711 07:16:14.871613 16510 net.cpp:386] relu5 -> conv5 (in-place)
I0711 07:16:14.893363 16510 net.cpp:141] Setting up relu5
I0711 07:16:14.893395 16510 net.cpp:148] Top shape: 256 256 7 7 (3211264)
I0711 07:16:14.893401 16510 net.cpp:156] Memory required for data: 630426624
I0711 07:16:14.893409 16510 layer_factory.hpp:77] Creating layer pool5
I0711 07:16:14.893429 16510 net.cpp:91] Creating Layer pool5
I0711 07:16:14.893435 16510 net.cpp:425] pool5 <- conv5
I0711 07:16:14.893445 16510 net.cpp:399] pool5 -> pool5
I0711 07:16:14.893517 16510 net.cpp:141] Setting up pool5
I0711 07:16:14.893533 16510 net.cpp:148] Top shape: 256 256 3 3 (589824)
I0711 07:16:14.893538 16510 net.cpp:156] Memory required for data: 632785920
I0711 07:16:14.893543 16510 layer_factory.hpp:77] Creating layer model3_fc6
I0711 07:16:14.893558 16510 net.cpp:91] Creating Layer model3_fc6
I0711 07:16:14.893563 16510 net.cpp:425] model3_fc6 <- pool5
I0711 07:16:14.893574 16510 net.cpp:399] model3_fc6 -> model3_fc6
I0711 07:16:15.207684 16510 net.cpp:141] Setting up model3_fc6
I0711 07:16:15.207732 16510 net.cpp:148] Top shape: 256 4096 (1048576)
I0711 07:16:15.207739 16510 net.cpp:156] Memory required for data: 636980224
I0711 07:16:15.207753 16510 layer_factory.hpp:77] Creating layer relu6
I0711 07:16:15.207767 16510 net.cpp:91] Creating Layer relu6
I0711 07:16:15.207774 16510 net.cpp:425] relu6 <- model3_fc6
I0711 07:16:15.207787 16510 net.cpp:386] relu6 -> model3_fc6 (in-place)
I0711 07:16:15.208122 16510 net.cpp:141] Setting up relu6
I0711 07:16:15.208142 16510 net.cpp:148] Top shape: 256 4096 (1048576)
I0711 07:16:15.208148 16510 net.cpp:156] Memory required for data: 641174528
I0711 07:16:15.208153 16510 layer_factory.hpp:77] Creating layer drop6
I0711 07:16:15.208168 16510 net.cpp:91] Creating Layer drop6
I0711 07:16:15.208173 16510 net.cpp:425] drop6 <- model3_fc6
I0711 07:16:15.208183 16510 net.cpp:386] drop6 -> model3_fc6 (in-place)
I0711 07:16:15.208220 16510 net.cpp:141] Setting up drop6
I0711 07:16:15.208235 16510 net.cpp:148] Top shape: 256 4096 (1048576)
I0711 07:16:15.208240 16510 net.cpp:156] Memory required for data: 645368832
I0711 07:16:15.208245 16510 layer_factory.hpp:77] Creating layer model3_fc7
I0711 07:16:15.208256 16510 net.cpp:91] Creating Layer model3_fc7
I0711 07:16:15.208259 16510 net.cpp:425] model3_fc7 <- model3_fc6
I0711 07:16:15.208273 16510 net.cpp:399] model3_fc7 -> model3_fc7
I0711 07:16:15.768637 16510 net.cpp:141] Setting up model3_fc7
I0711 07:16:15.768688 16510 net.cpp:148] Top shape: 256 4096 (1048576)
I0711 07:16:15.768695 16510 net.cpp:156] Memory required for data: 649563136
I0711 07:16:15.768710 16510 layer_factory.hpp:77] Creating layer relu7
I0711 07:16:15.768725 16510 net.cpp:91] Creating Layer relu7
I0711 07:16:15.768731 16510 net.cpp:425] relu7 <- model3_fc7
I0711 07:16:15.768765 16510 net.cpp:386] relu7 -> model3_fc7 (in-place)
I0711 07:16:15.768998 16510 net.cpp:141] Setting up relu7
I0711 07:16:15.769017 16510 net.cpp:148] Top shape: 256 4096 (1048576)
I0711 07:16:15.769023 16510 net.cpp:156] Memory required for data: 653757440
I0711 07:16:15.769028 16510 layer_factory.hpp:77] Creating layer drop7
I0711 07:16:15.769039 16510 net.cpp:91] Creating Layer drop7
I0711 07:16:15.769044 16510 net.cpp:425] drop7 <- model3_fc7
I0711 07:16:15.769052 16510 net.cpp:386] drop7 -> model3_fc7 (in-place)
I0711 07:16:15.769080 16510 net.cpp:141] Setting up drop7
I0711 07:16:15.769095 16510 net.cpp:148] Top shape: 256 4096 (1048576)
I0711 07:16:15.769100 16510 net.cpp:156] Memory required for data: 657951744
I0711 07:16:15.769104 16510 layer_factory.hpp:77] Creating layer model3_fc8
I0711 07:16:15.769120 16510 net.cpp:91] Creating Layer model3_fc8
I0711 07:16:15.769125 16510 net.cpp:425] model3_fc8 <- model3_fc7
I0711 07:16:15.769135 16510 net.cpp:399] model3_fc8 -> model3_fc8
I0711 07:16:15.772418 16510 net.cpp:141] Setting up model3_fc8
I0711 07:16:15.772439 16510 net.cpp:148] Top shape: 256 20 (5120)
I0711 07:16:15.772444 16510 net.cpp:156] Memory required for data: 657972224
I0711 07:16:15.772454 16510 layer_factory.hpp:77] Creating layer model3_fc8_model3_fc8_0_split
I0711 07:16:15.772462 16510 net.cpp:91] Creating Layer model3_fc8_model3_fc8_0_split
I0711 07:16:15.772467 16510 net.cpp:425] model3_fc8_model3_fc8_0_split <- model3_fc8
I0711 07:16:15.772477 16510 net.cpp:399] model3_fc8_model3_fc8_0_split -> model3_fc8_model3_fc8_0_split_0
I0711 07:16:15.772487 16510 net.cpp:399] model3_fc8_model3_fc8_0_split -> model3_fc8_model3_fc8_0_split_1
I0711 07:16:15.772526 16510 net.cpp:141] Setting up model3_fc8_model3_fc8_0_split
I0711 07:16:15.772542 16510 net.cpp:148] Top shape: 256 20 (5120)
I0711 07:16:15.772548 16510 net.cpp:148] Top shape: 256 20 (5120)
I0711 07:16:15.772552 16510 net.cpp:156] Memory required for data: 658013184
I0711 07:16:15.772557 16510 layer_factory.hpp:77] Creating layer accuracy_train
I0711 07:16:15.772572 16510 net.cpp:91] Creating Layer accuracy_train
I0711 07:16:15.772578 16510 net.cpp:425] accuracy_train <- model3_fc8_model3_fc8_0_split_0
I0711 07:16:15.772583 16510 net.cpp:425] accuracy_train <- label_data_1_split_0
…
I0711 07:16:15.810462 16510 net.cpp:313] The NetState phase (1) differed from the phase (0) specified by a rule in layer data
I0711 07:16:15.810494 16510 net.cpp:313] The NetState phase (1) differed from the phase (0) specified by a rule in layer accuracy_train
I0711 07:16:15.810715 16510 net.cpp:49] Initializing net from parameters: 
name: "Model3"
state {
  phase: TEST
}
layer {
  name: "data"
  type: "Data"
  top: "data"
  top: "label"
  include {
    phase: TEST
  }
  transform_param {
    mirror: false
    mean_file: "../lmdb/mean_file.binaryproto"
  }
  data_param {
    source: "../lmdb/val_lmdb"
    batch_size: 50
    backend: LMDB
  }
}
layer {
  name: "conv1"
  type: "Convolution"
  bottom: "data"
  top: "conv1"
  param {
    lr_mult: 1
    decay_mult: 1
  }
  param {
    lr_mult: 2
    decay_mult: 0
  }
  convolution_param {
    num_output: 96
    kernel_size: 11
    stride: 4
    weight_filler {
      type: "gaussian"
      std: 0.01
    }
    bias_filler {
      type: "constant"
      value: 0
    }
  }
}
layer {
  name: "relu1"
  type: "ReLU"
  bottom: "conv1"
  top: "conv1"
}
layer {
  name: "norm1"
  type: "LRN"
  bottom: "conv1"
  top: "norm1"
  lrn_param {
    local_size: 5
    alpha: 0.0001
    beta: 0.75
  }
}
layer {
  name: "pool1"
  type: "Pooling"
  bottom: "norm1"
  top: "pool1"
  pooling_param {
    pool: MAX
    kernel_size: 3
    stride: 2
  }
}
layer {
  name: "conv2"
  type: "Convolution"
  bottom: "pool1"
  top: "conv2"
  param {
    lr_mult: 1
    decay_mult: 1
  }
  param {
    lr_mult: 2
    decay_mult: 0
  }
  convolution_param {
    num_output: 256
    pad: 2
    kernel_size: 5
    group: 2
    weight_filler {
      type: "gaussian"
      std: 0.01
    }
    bias_filler {
      type: "constant"
      value: 0.1
    }
  }
}
layer {
  name: "relu2"
  type: "ReLU"
  bottom: "conv2"
  top: "conv2"
}
layer {
  name: "norm2"
  type: "LRN"
  bottom: "conv2"
  top: "norm2"
  lrn_param {
    local_size: 5
    alpha: 0.0001
    beta: 0.75
  }
}
layer {
  name: "pool2"
  type: "Pooling"
  bottom: "norm2"
  top: "pool2"
  pooling_param {
    pool: MAX
    kernel_size: 3
    stride: 2
  }
}
layer {
  name: "conv3"
  type: "Convolution"
  bottom: "pool2"
  top: "conv3"
  param {
    lr_mult: 1
    decay_mult: 1
  }
  param {
    lr_mult: 2
    decay_mult: 0
  }
  convolution_param {
    num_output: 384
    pad: 1
    kernel_size: 3
    weight_filler {
      type: "gaussian"
      std: 0.01
    }
    bias_filler {
      type: "constant"
      value: 0
    }
  }
}
layer {
  name: "relu3"
  type: "ReLU"
  bottom: "conv3"
  top: "conv3"
}
layer {
  name: "conv4"
  type: "Convolution"
  bottom: "conv3"
  top: "conv4"
  param {
    lr_mult: 1
    decay_mult: 1
  }
  param {
    lr_mult: 2
    decay_mult: 0
  }
  convolution_param {
    num_output: 384
    pad: 1
    kernel_size: 3
    group: 2
    weight_filler {
      type: "gaussian"
      std: 0.01
    }
    bias_filler {
      type: "constant"
      value: 0.1
    }
  }
}
layer {
  name: "relu4"
  type: "ReLU"
  bottom: "conv4"
  top: "conv4"
}
layer {
  name: "conv5"
  type: "Convolution"
  bottom: "conv4"
  top: "conv5"
  param {
    lr_mult: 1
    decay_mult: 1
  }
  param {
    lr_mult: 2
    decay_mult: 0
  }
  convolution_param {
    num_output: 256
    pad: 1
    kernel_size: 3
    group: 2
    weight_filler {
      type: "gaussian"
      std: 0.01
    }
    bias_filler {
      type: "constant"
      value: 0.1
    }
  }
}
layer {
  name: "relu5"
  type: "ReLU"
  bottom: "conv5"
  top: "conv5"
}
layer {
  name: "pool5"
  type: "Pooling"
  bottom: "conv5"
  top: "pool5"
  pooling_param {
    pool: MAX
    kernel_size: 3
    stride: 2
  }
}
layer {
  name: "model3_fc6"
  type: "InnerProduct"
  bottom: "pool5"
  top: "model3_fc6"
  param {
    lr_mult: 1
    decay_mult: 1
  }
  param {
    lr_mult: 2
    decay_mult: 0
  }
  inner_product_param {
    num_output: 4096
    weight_filler {
      type: "gaussian"
      std: 0.005
    }
    bias_filler {
      type: "constant"
      value: 0.1
    }
  }
}
layer {
  name: "relu6"
  type: "ReLU"
  bottom: "model3_fc6"
  top: "model3_fc6"
}
layer {
  name: "drop6"
  type: "Dropout"
  bottom: "model3_fc6"
  top: "model3_fc6"
  dropout_param {
    dropout_ratio: 0.5
  }
}
layer {
  name: "model3_fc7"
  type: "InnerProduct"
  bottom: "model3_fc6"
  top: "model3_fc7"
  param {
    lr_mult: 1
    decay_mult: 1
  }
  param {
    lr_mult: 2
    decay_mult: 0
  }
  inner_product_param {
    num_output: 4096
    weight_filler {
      type: "gaussian"
      std: 0.005
    }
    bias_filler {
      type: "constant"
      value: 0.1
    }
  }
}
layer {
  name: "relu7"
  type: "ReLU"
  bottom: "model3_fc7"
  top: "model3_fc7"
}
layer {
  name: "drop7"
  type: "Dropout"
  bottom: "model3_fc7"
  top: "model3_fc7"
  dropout_param {
    dropout_ratio: 0.5
  }
}
layer {
  name: "model3_fc8"
  type: "InnerProduct"
  bottom: "model3_fc7"
  top: "model3_fc8"
  param {
    lr_mult: 1
    decay_mult: 1
  }
  param {
    lr_mult: 2
    decay_mult: 0
  }
  inner_product_param {
    num_output: 20
    weight_filler {
      type: "gaussian"
      std: 0.01
    }
    bias_filler {
      type: "constant"
      value: 0
    }
  }
}
layer {
  name: "accuracy_test"
  type: "Accuracy"
  bottom: "model3_fc8"
  bottom: "label"
  top: "accuracy_test"
  include {
    phase: TEST
  }
}
layer {
  name: "loss"
  type: "SoftmaxWithLoss"
  bottom: "model3_fc8"
  bottom: "label"
  top: "loss"
}
I0711 07:16:15.810870 16510 layer_factory.hpp:77] Creating layer data
I0711 07:16:15.810979 16510 net.cpp:91] Creating Layer data
I0711 07:16:15.811012 16510 net.cpp:399] data -> data
I0711 07:16:15.811027 16510 net.cpp:399] data -> label
I0711 07:16:15.811038 16510 data_transformer.cpp:25] Loading mean file from: ../lmdb/mean_file.binaryproto
I0711 07:16:15.844707 16516 db_lmdb.cpp:35] Opened lmdb ../lmdb/val_lmdb
I0711 07:16:15.844900 16510 data_layer.cpp:41] output data size: 50,3,128,128
I0711 07:16:15.910517 16510 net.cpp:141] Setting up data
I0711 07:16:15.910562 16510 net.cpp:148] Top shape: 50 3 128 128 (2457600)
I0711 07:16:15.910569 16510 net.cpp:148] Top shape: 50 (50)
I0711 07:16:15.910574 16510 net.cpp:156] Memory required for data: 9830600
I0711 07:16:15.910588 16510 layer_factory.hpp:77] Creating layer label_data_1_split
I0711 07:16:15.910606 16510 net.cpp:91] Creating Layer label_data_1_split
I0711 07:16:15.910612 16510 net.cpp:425] label_data_1_split <- label
I0711 07:16:15.910624 16510 net.cpp:399] label_data_1_split -> label_data_1_split_0
I0711 07:16:15.910637 16510 net.cpp:399] label_data_1_split -> label_data_1_split_1
I0711 07:16:15.910801 16510 net.cpp:141] Setting up label_data_1_split
I0711 07:16:15.910820 16510 net.cpp:148] Top shape: 50 (50)
I0711 07:16:15.910827 16510 net.cpp:148] Top shape: 50 (50)
I0711 07:16:15.910831 16510 net.cpp:156] Memory required for data: 9831000
I0711 07:16:15.910836 16510 layer_factory.hpp:77] Creating layer conv1
I0711 07:16:15.910856 16510 net.cpp:91] Creating Layer conv1
I0711 07:16:15.910861 16510 net.cpp:425] conv1 <- data
I0711 07:16:15.910869 16510 net.cpp:399] conv1 -> conv1
I0711 07:16:15.971328 16510 net.cpp:141] Setting up conv1
I0711 07:16:15.971366 16510 net.cpp:148] Top shape: 50 96 30 30 (4320000)
I0711 07:16:15.971374 16510 net.cpp:156] Memory required for data: 27111000
I0711 07:16:15.971395 16510 layer_factory.hpp:77] Creating layer relu1
I0711 07:16:15.971408 16510 net.cpp:91] Creating Layer relu1
I0711 07:16:15.971417 16510 net.cpp:425] relu1 <- conv1
I0711 07:16:15.971427 16510 net.cpp:386] relu1 -> conv1 (in-place)
I0711 07:16:15.979221 16510 net.cpp:141] Setting up relu1
I0711 07:16:15.979245 16510 net.cpp:148] Top shape: 50 96 30 30 (4320000)
I0711 07:16:15.979251 16510 net.cpp:156] Memory required for data: 44391000
I0711 07:16:15.979256 16510 layer_factory.hpp:77] Creating layer norm1
I0711 07:16:15.979269 16510 net.cpp:91] Creating Layer norm1
I0711 07:16:15.979275 16510 net.cpp:425] norm1 <- conv1
I0711 07:16:15.979282 16510 net.cpp:399] norm1 -> norm1
I0711 07:16:15.983218 16510 net.cpp:141] Setting up norm1
I0711 07:16:15.983239 16510 net.cpp:148] Top shape: 50 96 30 30 (4320000)
I0711 07:16:15.983245 16510 net.cpp:156] Memory required for data: 61671000
I0711 07:16:15.983252 16510 layer_factory.hpp:77] Creating layer pool1
I0711 07:16:15.983263 16510 net.cpp:91] Creating Layer pool1
I0711 07:16:15.983268 16510 net.cpp:425] pool1 <- norm1
I0711 07:16:15.983275 16510 net.cpp:399] pool1 -> pool1
I0711 07:16:15.983338 16510 net.cpp:141] Setting up pool1
I0711 07:16:15.983355 16510 net.cpp:148] Top shape: 50 96 15 15 (1080000)
I0711 07:16:15.983360 16510 net.cpp:156] Memory required for data: 65991000
I0711 07:16:15.983364 16510 layer_factory.hpp:77] Creating layer conv2
I0711 07:16:15.983381 16510 net.cpp:91] Creating Layer conv2
I0711 07:16:15.983386 16510 net.cpp:425] conv2 <- pool1
I0711 07:16:15.983394 16510 net.cpp:399] conv2 -> conv2
I0711 07:16:16.024596 16510 net.cpp:141] Setting up conv2
I0711 07:16:16.024641 16510 net.cpp:148] Top shape: 50 256 15 15 (2880000)
I0711 07:16:16.024646 16510 net.cpp:156] Memory required for data: 77511000
I0711 07:16:16.024669 16510 layer_factory.hpp:77] Creating layer relu2
I0711 07:16:16.024683 16510 net.cpp:91] Creating Layer relu2
I0711 07:16:16.024690 16510 net.cpp:425] relu2 <- conv2
I0711 07:16:16.024700 16510 net.cpp:386] relu2 -> conv2 (in-place)
I0711 07:16:16.026147 16510 net.cpp:141] Setting up relu2
I0711 07:16:16.026166 16510 net.cpp:148] Top shape: 50 256 15 15 (2880000)
I0711 07:16:16.026171 16510 net.cpp:156] Memory required for data: 89031000
I0711 07:16:16.026177 16510 layer_factory.hpp:77] Creating layer norm2
I0711 07:16:16.026193 16510 net.cpp:91] Creating Layer norm2
I0711 07:16:16.026199 16510 net.cpp:425] norm2 <- conv2
I0711 07:16:16.026207 16510 net.cpp:399] norm2 -> norm2
I0711 07:16:16.027294 16510 net.cpp:141] Setting up norm2
I0711 07:16:16.027313 16510 net.cpp:148] Top shape: 50 256 15 15 (2880000)
I0711 07:16:16.027318 16510 net.cpp:156] Memory required for data: 100551000
I0711 07:16:16.027324 16510 layer_factory.hpp:77] Creating layer pool2
I0711 07:16:16.027336 16510 net.cpp:91] Creating Layer pool2
I0711 07:16:16.027341 16510 net.cpp:425] pool2 <- norm2
I0711 07:16:16.027348 16510 net.cpp:399] pool2 -> pool2
I0711 07:16:16.027400 16510 net.cpp:141] Setting up pool2
I0711 07:16:16.027416 16510 net.cpp:148] Top shape: 50 256 7 7 (627200)
I0711 07:16:16.027421 16510 net.cpp:156] Memory required for data: 103059800
I0711 07:16:16.027426 16510 layer_factory.hpp:77] Creating layer conv3
I0711 07:16:16.027444 16510 net.cpp:91] Creating Layer conv3
I0711 07:16:16.027468 16510 net.cpp:425] conv3 <- pool2
I0711 07:16:16.027480 16510 net.cpp:399] conv3 -> conv3
I0711 07:16:16.062813 16510 net.cpp:141] Setting up conv3
I0711 07:16:16.062865 16510 net.cpp:148] Top shape: 50 384 7 7 (940800)
I0711 07:16:16.062872 16510 net.cpp:156] Memory required for data: 106823000
I0711 07:16:16.062896 16510 layer_factory.hpp:77] Creating layer relu3
I0711 07:16:16.062911 16510 net.cpp:91] Creating Layer relu3
I0711 07:16:16.062917 16510 net.cpp:425] relu3 <- conv3
I0711 07:16:16.062927 16510 net.cpp:386] relu3 -> conv3 (in-place)
I0711 07:16:16.066016 16510 net.cpp:141] Setting up relu3
I0711 07:16:16.066036 16510 net.cpp:148] Top shape: 50 384 7 7 (940800)
I0711 07:16:16.066042 16510 net.cpp:156] Memory required for data: 110586200
I0711 07:16:16.066047 16510 layer_factory.hpp:77] Creating layer conv4
I0711 07:16:16.066073 16510 net.cpp:91] Creating Layer conv4
I0711 07:16:16.066095 16510 net.cpp:425] conv4 <- conv3
I0711 07:16:16.066118 16510 net.cpp:399] conv4 -> conv4
I0711 07:16:16.149668 16510 net.cpp:141] Setting up conv4
I0711 07:16:16.149718 16510 net.cpp:148] Top shape: 50 384 7 7 (940800)
I0711 07:16:16.149726 16510 net.cpp:156] Memory required for data: 114349400
I0711 07:16:16.149740 16510 layer_factory.hpp:77] Creating layer relu4
I0711 07:16:16.149755 16510 net.cpp:91] Creating Layer relu4
I0711 07:16:16.149762 16510 net.cpp:425] relu4 <- conv4
I0711 07:16:16.149772 16510 net.cpp:386] relu4 -> conv4 (in-place)
I0711 07:16:16.150609 16510 net.cpp:141] Setting up relu4
I0711 07:16:16.150629 16510 net.cpp:148] Top shape: 50 384 7 7 (940800)
I0711 07:16:16.150635 16510 net.cpp:156] Memory required for data: 118112600
I0711 07:16:16.150640 16510 layer_factory.hpp:77] Creating layer conv5
I0711 07:16:16.150656 16510 net.cpp:91] Creating Layer conv5
I0711 07:16:16.150671 16510 net.cpp:425] conv5 <- conv4
I0711 07:16:16.150683 16510 net.cpp:399] conv5 -> conv5
I0711 07:16:16.202347 16510 net.cpp:141] Setting up conv5
I0711 07:16:16.202371 16510 net.cpp:148] Top shape: 50 256 7 7 (627200)
I0711 07:16:16.202378 16510 net.cpp:156] Memory required for data: 120621400
I0711 07:16:16.202392 16510 layer_factory.hpp:77] Creating layer relu5
I0711 07:16:16.202401 16510 net.cpp:91] Creating Layer relu5
I0711 07:16:16.202406 16510 net.cpp:425] relu5 <- conv5
I0711 07:16:16.202414 16510 net.cpp:386] relu5 -> conv5 (in-place)
I0711 07:16:16.211040 16510 net.cpp:141] Setting up relu5
I0711 07:16:16.211061 16510 net.cpp:148] Top shape: 50 256 7 7 (627200)
I0711 07:16:16.211067 16510 net.cpp:156] Memory required for data: 123130200
I0711 07:16:16.211072 16510 layer_factory.hpp:77] Creating layer pool5
I0711 07:16:16.211088 16510 net.cpp:91] Creating Layer pool5
I0711 07:16:16.211094 16510 net.cpp:425] pool5 <- conv5
I0711 07:16:16.211104 16510 net.cpp:399] pool5 -> pool5
I0711 07:16:16.211164 16510 net.cpp:141] Setting up pool5
I0711 07:16:16.211181 16510 net.cpp:148] Top shape: 50 256 3 3 (115200)
I0711 07:16:16.211186 16510 net.cpp:156] Memory required for data: 123591000
I0711 07:16:16.211191 16510 layer_factory.hpp:77] Creating layer model3_fc6
I0711 07:16:16.211204 16510 net.cpp:91] Creating Layer model3_fc6
I0711 07:16:16.211208 16510 net.cpp:425] model3_fc6 <- pool5
I0711 07:16:16.211216 16510 net.cpp:399] model3_fc6 -> model3_fc6
I0711 07:16:16.525034 16510 net.cpp:141] Setting up model3_fc6
I0711 07:16:16.525082 16510 net.cpp:148] Top shape: 50 4096 (204800)
I0711 07:16:16.525089 16510 net.cpp:156] Memory required for data: 124410200
I0711 07:16:16.525104 16510 layer_factory.hpp:77] Creating layer relu6
I0711 07:16:16.525118 16510 net.cpp:91] Creating Layer relu6
I0711 07:16:16.525125 16510 net.cpp:425] relu6 <- model3_fc6
I0711 07:16:16.525135 16510 net.cpp:386] relu6 -> model3_fc6 (in-place)
I0711 07:16:16.525367 16510 net.cpp:141] Setting up relu6
I0711 07:16:16.525385 16510 net.cpp:148] Top shape: 50 4096 (204800)
I0711 07:16:16.525390 16510 net.cpp:156] Memory required for data: 125229400
I0711 07:16:16.525395 16510 layer_factory.hpp:77] Creating layer drop6
I0711 07:16:16.525408 16510 net.cpp:91] Creating Layer drop6
I0711 07:16:16.525439 16510 net.cpp:425] drop6 <- model3_fc6
I0711 07:16:16.525447 16510 net.cpp:386] drop6 -> model3_fc6 (in-place)
I0711 07:16:16.525490 16510 net.cpp:141] Setting up drop6
I0711 07:16:16.525507 16510 net.cpp:148] Top shape: 50 4096 (204800)
I0711 07:16:16.525511 16510 net.cpp:156] Memory required for data: 126048600
I0711 07:16:16.525516 16510 layer_factory.hpp:77] Creating layer model3_fc7
I0711 07:16:16.525530 16510 net.cpp:91] Creating Layer model3_fc7
I0711 07:16:16.525535 16510 net.cpp:425] model3_fc7 <- model3_fc6
I0711 07:16:16.525542 16510 net.cpp:399] model3_fc7 -> model3_fc7
I0711 07:16:17.086622 16510 net.cpp:141] Setting up model3_fc7
I0711 07:16:17.086671 16510 net.cpp:148] Top shape: 50 4096 (204800)
I0711 07:16:17.086678 16510 net.cpp:156] Memory required for data: 126867800
I0711 07:16:17.086693 16510 layer_factory.hpp:77] Creating layer relu7
I0711 07:16:17.086710 16510 net.cpp:91] Creating Layer relu7
I0711 07:16:17.086717 16510 net.cpp:425] relu7 <- model3_fc7
I0711 07:16:17.086727 16510 net.cpp:386] relu7 -> model3_fc7 (in-place)
I0711 07:16:17.087139 16510 net.cpp:141] Setting up relu7
I0711 07:16:17.087160 16510 net.cpp:148] Top shape: 50 4096 (204800)
I0711 07:16:17.087165 16510 net.cpp:156] Memory required for data: 127687000
I0711 07:16:17.087170 16510 layer_factory.hpp:77] Creating layer drop7
I0711 07:16:17.087180 16510 net.cpp:91] Creating Layer drop7
I0711 07:16:17.087185 16510 net.cpp:425] drop7 <- model3_fc7
I0711 07:16:17.087198 16510 net.cpp:386] drop7 -> model3_fc7 (in-place)
I0711 07:16:17.087242 16510 net.cpp:141] Setting up drop7
I0711 07:16:17.087263 16510 net.cpp:148] Top shape: 50 4096 (204800)
I0711 07:16:17.087268 16510 net.cpp:156] Memory required for data: 128506200
I0711 07:16:17.087273 16510 layer_factory.hpp:77] Creating layer model3_fc8
I0711 07:16:17.087285 16510 net.cpp:91] Creating Layer model3_fc8
I0711 07:16:17.087288 16510 net.cpp:425] model3_fc8 <- model3_fc7
I0711 07:16:17.087299 16510 net.cpp:399] model3_fc8 -> model3_fc8
I0711 07:16:17.090054 16510 net.cpp:141] Setting up model3_fc8
I0711 07:16:17.090075 16510 net.cpp:148] Top shape: 50 20 (1000)
I0711 07:16:17.090080 16510 net.cpp:156] Memory required for data: 128510200
I0711 07:16:17.090088 16510 layer_factory.hpp:77] Creating layer model3_fc8_model3_fc8_0_split
I0711 07:16:17.090101 16510 net.cpp:91] Creating Layer model3_fc8_model3_fc8_0_split
I0711 07:16:17.090106 16510 net.cpp:425] model3_fc8_model3_fc8_0_split <- model3_fc8
I0711 07:16:17.090112 16510 net.cpp:399] model3_fc8_model3_fc8_0_split -> model3_fc8_model3_fc8_0_split_0
I0711 07:16:17.090123 16510 net.cpp:399] model3_fc8_model3_fc8_0_split -> model3_fc8_model3_fc8_0_split_1
I0711 07:16:17.090172 16510 net.cpp:141] Setting up model3_fc8_model3_fc8_0_split
I0711 07:16:17.090188 16510 net.cpp:148] Top shape: 50 20 (1000)
I0711 07:16:17.090193 16510 net.cpp:148] Top shape: 50 20 (1000)
I0711 07:16:17.090198 16510 net.cpp:156] Memory required for data: 128518200
I0711 07:16:17.090203 16510 layer_factory.hpp:77] Creating layer accuracy_test
I0711 07:16:17.090214 16510 net.cpp:91] Creating Layer accuracy_test
I0711 07:16:17.090219 16510 net.cpp:425] accuracy_test <- model3_fc8_model3_fc8_0_split_0
I0711 07:16:17.090225 16510 net.cpp:425] accuracy_test <- label_data_1_split_0
…
