…
I0711 11:13:02.186174  1726 net.cpp:313] The NetState phase (0) differed from the phase (1) specified by a rule in layer data
I0711 11:13:02.186218  1726 net.cpp:313] The NetState phase (0) differed from the phase (1) specified by a rule in layer accuracy_test
I0711 11:13:02.186455  1726 net.cpp:49] Initializing net from parameters: 
name: "Model5"
state {
  phase: TRAIN
}
layer {
  name: "data"
  type: "Data"
  top: "data"
  top: "label"
  include {
    phase: TRAIN
  }
  transform_param {
    mirror: true
    mean_file: "../lmdb/mean_file.binaryproto"
  }
  data_param {
    source: "../lmdb/train_lmdb"
    batch_size: 256
    backend: LMDB
  }
}
layer {
  name: "conv1"
  type: "Convolution"
  bottom: "data"
  top: "conv1"
  param {
    lr_mult: 1
    decay_mult: 0
  }
  param {
    lr_mult: 2
    decay_mult: 0
  }
  convolution_param {
    num_output: 64
    pad: 3
    kernel_size: 5
    stride: 3
    weight_filler {
      type: "xavier"
    }
    bias_filler {
      type: "constant"
      value: 0.1
    }
  }
}
layer {
  name: "relu1"
  type: "ReLU"
  bottom: "conv1"
  top: "conv1"
}
layer {
  name: "norm1"
  type: "LRN"
  bottom: "conv1"
  top: "norm1"
  lrn_param {
    local_size: 5
    alpha: 0.0001
    beta: 0.75
  }
}
layer {
  name: "conv2"
  type: "Convolution"
  bottom: "norm1"
  top: "conv2"
  param {
    lr_mult: 1
    decay_mult: 0
  }
  param {
    lr_mult: 2
    decay_mult: 0
  }
  convolution_param {
    num_output: 64
    pad: 2
    kernel_size: 5
    stride: 1
    weight_filler {
      type: "xavier"
    }
    bias_filler {
      type: "constant"
      value: 0.1
    }
  }
}
layer {
  name: "relu2"
  type: "ReLU"
  bottom: "conv2"
  top: "conv2"
}
layer {
  name: "norm2"
  type: "LRN"
  bottom: "conv2"
  top: "norm2"
  lrn_param {
    local_size: 5
    alpha: 0.0001
    beta: 0.75
  }
}
layer {
  name: "pool2"
  type: "Pooling"
  bottom: "norm2"
  top: "pool2"
  pooling_param {
    pool: MAX
    kernel_size: 2
    stride: 2
  }
}
layer {
  name: "conv3"
  type: "Convolution"
  bottom: "pool2"
  top: "conv3"
  param {
    lr_mult: 1
    decay_mult: 0
  }
  param {
    lr_mult: 2
    decay_mult: 0
  }
  convolution_param {
    num_output: 96
    pad: 3
    kernel_size: 7
    stride: 1
    weight_filler {
      type: "xavier"
    }
    bias_filler {
      type: "constant"
      value: 0.1
    }
  }
}
layer {
  name: "relu3"
  type: "ReLU"
  bottom: "conv3"
  top: "conv3"
}
layer {
  name: "norm3"
  type: "LRN"
  bottom: "conv3"
  top: "norm3"
  lrn_param {
    local_size: 5
    alpha: 0.0001
    beta: 0.75
  }
}
layer {
  name: "conv4"
  type: "Convolution"
  bottom: "norm3"
  top: "conv4"
  param {
    lr_mult: 1
    decay_mult: 0
  }
  param {
    lr_mult: 2
    decay_mult: 0
  }
  convolution_param {
    num_output: 96
    pad: 1
    kernel_size: 3
    stride: 1
    weight_filler {
      type: "xavier"
    }
    bias_filler {
      type: "constant"
      value: 0.1
    }
  }
}
layer {
  name: "relu4"
  type: "ReLU"
  bottom: "conv4"
  top: "conv4"
}
layer {
  name: "norm4"
  type: "LRN"
  bottom: "conv4"
  top: "norm4"
  lrn_param {
    local_size: 5
    alpha: 0.0001
    beta: 0.75
  }
}
layer {
  name: "conv5"
  type: "Convolution"
  bottom: "norm4"
  top: "conv5"
  param {
    lr_mult: 1
    decay_mult: 0
  }
  param {
    lr_mult: 2
    decay_mult: 0
  }
  convolution_param {
    num_output: 96
    pad: 1
    kernel_size: 3
    stride: 1
    weight_filler {
      type: "xavier"
    }
    bias_filler {
      type: "constant"
      value: 0.1
    }
  }
}
layer {
  name: "relu5"
  type: "ReLU"
  bottom: "conv5"
  top: "conv5"
}
layer {
  name: "norm5"
  type: "LRN"
  bottom: "conv5"
  top: "norm5"
  lrn_param {
    local_size: 5
    alpha: 0.0001
    beta: 0.75
  }
}
layer {
  name: "pool5"
  type: "Pooling"
  bottom: "norm5"
  top: "pool5"
  pooling_param {
    pool: MAX
    kernel_size: 2
    stride: 2
  }
}
layer {
  name: "fc6"
  type: "InnerProduct"
  bottom: "pool5"
  top: "fc6"
  param {
    lr_mult: 1
    decay_mult: 0
  }
  param {
    lr_mult: 2
    decay_mult: 0
  }
  inner_product_param {
    num_output: 1024
    weight_filler {
      type: "xavier"
    }
    bias_filler {
      type: "constant"
      value: 0
    }
  }
}
layer {
  name: "relu6"
  type: "ReLU"
  bottom: "fc6"
  top: "fc6"
}
layer {
  name: "dropout6"
  type: "Dropout"
  bottom: "fc6"
  top: "fc6"
  dropout_param {
    dropout_ratio: 0.5
  }
}
layer {
  name: "fc7"
  type: "InnerProduct"
  bottom: "fc6"
  top: "fc7"
  param {
    lr_mult: 1
    decay_mult: 0
  }
  param {
    lr_mult: 2
    decay_mult: 0
  }
  inner_product_param {
    num_output: 1024
    weight_filler {
      type: "xavier"
    }
    bias_filler {
      type: "constant"
      value: 0
    }
  }
}
layer {
  name: "relu7"
  type: "ReLU"
  bottom: "fc7"
  top: "fc7"
}
layer {
  name: "dropout7"
  type: "Dropout"
  bottom: "fc7"
  top: "fc7"
  dropout_param {
    dropout_ratio: 0.5
  }
}
layer {
  name: "fc8"
  type: "InnerProduct"
  bottom: "fc7"
  top: "fc8"
  param {
    lr_mult: 1
    decay_mult: 0
  }
  param {
    lr_mult: 2
    decay_mult: 0
  }
  inner_product_param {
    num_output: 20
    weight_filler {
      type: "xavier"
    }
    bias_filler {
      type: "constant"
      value: 0
    }
  }
}
layer {
  name: "loss"
  type: "SoftmaxWithLoss"
  bottom: "fc8"
  bottom: "label"
  top: "loss"
}
layer {
  name: "accuracy_train"
  type: "Accuracy"
  bottom: "fc8"
  bottom: "label"
  top: "accuracy_train"
  include {
    phase: TRAIN
  }
}
I0711 11:13:02.186667  1726 layer_factory.hpp:77] Creating layer data
I0711 11:13:02.397353  1726 net.cpp:91] Creating Layer data
I0711 11:13:02.397403  1726 net.cpp:399] data -> data
I0711 11:13:02.397452  1726 net.cpp:399] data -> label
I0711 11:13:02.397481  1726 data_transformer.cpp:25] Loading mean file from: ../lmdb/mean_file.binaryproto
I0711 11:13:02.896036  1740 db_lmdb.cpp:35] Opened lmdb ../lmdb/train_lmdb
I0711 11:13:03.898941  1726 data_layer.cpp:41] output data size: 256,3,128,128
I0711 11:13:03.994580  1726 net.cpp:141] Setting up data
I0711 11:13:03.994642  1726 net.cpp:148] Top shape: 256 3 128 128 (12582912)
I0711 11:13:03.994652  1726 net.cpp:148] Top shape: 256 (256)
I0711 11:13:03.994657  1726 net.cpp:156] Memory required for data: 50332672
I0711 11:13:03.994673  1726 layer_factory.hpp:77] Creating layer label_data_1_split
I0711 11:13:03.995862  1726 net.cpp:91] Creating Layer label_data_1_split
I0711 11:13:03.995884  1726 net.cpp:425] label_data_1_split <- label
I0711 11:13:03.995908  1726 net.cpp:399] label_data_1_split -> label_data_1_split_0
I0711 11:13:03.995929  1726 net.cpp:399] label_data_1_split -> label_data_1_split_1
I0711 11:13:04.001600  1726 net.cpp:141] Setting up label_data_1_split
I0711 11:13:04.001621  1726 net.cpp:148] Top shape: 256 (256)
I0711 11:13:04.001627  1726 net.cpp:148] Top shape: 256 (256)
I0711 11:13:04.001632  1726 net.cpp:156] Memory required for data: 50334720
I0711 11:13:04.001638  1726 layer_factory.hpp:77] Creating layer conv1
I0711 11:13:04.001670  1726 net.cpp:91] Creating Layer conv1
I0711 11:13:04.001683  1726 net.cpp:425] conv1 <- data
I0711 11:13:04.001694  1726 net.cpp:399] conv1 -> conv1
I0711 11:13:04.007418  1741 blocking_queue.cpp:50] Waiting for data
I0711 11:13:25.658927  1726 net.cpp:141] Setting up conv1
I0711 11:13:25.659008  1726 net.cpp:148] Top shape: 256 64 44 44 (31719424)
I0711 11:13:25.659014  1726 net.cpp:156] Memory required for data: 177212416
I0711 11:13:25.659047  1726 layer_factory.hpp:77] Creating layer relu1
I0711 11:13:25.659065  1726 net.cpp:91] Creating Layer relu1
I0711 11:13:25.659080  1726 net.cpp:425] relu1 <- conv1
I0711 11:13:25.659088  1726 net.cpp:386] relu1 -> conv1 (in-place)
I0711 11:13:25.659307  1726 net.cpp:141] Setting up relu1
I0711 11:13:25.659327  1726 net.cpp:148] Top shape: 256 64 44 44 (31719424)
I0711 11:13:25.659333  1726 net.cpp:156] Memory required for data: 304090112
I0711 11:13:25.659338  1726 layer_factory.hpp:77] Creating layer norm1
I0711 11:13:25.659358  1726 net.cpp:91] Creating Layer norm1
I0711 11:13:25.659365  1726 net.cpp:425] norm1 <- conv1
I0711 11:13:25.659378  1726 net.cpp:399] norm1 -> norm1
I0711 11:13:25.661216  1726 net.cpp:141] Setting up norm1
I0711 11:13:25.661238  1726 net.cpp:148] Top shape: 256 64 44 44 (31719424)
I0711 11:13:25.661243  1726 net.cpp:156] Memory required for data: 430967808
I0711 11:13:25.661249  1726 layer_factory.hpp:77] Creating layer conv2
I0711 11:13:25.661268  1726 net.cpp:91] Creating Layer conv2
I0711 11:13:25.661273  1726 net.cpp:425] conv2 <- norm1
I0711 11:13:25.661281  1726 net.cpp:399] conv2 -> conv2
I0711 11:13:25.663429  1726 net.cpp:141] Setting up conv2
I0711 11:13:25.663450  1726 net.cpp:148] Top shape: 256 64 44 44 (31719424)
I0711 11:13:25.663455  1726 net.cpp:156] Memory required for data: 557845504
I0711 11:13:25.663467  1726 layer_factory.hpp:77] Creating layer relu2
I0711 11:13:25.663476  1726 net.cpp:91] Creating Layer relu2
I0711 11:13:25.663481  1726 net.cpp:425] relu2 <- conv2
I0711 11:13:25.663488  1726 net.cpp:386] relu2 -> conv2 (in-place)
I0711 11:13:25.663625  1726 net.cpp:141] Setting up relu2
I0711 11:13:25.663643  1726 net.cpp:148] Top shape: 256 64 44 44 (31719424)
I0711 11:13:25.663648  1726 net.cpp:156] Memory required for data: 684723200
I0711 11:13:25.663653  1726 layer_factory.hpp:77] Creating layer norm2
I0711 11:13:25.663673  1726 net.cpp:91] Creating Layer norm2
I0711 11:13:25.663682  1726 net.cpp:425] norm2 <- conv2
I0711 11:13:25.663689  1726 net.cpp:399] norm2 -> norm2
I0711 11:13:25.663939  1726 net.cpp:141] Setting up norm2
I0711 11:13:25.663972  1726 net.cpp:148] Top shape: 256 64 44 44 (31719424)
I0711 11:13:25.663978  1726 net.cpp:156] Memory required for data: 811600896
I0711 11:13:25.663985  1726 layer_factory.hpp:77] Creating layer pool2
I0711 11:13:25.663996  1726 net.cpp:91] Creating Layer pool2
I0711 11:13:25.664011  1726 net.cpp:425] pool2 <- norm2
I0711 11:13:25.664019  1726 net.cpp:399] pool2 -> pool2
I0711 11:13:25.664077  1726 net.cpp:141] Setting up pool2
I0711 11:13:25.664095  1726 net.cpp:148] Top shape: 256 64 22 22 (7929856)
I0711 11:13:25.664099  1726 net.cpp:156] Memory required for data: 843320320
I0711 11:13:25.664105  1726 layer_factory.hpp:77] Creating layer conv3
I0711 11:13:25.664118  1726 net.cpp:91] Creating Layer conv3
I0711 11:13:25.664122  1726 net.cpp:425] conv3 <- pool2
I0711 11:13:25.664130  1726 net.cpp:399] conv3 -> conv3
I0711 11:13:25.668138  1726 net.cpp:141] Setting up conv3
I0711 11:13:25.668160  1726 net.cpp:148] Top shape: 256 96 22 22 (11894784)
I0711 11:13:25.668166  1726 net.cpp:156] Memory required for data: 890899456
I0711 11:13:25.668179  1726 layer_factory.hpp:77] Creating layer relu3
I0711 11:13:25.668187  1726 net.cpp:91] Creating Layer relu3
I0711 11:13:25.668192  1726 net.cpp:425] relu3 <- conv3
I0711 11:13:25.668198  1726 net.cpp:386] relu3 -> conv3 (in-place)
I0711 11:13:25.668427  1726 net.cpp:141] Setting up relu3
I0711 11:13:25.668447  1726 net.cpp:148] Top shape: 256 96 22 22 (11894784)
I0711 11:13:25.668452  1726 net.cpp:156] Memory required for data: 938478592
I0711 11:13:25.668458  1726 layer_factory.hpp:77] Creating layer norm3
I0711 11:13:25.668467  1726 net.cpp:91] Creating Layer norm3
I0711 11:13:25.668473  1726 net.cpp:425] norm3 <- conv3
I0711 11:13:25.668479  1726 net.cpp:399] norm3 -> norm3
I0711 11:13:25.668733  1726 net.cpp:141] Setting up norm3
I0711 11:13:25.668767  1726 net.cpp:148] Top shape: 256 96 22 22 (11894784)
I0711 11:13:25.668773  1726 net.cpp:156] Memory required for data: 986057728
I0711 11:13:25.668778  1726 layer_factory.hpp:77] Creating layer conv4
I0711 11:13:25.668792  1726 net.cpp:91] Creating Layer conv4
I0711 11:13:25.668797  1726 net.cpp:425] conv4 <- norm3
I0711 11:13:25.668805  1726 net.cpp:399] conv4 -> conv4
I0711 11:13:25.670235  1726 net.cpp:141] Setting up conv4
I0711 11:13:25.670258  1726 net.cpp:148] Top shape: 256 96 22 22 (11894784)
I0711 11:13:25.670264  1726 net.cpp:156] Memory required for data: 1033636864
I0711 11:13:25.670274  1726 layer_factory.hpp:77] Creating layer relu4
I0711 11:13:25.670281  1726 net.cpp:91] Creating Layer relu4
I0711 11:13:25.670286  1726 net.cpp:425] relu4 <- conv4
I0711 11:13:25.670294  1726 net.cpp:386] relu4 -> conv4 (in-place)
I0711 11:13:25.670531  1726 net.cpp:141] Setting up relu4
I0711 11:13:25.670552  1726 net.cpp:148] Top shape: 256 96 22 22 (11894784)
I0711 11:13:25.670557  1726 net.cpp:156] Memory required for data: 1081216000
I0711 11:13:25.670562  1726 layer_factory.hpp:77] Creating layer norm4
I0711 11:13:25.670570  1726 net.cpp:91] Creating Layer norm4
I0711 11:13:25.670575  1726 net.cpp:425] norm4 <- conv4
I0711 11:13:25.670583  1726 net.cpp:399] norm4 -> norm4
I0711 11:13:25.670765  1726 net.cpp:141] Setting up norm4
I0711 11:13:25.670784  1726 net.cpp:148] Top shape: 256 96 22 22 (11894784)
I0711 11:13:25.670789  1726 net.cpp:156] Memory required for data: 1128795136
I0711 11:13:25.670794  1726 layer_factory.hpp:77] Creating layer conv5
I0711 11:13:25.670809  1726 net.cpp:91] Creating Layer conv5
I0711 11:13:25.670814  1726 net.cpp:425] conv5 <- norm4
I0711 11:13:25.670825  1726 net.cpp:399] conv5 -> conv5
I0711 11:13:25.672826  1726 net.cpp:141] Setting up conv5
I0711 11:13:25.672848  1726 net.cpp:148] Top shape: 256 96 22 22 (11894784)
I0711 11:13:25.672853  1726 net.cpp:156] Memory required for data: 1176374272
I0711 11:13:25.672866  1726 layer_factory.hpp:77] Creating layer relu5
I0711 11:13:25.672876  1726 net.cpp:91] Creating Layer relu5
I0711 11:13:25.672881  1726 net.cpp:425] relu5 <- conv5
I0711 11:13:25.672891  1726 net.cpp:386] relu5 -> conv5 (in-place)
I0711 11:13:25.673136  1726 net.cpp:141] Setting up relu5
I0711 11:13:25.673157  1726 net.cpp:148] Top shape: 256 96 22 22 (11894784)
I0711 11:13:25.673162  1726 net.cpp:156] Memory required for data: 1223953408
I0711 11:13:25.673167  1726 layer_factory.hpp:77] Creating layer norm5
I0711 11:13:25.673179  1726 net.cpp:91] Creating Layer norm5
I0711 11:13:25.673184  1726 net.cpp:425] norm5 <- conv5
I0711 11:13:25.673192  1726 net.cpp:399] norm5 -> norm5
I0711 11:13:25.673387  1726 net.cpp:141] Setting up norm5
I0711 11:13:25.673405  1726 net.cpp:148] Top shape: 256 96 22 22 (11894784)
I0711 11:13:25.673410  1726 net.cpp:156] Memory required for data: 1271532544
I0711 11:13:25.673415  1726 layer_factory.hpp:77] Creating layer pool5
I0711 11:13:25.673424  1726 net.cpp:91] Creating Layer pool5
I0711 11:13:25.673429  1726 net.cpp:425] pool5 <- norm5
I0711 11:13:25.673437  1726 net.cpp:399] pool5 -> pool5
I0711 11:13:25.673485  1726 net.cpp:141] Setting up pool5
I0711 11:13:25.673502  1726 net.cpp:148] Top shape: 256 96 11 11 (2973696)
I0711 11:13:25.673507  1726 net.cpp:156] Memory required for data: 1283427328
I0711 11:13:25.673511  1726 layer_factory.hpp:77] Creating layer fc6
I0711 11:13:25.673526  1726 net.cpp:91] Creating Layer fc6
I0711 11:13:25.673530  1726 net.cpp:425] fc6 <- pool5
I0711 11:13:25.673540  1726 net.cpp:399] fc6 -> fc6
I0711 11:13:25.784862  1726 net.cpp:141] Setting up fc6
I0711 11:13:25.784920  1726 net.cpp:148] Top shape: 256 1024 (262144)
I0711 11:13:25.784926  1726 net.cpp:156] Memory required for data: 1284475904
I0711 11:13:25.784945  1726 layer_factory.hpp:77] Creating layer relu6
I0711 11:13:25.784961  1726 net.cpp:91] Creating Layer relu6
I0711 11:13:25.784968  1726 net.cpp:425] relu6 <- fc6
I0711 11:13:25.784978  1726 net.cpp:386] relu6 -> fc6 (in-place)
I0711 11:13:25.785410  1726 net.cpp:141] Setting up relu6
I0711 11:13:25.785452  1726 net.cpp:148] Top shape: 256 1024 (262144)
I0711 11:13:25.785459  1726 net.cpp:156] Memory required for data: 1285524480
I0711 11:13:25.785465  1726 layer_factory.hpp:77] Creating layer dropout6
I0711 11:13:25.786123  1726 net.cpp:91] Creating Layer dropout6
I0711 11:13:25.786139  1726 net.cpp:425] dropout6 <- fc6
I0711 11:13:25.786150  1726 net.cpp:386] dropout6 -> fc6 (in-place)
I0711 11:13:25.786190  1726 net.cpp:141] Setting up dropout6
I0711 11:13:25.786207  1726 net.cpp:148] Top shape: 256 1024 (262144)
I0711 11:13:25.786212  1726 net.cpp:156] Memory required for data: 1286573056
I0711 11:13:25.786217  1726 layer_factory.hpp:77] Creating layer fc7
I0711 11:13:25.786229  1726 net.cpp:91] Creating Layer fc7
I0711 11:13:25.786233  1726 net.cpp:425] fc7 <- fc6
I0711 11:13:25.786244  1726 net.cpp:399] fc7 -> fc7
I0711 11:13:25.795974  1726 net.cpp:141] Setting up fc7
I0711 11:13:25.795994  1726 net.cpp:148] Top shape: 256 1024 (262144)
I0711 11:13:25.796000  1726 net.cpp:156] Memory required for data: 1287621632
I0711 11:13:25.796010  1726 layer_factory.hpp:77] Creating layer relu7
I0711 11:13:25.796020  1726 net.cpp:91] Creating Layer relu7
I0711 11:13:25.796025  1726 net.cpp:425] relu7 <- fc7
I0711 11:13:25.796032  1726 net.cpp:386] relu7 -> fc7 (in-place)
I0711 11:13:25.796195  1726 net.cpp:141] Setting up relu7
I0711 11:13:25.796212  1726 net.cpp:148] Top shape: 256 1024 (262144)
I0711 11:13:25.796217  1726 net.cpp:156] Memory required for data: 1288670208
I0711 11:13:25.796222  1726 layer_factory.hpp:77] Creating layer dropout7
I0711 11:13:25.796233  1726 net.cpp:91] Creating Layer dropout7
I0711 11:13:25.796238  1726 net.cpp:425] dropout7 <- fc7
I0711 11:13:25.796246  1726 net.cpp:386] dropout7 -> fc7 (in-place)
I0711 11:13:25.796273  1726 net.cpp:141] Setting up dropout7
I0711 11:13:25.796288  1726 net.cpp:148] Top shape: 256 1024 (262144)
I0711 11:13:25.796293  1726 net.cpp:156] Memory required for data: 1289718784
I0711 11:13:25.796298  1726 layer_factory.hpp:77] Creating layer fc8
I0711 11:13:25.796308  1726 net.cpp:91] Creating Layer fc8
I0711 11:13:25.796311  1726 net.cpp:425] fc8 <- fc7
I0711 11:13:25.796321  1726 net.cpp:399] fc8 -> fc8
I0711 11:13:25.796592  1726 net.cpp:141] Setting up fc8
I0711 11:13:25.796610  1726 net.cpp:148] Top shape: 256 20 (5120)
I0711 11:13:25.796614  1726 net.cpp:156] Memory required for data: 1289739264
I0711 11:13:25.796623  1726 layer_factory.hpp:77] Creating layer fc8_fc8_0_split
I0711 11:13:25.796635  1726 net.cpp:91] Creating Layer fc8_fc8_0_split
I0711 11:13:25.796639  1726 net.cpp:425] fc8_fc8_0_split <- fc8
I0711 11:13:25.796646  1726 net.cpp:399] fc8_fc8_0_split -> fc8_fc8_0_split_0
I0711 11:13:25.796658  1726 net.cpp:399] fc8_fc8_0_split -> fc8_fc8_0_split_1
I0711 11:13:25.796695  1726 net.cpp:141] Setting up fc8_fc8_0_split
I0711 11:13:25.796711  1726 net.cpp:148] Top shape: 256 20 (5120)
I0711 11:13:25.796717  1726 net.cpp:148] Top shape: 256 20 (5120)
I0711 11:13:25.796721  1726 net.cpp:156] Memory required for data: 1289780224
I0711 11:13:25.796725  1726 layer_factory.hpp:77] Creating layer loss
I0711 11:13:25.796737  1726 net.cpp:91] Creating Layer loss
I0711 11:13:25.796742  1726 net.cpp:425] loss <- fc8_fc8_0_split_0
I0711 11:13:25.796748  1726 net.cpp:425] loss <- label_data_1_split_0
I0711 11:13:25.796758  1726 net.cpp:399] loss -> loss
…
I0711 11:13:25.798475  1726 net.cpp:313] The NetState phase (1) differed from the phase (0) specified by a rule in layer data
I0711 11:13:25.798542  1726 net.cpp:313] The NetState phase (1) differed from the phase (0) specified by a rule in layer accuracy_train
I0711 11:13:25.798774  1726 net.cpp:49] Initializing net from parameters: 
name: "Model5"
state {
  phase: TEST
}
layer {
  name: "data"
  type: "Data"
  top: "data"
  top: "label"
  include {
    phase: TEST
  }
  transform_param {
    mirror: false
    mean_file: "../lmdb/mean_file.binaryproto"
  }
  data_param {
    source: "../lmdb/val_lmdb"
    batch_size: 128
    backend: LMDB
  }
}
layer {
  name: "conv1"
  type: "Convolution"
  bottom: "data"
  top: "conv1"
  param {
    lr_mult: 1
    decay_mult: 0
  }
  param {
    lr_mult: 2
    decay_mult: 0
  }
  convolution_param {
    num_output: 64
    pad: 3
    kernel_size: 5
    stride: 3
    weight_filler {
      type: "xavier"
    }
    bias_filler {
      type: "constant"
      value: 0.1
    }
  }
}
layer {
  name: "relu1"
  type: "ReLU"
  bottom: "conv1"
  top: "conv1"
}
layer {
  name: "norm1"
  type: "LRN"
  bottom: "conv1"
  top: "norm1"
  lrn_param {
    local_size: 5
    alpha: 0.0001
    beta: 0.75
  }
}
layer {
  name: "conv2"
  type: "Convolution"
  bottom: "norm1"
  top: "conv2"
  param {
    lr_mult: 1
    decay_mult: 0
  }
  param {
    lr_mult: 2
    decay_mult: 0
  }
  convolution_param {
    num_output: 64
    pad: 2
    kernel_size: 5
    stride: 1
    weight_filler {
      type: "xavier"
    }
    bias_filler {
      type: "constant"
      value: 0.1
    }
  }
}
layer {
  name: "relu2"
  type: "ReLU"
  bottom: "conv2"
  top: "conv2"
}
layer {
  name: "norm2"
  type: "LRN"
  bottom: "conv2"
  top: "norm2"
  lrn_param {
    local_size: 5
    alpha: 0.0001
    beta: 0.75
  }
}
layer {
  name: "pool2"
  type: "Pooling"
  bottom: "norm2"
  top: "pool2"
  pooling_param {
    pool: MAX
    kernel_size: 2
    stride: 2
  }
}
layer {
  name: "conv3"
  type: "Convolution"
  bottom: "pool2"
  top: "conv3"
  param {
    lr_mult: 1
    decay_mult: 0
  }
  param {
    lr_mult: 2
    decay_mult: 0
  }
  convolution_param {
    num_output: 96
    pad: 3
    kernel_size: 7
    stride: 1
    weight_filler {
      type: "xavier"
    }
    bias_filler {
      type: "constant"
      value: 0.1
    }
  }
}
layer {
  name: "relu3"
  type: "ReLU"
  bottom: "conv3"
  top: "conv3"
}
layer {
  name: "norm3"
  type: "LRN"
  bottom: "conv3"
  top: "norm3"
  lrn_param {
    local_size: 5
    alpha: 0.0001
    beta: 0.75
  }
}
layer {
  name: "conv4"
  type: "Convolution"
  bottom: "norm3"
  top: "conv4"
  param {
    lr_mult: 1
    decay_mult: 0
  }
  param {
    lr_mult: 2
    decay_mult: 0
  }
  convolution_param {
    num_output: 96
    pad: 1
    kernel_size: 3
    stride: 1
    weight_filler {
      type: "xavier"
    }
    bias_filler {
      type: "constant"
      value: 0.1
    }
  }
}
layer {
  name: "relu4"
  type: "ReLU"
  bottom: "conv4"
  top: "conv4"
}
layer {
  name: "norm4"
  type: "LRN"
  bottom: "conv4"
  top: "norm4"
  lrn_param {
    local_size: 5
    alpha: 0.0001
    beta: 0.75
  }
}
layer {
  name: "conv5"
  type: "Convolution"
  bottom: "norm4"
  top: "conv5"
  param {
    lr_mult: 1
    decay_mult: 0
  }
  param {
    lr_mult: 2
    decay_mult: 0
  }
  convolution_param {
    num_output: 96
    pad: 1
    kernel_size: 3
    stride: 1
    weight_filler {
      type: "xavier"
    }
    bias_filler {
      type: "constant"
      value: 0.1
    }
  }
}
layer {
  name: "relu5"
  type: "ReLU"
  bottom: "conv5"
  top: "conv5"
}
layer {
  name: "norm5"
  type: "LRN"
  bottom: "conv5"
  top: "norm5"
  lrn_param {
    local_size: 5
    alpha: 0.0001
    beta: 0.75
  }
}
layer {
  name: "pool5"
  type: "Pooling"
  bottom: "norm5"
  top: "pool5"
  pooling_param {
    pool: MAX
    kernel_size: 2
    stride: 2
  }
}
layer {
  name: "fc6"
  type: "InnerProduct"
  bottom: "pool5"
  top: "fc6"
  param {
    lr_mult: 1
    decay_mult: 0
  }
  param {
    lr_mult: 2
    decay_mult: 0
  }
  inner_product_param {
    num_output: 1024
    weight_filler {
      type: "xavier"
    }
    bias_filler {
      type: "constant"
      value: 0
    }
  }
}
layer {
  name: "relu6"
  type: "ReLU"
  bottom: "fc6"
  top: "fc6"
}
layer {
  name: "dropout6"
  type: "Dropout"
  bottom: "fc6"
  top: "fc6"
  dropout_param {
    dropout_ratio: 0.5
  }
}
layer {
  name: "fc7"
  type: "InnerProduct"
  bottom: "fc6"
  top: "fc7"
  param {
    lr_mult: 1
    decay_mult: 0
  }
  param {
    lr_mult: 2
    decay_mult: 0
  }
  inner_product_param {
    num_output: 1024
    weight_filler {
      type: "xavier"
    }
    bias_filler {
      type: "constant"
      value: 0
    }
  }
}
layer {
  name: "relu7"
  type: "ReLU"
  bottom: "fc7"
  top: "fc7"
}
layer {
  name: "dropout7"
  type: "Dropout"
  bottom: "fc7"
  top: "fc7"
  dropout_param {
    dropout_ratio: 0.5
  }
}
layer {
  name: "fc8"
  type: "InnerProduct"
  bottom: "fc7"
  top: "fc8"
  param {
    lr_mult: 1
    decay_mult: 0
  }
  param {
    lr_mult: 2
    decay_mult: 0
  }
  inner_product_param {
    num_output: 20
    weight_filler {
      type: "xavier"
    }
    bias_filler {
      type: "constant"
      value: 0
    }
  }
}
layer {
  name: "loss"
  type: "SoftmaxWithLoss"
  bottom: "fc8"
  bottom: "label"
  top: "loss"
}
layer {
  name: "accuracy_test"
  type: "Accuracy"
  bottom: "fc8"
  bottom: "label"
  top: "accuracy_test"
  include {
    phase: TEST
  }
}
I0711 11:13:25.798943  1726 layer_factory.hpp:77] Creating layer data
I0711 11:13:25.799115  1726 net.cpp:91] Creating Layer data
I0711 11:13:25.799136  1726 net.cpp:399] data -> data
I0711 11:13:25.799149  1726 net.cpp:399] data -> label
I0711 11:13:25.799160  1726 data_transformer.cpp:25] Loading mean file from: ../lmdb/mean_file.binaryproto
I0711 11:13:26.717478  1742 db_lmdb.cpp:35] Opened lmdb ../lmdb/val_lmdb
I0711 11:13:27.282280  1726 data_layer.cpp:41] output data size: 128,3,128,128
I0711 11:13:27.331044  1726 net.cpp:141] Setting up data
I0711 11:13:27.331097  1726 net.cpp:148] Top shape: 128 3 128 128 (6291456)
I0711 11:13:27.331106  1726 net.cpp:148] Top shape: 128 (128)
I0711 11:13:27.331111  1726 net.cpp:156] Memory required for data: 25166336
I0711 11:13:27.331121  1726 layer_factory.hpp:77] Creating layer label_data_1_split
I0711 11:13:27.331145  1726 net.cpp:91] Creating Layer label_data_1_split
I0711 11:13:27.331151  1726 net.cpp:425] label_data_1_split <- label
I0711 11:13:27.331162  1726 net.cpp:399] label_data_1_split -> label_data_1_split_0
I0711 11:13:27.331178  1726 net.cpp:399] label_data_1_split -> label_data_1_split_1
I0711 11:13:27.331358  1726 net.cpp:141] Setting up label_data_1_split
I0711 11:13:27.331377  1726 net.cpp:148] Top shape: 128 (128)
I0711 11:13:27.331383  1726 net.cpp:148] Top shape: 128 (128)
I0711 11:13:27.331387  1726 net.cpp:156] Memory required for data: 25167360
I0711 11:13:27.331393  1726 layer_factory.hpp:77] Creating layer conv1
I0711 11:13:27.331414  1726 net.cpp:91] Creating Layer conv1
I0711 11:13:27.331420  1726 net.cpp:425] conv1 <- data
I0711 11:13:27.331430  1726 net.cpp:399] conv1 -> conv1
I0711 11:13:27.332782  1726 net.cpp:141] Setting up conv1
I0711 11:13:27.332803  1726 net.cpp:148] Top shape: 128 64 44 44 (15859712)
I0711 11:13:27.332809  1726 net.cpp:156] Memory required for data: 88606208
I0711 11:13:27.332824  1726 layer_factory.hpp:77] Creating layer relu1
I0711 11:13:27.332835  1726 net.cpp:91] Creating Layer relu1
I0711 11:13:27.332846  1726 net.cpp:425] relu1 <- conv1
I0711 11:13:27.332854  1726 net.cpp:386] relu1 -> conv1 (in-place)
I0711 11:13:27.336082  1726 net.cpp:141] Setting up relu1
I0711 11:13:27.336104  1726 net.cpp:148] Top shape: 128 64 44 44 (15859712)
I0711 11:13:27.336110  1726 net.cpp:156] Memory required for data: 152045056
I0711 11:13:27.336117  1726 layer_factory.hpp:77] Creating layer norm1
I0711 11:13:27.336130  1726 net.cpp:91] Creating Layer norm1
I0711 11:13:27.336135  1726 net.cpp:425] norm1 <- conv1
I0711 11:13:27.336143  1726 net.cpp:399] norm1 -> norm1
I0711 11:13:27.336438  1726 net.cpp:141] Setting up norm1
I0711 11:13:27.336459  1726 net.cpp:148] Top shape: 128 64 44 44 (15859712)
I0711 11:13:27.336464  1726 net.cpp:156] Memory required for data: 215483904
I0711 11:13:27.336469  1726 layer_factory.hpp:77] Creating layer conv2
I0711 11:13:27.336484  1726 net.cpp:91] Creating Layer conv2
I0711 11:13:27.336489  1726 net.cpp:425] conv2 <- norm1
I0711 11:13:27.336499  1726 net.cpp:399] conv2 -> conv2
I0711 11:13:27.338201  1726 net.cpp:141] Setting up conv2
I0711 11:13:27.338223  1726 net.cpp:148] Top shape: 128 64 44 44 (15859712)
I0711 11:13:27.338228  1726 net.cpp:156] Memory required for data: 278922752
I0711 11:13:27.338241  1726 layer_factory.hpp:77] Creating layer relu2
I0711 11:13:27.338251  1726 net.cpp:91] Creating Layer relu2
I0711 11:13:27.338256  1726 net.cpp:425] relu2 <- conv2
I0711 11:13:27.338264  1726 net.cpp:386] relu2 -> conv2 (in-place)
I0711 11:13:27.338413  1726 net.cpp:141] Setting up relu2
I0711 11:13:27.338430  1726 net.cpp:148] Top shape: 128 64 44 44 (15859712)
I0711 11:13:27.338435  1726 net.cpp:156] Memory required for data: 342361600
I0711 11:13:27.338440  1726 layer_factory.hpp:77] Creating layer norm2
I0711 11:13:27.338450  1726 net.cpp:91] Creating Layer norm2
I0711 11:13:27.338454  1726 net.cpp:425] norm2 <- conv2
I0711 11:13:27.338462  1726 net.cpp:399] norm2 -> norm2
I0711 11:13:27.338779  1726 net.cpp:141] Setting up norm2
I0711 11:13:27.338799  1726 net.cpp:148] Top shape: 128 64 44 44 (15859712)
I0711 11:13:27.338804  1726 net.cpp:156] Memory required for data: 405800448
I0711 11:13:27.338809  1726 layer_factory.hpp:77] Creating layer pool2
I0711 11:13:27.338821  1726 net.cpp:91] Creating Layer pool2
I0711 11:13:27.338826  1726 net.cpp:425] pool2 <- norm2
I0711 11:13:27.338835  1726 net.cpp:399] pool2 -> pool2
I0711 11:13:27.338886  1726 net.cpp:141] Setting up pool2
I0711 11:13:27.338901  1726 net.cpp:148] Top shape: 128 64 22 22 (3964928)
I0711 11:13:27.338907  1726 net.cpp:156] Memory required for data: 421660160
I0711 11:13:27.338912  1726 layer_factory.hpp:77] Creating layer conv3
I0711 11:13:27.338927  1726 net.cpp:91] Creating Layer conv3
I0711 11:13:27.338937  1726 net.cpp:425] conv3 <- pool2
I0711 11:13:27.338944  1726 net.cpp:399] conv3 -> conv3
I0711 11:13:27.342612  1726 net.cpp:141] Setting up conv3
I0711 11:13:27.342634  1726 net.cpp:148] Top shape: 128 96 22 22 (5947392)
I0711 11:13:27.342639  1726 net.cpp:156] Memory required for data: 445449728
I0711 11:13:27.342654  1726 layer_factory.hpp:77] Creating layer relu3
I0711 11:13:27.342664  1726 net.cpp:91] Creating Layer relu3
I0711 11:13:27.342669  1726 net.cpp:425] relu3 <- conv3
I0711 11:13:27.342675  1726 net.cpp:386] relu3 -> conv3 (in-place)
I0711 11:13:27.342923  1726 net.cpp:141] Setting up relu3
I0711 11:13:27.342944  1726 net.cpp:148] Top shape: 128 96 22 22 (5947392)
I0711 11:13:27.342949  1726 net.cpp:156] Memory required for data: 469239296
I0711 11:13:27.342954  1726 layer_factory.hpp:77] Creating layer norm3
I0711 11:13:27.342965  1726 net.cpp:91] Creating Layer norm3
I0711 11:13:27.342972  1726 net.cpp:425] norm3 <- conv3
I0711 11:13:27.342978  1726 net.cpp:399] norm3 -> norm3
I0711 11:13:27.343266  1726 net.cpp:141] Setting up norm3
I0711 11:13:27.343286  1726 net.cpp:148] Top shape: 128 96 22 22 (5947392)
I0711 11:13:27.343291  1726 net.cpp:156] Memory required for data: 493028864
I0711 11:13:27.343296  1726 layer_factory.hpp:77] Creating layer conv4
I0711 11:13:27.343310  1726 net.cpp:91] Creating Layer conv4
I0711 11:13:27.343322  1726 net.cpp:425] conv4 <- norm3
I0711 11:13:27.343333  1726 net.cpp:399] conv4 -> conv4
I0711 11:13:27.345237  1726 net.cpp:141] Setting up conv4
I0711 11:13:27.345259  1726 net.cpp:148] Top shape: 128 96 22 22 (5947392)
I0711 11:13:27.345264  1726 net.cpp:156] Memory required for data: 516818432
I0711 11:13:27.345273  1726 layer_factory.hpp:77] Creating layer relu4
I0711 11:13:27.345284  1726 net.cpp:91] Creating Layer relu4
I0711 11:13:27.345293  1726 net.cpp:425] relu4 <- conv4
I0711 11:13:27.345300  1726 net.cpp:386] relu4 -> conv4 (in-place)
I0711 11:13:27.345557  1726 net.cpp:141] Setting up relu4
I0711 11:13:27.345577  1726 net.cpp:148] Top shape: 128 96 22 22 (5947392)
I0711 11:13:27.345582  1726 net.cpp:156] Memory required for data: 540608000
I0711 11:13:27.345587  1726 layer_factory.hpp:77] Creating layer norm4
I0711 11:13:27.345599  1726 net.cpp:91] Creating Layer norm4
I0711 11:13:27.345604  1726 net.cpp:425] norm4 <- conv4
I0711 11:13:27.345612  1726 net.cpp:399] norm4 -> norm4
I0711 11:13:27.345810  1726 net.cpp:141] Setting up norm4
I0711 11:13:27.345827  1726 net.cpp:148] Top shape: 128 96 22 22 (5947392)
I0711 11:13:27.345832  1726 net.cpp:156] Memory required for data: 564397568
I0711 11:13:27.345837  1726 layer_factory.hpp:77] Creating layer conv5
I0711 11:13:27.345852  1726 net.cpp:91] Creating Layer conv5
I0711 11:13:27.345857  1726 net.cpp:425] conv5 <- norm4
I0711 11:13:27.345870  1726 net.cpp:399] conv5 -> conv5
I0711 11:13:27.347359  1726 net.cpp:141] Setting up conv5
I0711 11:13:27.347380  1726 net.cpp:148] Top shape: 128 96 22 22 (5947392)
I0711 11:13:27.347385  1726 net.cpp:156] Memory required for data: 588187136
I0711 11:13:27.347404  1726 layer_factory.hpp:77] Creating layer relu5
I0711 11:13:27.347416  1726 net.cpp:91] Creating Layer relu5
I0711 11:13:27.347424  1726 net.cpp:425] relu5 <- conv5
I0711 11:13:27.347430  1726 net.cpp:386] relu5 -> conv5 (in-place)
I0711 11:13:27.347712  1726 net.cpp:141] Setting up relu5
I0711 11:13:27.347733  1726 net.cpp:148] Top shape: 128 96 22 22 (5947392)
I0711 11:13:27.347738  1726 net.cpp:156] Memory required for data: 611976704
I0711 11:13:27.347743  1726 layer_factory.hpp:77] Creating layer norm5
I0711 11:13:27.347753  1726 net.cpp:91] Creating Layer norm5
I0711 11:13:27.347757  1726 net.cpp:425] norm5 <- conv5
I0711 11:13:27.347766  1726 net.cpp:399] norm5 -> norm5
I0711 11:13:27.347968  1726 net.cpp:141] Setting up norm5
I0711 11:13:27.347986  1726 net.cpp:148] Top shape: 128 96 22 22 (5947392)
I0711 11:13:27.347991  1726 net.cpp:156] Memory required for data: 635766272
I0711 11:13:27.347997  1726 layer_factory.hpp:77] Creating layer pool5
I0711 11:13:27.348006  1726 net.cpp:91] Creating Layer pool5
I0711 11:13:27.348009  1726 net.cpp:425] pool5 <- norm5
I0711 11:13:27.348019  1726 net.cpp:399] pool5 -> pool5
I0711 11:13:27.348072  1726 net.cpp:141] Setting up pool5
I0711 11:13:27.348088  1726 net.cpp:148] Top shape: 128 96 11 11 (1486848)
I0711 11:13:27.348091  1726 net.cpp:156] Memory required for data: 641713664
I0711 11:13:27.348096  1726 layer_factory.hpp:77] Creating layer fc6
I0711 11:13:27.348109  1726 net.cpp:91] Creating Layer fc6
I0711 11:13:27.348114  1726 net.cpp:425] fc6 <- pool5
I0711 11:13:27.348124  1726 net.cpp:399] fc6 -> fc6
I0711 11:13:27.454243  1726 net.cpp:141] Setting up fc6
I0711 11:13:27.454299  1726 net.cpp:148] Top shape: 128 1024 (131072)
I0711 11:13:27.454305  1726 net.cpp:156] Memory required for data: 642237952
I0711 11:13:27.454321  1726 layer_factory.hpp:77] Creating layer relu6
I0711 11:13:27.454344  1726 net.cpp:91] Creating Layer relu6
I0711 11:13:27.454352  1726 net.cpp:425] relu6 <- fc6
I0711 11:13:27.454362  1726 net.cpp:386] relu6 -> fc6 (in-place)
I0711 11:13:27.454788  1726 net.cpp:141] Setting up relu6
I0711 11:13:27.454808  1726 net.cpp:148] Top shape: 128 1024 (131072)
I0711 11:13:27.454813  1726 net.cpp:156] Memory required for data: 642762240
I0711 11:13:27.454819  1726 layer_factory.hpp:77] Creating layer dropout6
I0711 11:13:27.454833  1726 net.cpp:91] Creating Layer dropout6
I0711 11:13:27.454838  1726 net.cpp:425] dropout6 <- fc6
I0711 11:13:27.454844  1726 net.cpp:386] dropout6 -> fc6 (in-place)
I0711 11:13:27.454874  1726 net.cpp:141] Setting up dropout6
I0711 11:13:27.454890  1726 net.cpp:148] Top shape: 128 1024 (131072)
I0711 11:13:27.454895  1726 net.cpp:156] Memory required for data: 643286528
I0711 11:13:27.454900  1726 layer_factory.hpp:77] Creating layer fc7
I0711 11:13:27.454915  1726 net.cpp:91] Creating Layer fc7
I0711 11:13:27.454919  1726 net.cpp:425] fc7 <- fc6
I0711 11:13:27.454929  1726 net.cpp:399] fc7 -> fc7
I0711 11:13:27.464634  1726 net.cpp:141] Setting up fc7
I0711 11:13:27.464654  1726 net.cpp:148] Top shape: 128 1024 (131072)
I0711 11:13:27.464660  1726 net.cpp:156] Memory required for data: 643810816
I0711 11:13:27.464668  1726 layer_factory.hpp:77] Creating layer relu7
I0711 11:13:27.464678  1726 net.cpp:91] Creating Layer relu7
I0711 11:13:27.464682  1726 net.cpp:425] relu7 <- fc7
I0711 11:13:27.464689  1726 net.cpp:386] relu7 -> fc7 (in-place)
I0711 11:13:27.464856  1726 net.cpp:141] Setting up relu7
I0711 11:13:27.464877  1726 net.cpp:148] Top shape: 128 1024 (131072)
I0711 11:13:27.464882  1726 net.cpp:156] Memory required for data: 644335104
I0711 11:13:27.464887  1726 layer_factory.hpp:77] Creating layer dropout7
I0711 11:13:27.464895  1726 net.cpp:91] Creating Layer dropout7
I0711 11:13:27.464900  1726 net.cpp:425] dropout7 <- fc7
I0711 11:13:27.464906  1726 net.cpp:386] dropout7 -> fc7 (in-place)
I0711 11:13:27.464934  1726 net.cpp:141] Setting up dropout7
I0711 11:13:27.464949  1726 net.cpp:148] Top shape: 128 1024 (131072)
I0711 11:13:27.464953  1726 net.cpp:156] Memory required for data: 644859392
I0711 11:13:27.464958  1726 layer_factory.hpp:77] Creating layer fc8
I0711 11:13:27.464972  1726 net.cpp:91] Creating Layer fc8
I0711 11:13:27.464977  1726 net.cpp:425] fc8 <- fc7
I0711 11:13:27.464985  1726 net.cpp:399] fc8 -> fc8
I0711 11:13:27.465293  1726 net.cpp:141] Setting up fc8
I0711 11:13:27.465313  1726 net.cpp:148] Top shape: 128 20 (2560)
I0711 11:13:27.465318  1726 net.cpp:156] Memory required for data: 644869632
I0711 11:13:27.465327  1726 layer_factory.hpp:77] Creating layer fc8_fc8_0_split
I0711 11:13:27.465335  1726 net.cpp:91] Creating Layer fc8_fc8_0_split
I0711 11:13:27.465340  1726 net.cpp:425] fc8_fc8_0_split <- fc8
I0711 11:13:27.465347  1726 net.cpp:399] fc8_fc8_0_split -> fc8_fc8_0_split_0
I0711 11:13:27.465355  1726 net.cpp:399] fc8_fc8_0_split -> fc8_fc8_0_split_1
I0711 11:13:27.465399  1726 net.cpp:141] Setting up fc8_fc8_0_split
I0711 11:13:27.465414  1726 net.cpp:148] Top shape: 128 20 (2560)
I0711 11:13:27.465420  1726 net.cpp:148] Top shape: 128 20 (2560)
I0711 11:13:27.465425  1726 net.cpp:156] Memory required for data: 644890112
I0711 11:13:27.465428  1726 layer_factory.hpp:77] Creating layer loss
I0711 11:13:27.465436  1726 net.cpp:91] Creating Layer loss
I0711 11:13:27.465441  1726 net.cpp:425] loss <- fc8_fc8_0_split_0
I0711 11:13:27.465447  1726 net.cpp:425] loss <- label_data_1_split_0
I0711 11:13:27.465457  1726 net.cpp:399] loss -> loss
…
