…
I0710 13:36:33.046907  9938 net.cpp:313] The NetState phase (0) differed from the phase (1) specified by a rule in layer data
I0710 13:36:33.046938  9938 net.cpp:313] The NetState phase (0) differed from the phase (1) specified by a rule in layer accuracy
I0710 13:36:33.047093  9938 net.cpp:49] Initializing net from parameters: 
name: "Model2"
state {
  phase: TRAIN
}
layer {
  name: "data"
  type: "Data"
  top: "data"
  top: "label"
  include {
    phase: TRAIN
  }
  transform_param {
    mirror: true
    mean_file: "../lmdb/mean_file.binaryproto"
  }
  data_param {
    source: "../lmdb/train_lmdb"
    batch_size: 256
    backend: LMDB
  }
}
layer {
  name: "conv1"
  type: "Convolution"
  bottom: "data"
  top: "conv1"
  param {
    lr_mult: 1
    decay_mult: 0
  }
  param {
    lr_mult: 2
    decay_mult: 0
  }
  convolution_param {
    num_output: 64
    kernel_size: 7
    stride: 2
    weight_filler {
      type: "xavier"
    }
    bias_filler {
      type: "constant"
      value: 0.1
    }
  }
}
layer {
  name: "relu1"
  type: "ReLU"
  bottom: "conv1"
  top: "conv1"
}
layer {
  name: "pool1"
  type: "Pooling"
  bottom: "conv1"
  top: "pool1"
  pooling_param {
    pool: MAX
    kernel_size: 3
    stride: 2
  }
}
layer {
  name: "conv2"
  type: "Convolution"
  bottom: "pool1"
  top: "conv2"
  param {
    lr_mult: 1
    decay_mult: 0
  }
  param {
    lr_mult: 2
    decay_mult: 0
  }
  convolution_param {
    num_output: 128
    kernel_size: 5
    stride: 2
    weight_filler {
      type: "xavier"
    }
    bias_filler {
      type: "constant"
      value: 0.1
    }
  }
}
layer {
  name: "relu2"
  type: "ReLU"
  bottom: "conv2"
  top: "conv2"
}
layer {
  name: "conv3"
  type: "Convolution"
  bottom: "conv2"
  top: "conv3"
  param {
    lr_mult: 1
    decay_mult: 0
  }
  param {
    lr_mult: 2
    decay_mult: 0
  }
  convolution_param {
    num_output: 256
    kernel_size: 3
    stride: 1
    weight_filler {
      type: "xavier"
    }
    bias_filler {
      type: "constant"
      value: 0.1
    }
  }
}
layer {
  name: "relu3"
  type: "ReLU"
  bottom: "conv3"
  top: "conv3"
}
layer {
  name: "pool3"
  type: "Pooling"
  bottom: "conv3"
  top: "pool3"
  pooling_param {
    pool: MAX
    kernel_size: 3
    stride: 2
  }
}
layer {
  name: "fc4"
  type: "InnerProduct"
  bottom: "pool3"
  top: "fc4"
  param {
    lr_mult: 1
    decay_mult: 0
  }
  param {
    lr_mult: 2
    decay_mult: 0
  }
  inner_product_param {
    num_output: 1024
    weight_filler {
      type: "xavier"
    }
    bias_filler {
      type: "constant"
      value: 0
    }
  }
}
layer {
  name: "relu4"
  type: "ReLU"
  bottom: "fc4"
  top: "fc4"
}
layer {
  name: "dropout4"
  type: "Dropout"
  bottom: "fc4"
  top: "fc4"
  dropout_param {
    dropout_ratio: 0.5
  }
}
layer {
  name: "fc5"
  type: "InnerProduct"
  bottom: "fc4"
  top: "fc5"
  param {
    lr_mult: 1
    decay_mult: 0
  }
  param {
    lr_mult: 2
    decay_mult: 0
  }
  inner_product_param {
    num_output: 20
    weight_filler {
      type: "xavier"
    }
    bias_filler {
      type: "constant"
      value: 0
    }
  }
}
layer {
  name: "loss"
  type: "SoftmaxWithLoss"
  bottom: "fc5"
  bottom: "label"
  top: "loss"
}
layer {
  name: "accuracy"
  type: "Accuracy"
  bottom: "fc5"
  bottom: "label"
  top: "accuracy"
  include {
    phase: TRAIN
  }
}
I0710 13:36:33.047246  9938 layer_factory.hpp:77] Creating layer data
I0710 13:36:33.047895  9938 net.cpp:91] Creating Layer data
I0710 13:36:33.047953  9938 net.cpp:399] data -> data
I0710 13:36:33.048003  9938 net.cpp:399] data -> label
I0710 13:36:33.048033  9938 data_transformer.cpp:25] Loading mean file from: ../lmdb/mean_file.binaryproto
I0710 13:36:33.048671  9945 db_lmdb.cpp:35] Opened lmdb ../lmdb/train_lmdb
I0710 13:36:33.061743  9938 data_layer.cpp:41] output data size: 256,3,128,128
I0710 13:36:33.159838  9938 net.cpp:141] Setting up data
I0710 13:36:33.159899  9938 net.cpp:148] Top shape: 256 3 128 128 (12582912)
I0710 13:36:33.159909  9938 net.cpp:148] Top shape: 256 (256)
I0710 13:36:33.159914  9938 net.cpp:156] Memory required for data: 50332672
I0710 13:36:33.159929  9938 layer_factory.hpp:77] Creating layer label_data_1_split
I0710 13:36:33.159953  9938 net.cpp:91] Creating Layer label_data_1_split
I0710 13:36:33.159965  9938 net.cpp:425] label_data_1_split <- label
I0710 13:36:33.159986  9938 net.cpp:399] label_data_1_split -> label_data_1_split_0
I0710 13:36:33.160008  9938 net.cpp:399] label_data_1_split -> label_data_1_split_1
I0710 13:36:33.160065  9938 net.cpp:141] Setting up label_data_1_split
I0710 13:36:33.160081  9938 net.cpp:148] Top shape: 256 (256)
I0710 13:36:33.160087  9938 net.cpp:148] Top shape: 256 (256)
I0710 13:36:33.160092  9938 net.cpp:156] Memory required for data: 50334720
I0710 13:36:33.160097  9938 layer_factory.hpp:77] Creating layer conv1
I0710 13:36:33.160127  9938 net.cpp:91] Creating Layer conv1
I0710 13:36:33.160140  9938 net.cpp:425] conv1 <- data
I0710 13:36:33.160150  9938 net.cpp:399] conv1 -> conv1
I0710 13:36:33.334589  9938 net.cpp:141] Setting up conv1
I0710 13:36:33.334637  9938 net.cpp:148] Top shape: 256 64 61 61 (60964864)
I0710 13:36:33.334645  9938 net.cpp:156] Memory required for data: 294194176
I0710 13:36:33.334676  9938 layer_factory.hpp:77] Creating layer relu1
I0710 13:36:33.334693  9938 net.cpp:91] Creating Layer relu1
I0710 13:36:33.334702  9938 net.cpp:425] relu1 <- conv1
I0710 13:36:33.334710  9938 net.cpp:386] relu1 -> conv1 (in-place)
I0710 13:36:33.334884  9938 net.cpp:141] Setting up relu1
I0710 13:36:33.334904  9938 net.cpp:148] Top shape: 256 64 61 61 (60964864)
I0710 13:36:33.334909  9938 net.cpp:156] Memory required for data: 538053632
I0710 13:36:33.334915  9938 layer_factory.hpp:77] Creating layer pool1
I0710 13:36:33.334929  9938 net.cpp:91] Creating Layer pool1
I0710 13:36:33.334934  9938 net.cpp:425] pool1 <- conv1
I0710 13:36:33.334942  9938 net.cpp:399] pool1 -> pool1
I0710 13:36:33.335002  9938 net.cpp:141] Setting up pool1
I0710 13:36:33.335019  9938 net.cpp:148] Top shape: 256 64 30 30 (14745600)
I0710 13:36:33.335024  9938 net.cpp:156] Memory required for data: 597036032
I0710 13:36:33.335029  9938 layer_factory.hpp:77] Creating layer conv2
I0710 13:36:33.335047  9938 net.cpp:91] Creating Layer conv2
I0710 13:36:33.335054  9938 net.cpp:425] conv2 <- pool1
I0710 13:36:33.335062  9938 net.cpp:399] conv2 -> conv2
I0710 13:36:33.337880  9938 net.cpp:141] Setting up conv2
I0710 13:36:33.337904  9938 net.cpp:148] Top shape: 256 128 13 13 (5537792)
I0710 13:36:33.337910  9938 net.cpp:156] Memory required for data: 619187200
I0710 13:36:33.337924  9938 layer_factory.hpp:77] Creating layer relu2
I0710 13:36:33.337934  9938 net.cpp:91] Creating Layer relu2
I0710 13:36:33.337939  9938 net.cpp:425] relu2 <- conv2
I0710 13:36:33.337947  9938 net.cpp:386] relu2 -> conv2 (in-place)
I0710 13:36:33.338186  9938 net.cpp:141] Setting up relu2
I0710 13:36:33.338207  9938 net.cpp:148] Top shape: 256 128 13 13 (5537792)
I0710 13:36:33.338212  9938 net.cpp:156] Memory required for data: 641338368
I0710 13:36:33.338218  9938 layer_factory.hpp:77] Creating layer conv3
I0710 13:36:33.338232  9938 net.cpp:91] Creating Layer conv3
I0710 13:36:33.338238  9938 net.cpp:425] conv3 <- conv2
I0710 13:36:33.338248  9938 net.cpp:399] conv3 -> conv3
I0710 13:36:33.341758  9938 net.cpp:141] Setting up conv3
I0710 13:36:33.341790  9938 net.cpp:148] Top shape: 256 256 11 11 (7929856)
I0710 13:36:33.341796  9938 net.cpp:156] Memory required for data: 673057792
I0710 13:36:33.341811  9938 layer_factory.hpp:77] Creating layer relu3
I0710 13:36:33.341825  9938 net.cpp:91] Creating Layer relu3
I0710 13:36:33.341830  9938 net.cpp:425] relu3 <- conv3
I0710 13:36:33.341869  9938 net.cpp:386] relu3 -> conv3 (in-place)
I0710 13:36:33.342116  9938 net.cpp:141] Setting up relu3
I0710 13:36:33.342138  9938 net.cpp:148] Top shape: 256 256 11 11 (7929856)
I0710 13:36:33.342142  9938 net.cpp:156] Memory required for data: 704777216
I0710 13:36:33.342149  9938 layer_factory.hpp:77] Creating layer pool3
I0710 13:36:33.342159  9938 net.cpp:91] Creating Layer pool3
I0710 13:36:33.342164  9938 net.cpp:425] pool3 <- conv3
I0710 13:36:33.342175  9938 net.cpp:399] pool3 -> pool3
I0710 13:36:33.342229  9938 net.cpp:141] Setting up pool3
I0710 13:36:33.342247  9938 net.cpp:148] Top shape: 256 256 5 5 (1638400)
I0710 13:36:33.342252  9938 net.cpp:156] Memory required for data: 711330816
I0710 13:36:33.342257  9938 layer_factory.hpp:77] Creating layer fc4
I0710 13:36:33.342270  9938 net.cpp:91] Creating Layer fc4
I0710 13:36:33.342285  9938 net.cpp:425] fc4 <- pool3
I0710 13:36:33.342296  9938 net.cpp:399] fc4 -> fc4
I0710 13:36:33.405683  9938 net.cpp:141] Setting up fc4
I0710 13:36:33.405738  9938 net.cpp:148] Top shape: 256 1024 (262144)
I0710 13:36:33.405747  9938 net.cpp:156] Memory required for data: 712379392
I0710 13:36:33.405764  9938 layer_factory.hpp:77] Creating layer relu4
I0710 13:36:33.405784  9938 net.cpp:91] Creating Layer relu4
I0710 13:36:33.405792  9938 net.cpp:425] relu4 <- fc4
I0710 13:36:33.405804  9938 net.cpp:386] relu4 -> fc4 (in-place)
I0710 13:36:33.406059  9938 net.cpp:141] Setting up relu4
I0710 13:36:33.406081  9938 net.cpp:148] Top shape: 256 1024 (262144)
I0710 13:36:33.406086  9938 net.cpp:156] Memory required for data: 713427968
I0710 13:36:33.406091  9938 layer_factory.hpp:77] Creating layer dropout4
I0710 13:36:33.406107  9938 net.cpp:91] Creating Layer dropout4
I0710 13:36:33.406112  9938 net.cpp:425] dropout4 <- fc4
I0710 13:36:33.406121  9938 net.cpp:386] dropout4 -> fc4 (in-place)
I0710 13:36:33.406165  9938 net.cpp:141] Setting up dropout4
I0710 13:36:33.406182  9938 net.cpp:148] Top shape: 256 1024 (262144)
I0710 13:36:33.406186  9938 net.cpp:156] Memory required for data: 714476544
I0710 13:36:33.406191  9938 layer_factory.hpp:77] Creating layer fc5
I0710 13:36:33.406208  9938 net.cpp:91] Creating Layer fc5
I0710 13:36:33.406219  9938 net.cpp:425] fc5 <- fc4
I0710 13:36:33.406230  9938 net.cpp:399] fc5 -> fc5
I0710 13:36:33.406522  9938 net.cpp:141] Setting up fc5
I0710 13:36:33.406545  9938 net.cpp:148] Top shape: 256 20 (5120)
I0710 13:36:33.406551  9938 net.cpp:156] Memory required for data: 714497024
I0710 13:36:33.406569  9938 layer_factory.hpp:77] Creating layer fc5_fc5_0_split
I0710 13:36:33.406586  9938 net.cpp:91] Creating Layer fc5_fc5_0_split
I0710 13:36:33.406592  9938 net.cpp:425] fc5_fc5_0_split <- fc5
I0710 13:36:33.406600  9938 net.cpp:399] fc5_fc5_0_split -> fc5_fc5_0_split_0
I0710 13:36:33.406610  9938 net.cpp:399] fc5_fc5_0_split -> fc5_fc5_0_split_1
I0710 13:36:33.406653  9938 net.cpp:141] Setting up fc5_fc5_0_split
I0710 13:36:33.406669  9938 net.cpp:148] Top shape: 256 20 (5120)
I0710 13:36:33.406675  9938 net.cpp:148] Top shape: 256 20 (5120)
I0710 13:36:33.406679  9938 net.cpp:156] Memory required for data: 714537984
I0710 13:36:33.406684  9938 layer_factory.hpp:77] Creating layer loss
I0710 13:36:33.406697  9938 net.cpp:91] Creating Layer loss
I0710 13:36:33.406702  9938 net.cpp:425] loss <- fc5_fc5_0_split_0
I0710 13:36:33.406710  9938 net.cpp:425] loss <- label_data_1_split_0
I0710 13:36:33.406721  9938 net.cpp:399] loss -> loss
…
I0710 13:36:33.408172  9938 net.cpp:313] The NetState phase (1) differed from the phase (0) specified by a rule in layer data
I0710 13:36:33.408210  9938 net.cpp:313] The NetState phase (1) differed from the phase (0) specified by a rule in layer accuracy
I0710 13:36:33.408360  9938 net.cpp:49] Initializing net from parameters: 
name: "Model2"
state {
  phase: TEST
}
layer {
  name: "data"
  type: "Data"
  top: "data"
  top: "label"
  include {
    phase: TEST
  }
  transform_param {
    mirror: false
    mean_file: "../lmdb/mean_file.binaryproto"
  }
  data_param {
    source: "../lmdb/val_lmdb"
    batch_size: 128
    backend: LMDB
  }
}
layer {
  name: "conv1"
  type: "Convolution"
  bottom: "data"
  top: "conv1"
  param {
    lr_mult: 1
    decay_mult: 0
  }
  param {
    lr_mult: 2
    decay_mult: 0
  }
  convolution_param {
    num_output: 64
    kernel_size: 7
    stride: 2
    weight_filler {
      type: "xavier"
    }
    bias_filler {
      type: "constant"
      value: 0.1
    }
  }
}
layer {
  name: "relu1"
  type: "ReLU"
  bottom: "conv1"
  top: "conv1"
}
layer {
  name: "pool1"
  type: "Pooling"
  bottom: "conv1"
  top: "pool1"
  pooling_param {
    pool: MAX
    kernel_size: 3
    stride: 2
  }
}
layer {
  name: "conv2"
  type: "Convolution"
  bottom: "pool1"
  top: "conv2"
  param {
    lr_mult: 1
    decay_mult: 0
  }
  param {
    lr_mult: 2
    decay_mult: 0
  }
  convolution_param {
    num_output: 128
    kernel_size: 5
    stride: 2
    weight_filler {
      type: "xavier"
    }
    bias_filler {
      type: "constant"
      value: 0.1
    }
  }
}
layer {
  name: "relu2"
  type: "ReLU"
  bottom: "conv2"
  top: "conv2"
}
layer {
  name: "conv3"
  type: "Convolution"
  bottom: "conv2"
  top: "conv3"
  param {
    lr_mult: 1
    decay_mult: 0
  }
  param {
    lr_mult: 2
    decay_mult: 0
  }
  convolution_param {
    num_output: 256
    kernel_size: 3
    stride: 1
    weight_filler {
      type: "xavier"
    }
    bias_filler {
      type: "constant"
      value: 0.1
    }
  }
}
layer {
  name: "relu3"
  type: "ReLU"
  bottom: "conv3"
  top: "conv3"
}
layer {
  name: "pool3"
  type: "Pooling"
  bottom: "conv3"
  top: "pool3"
  pooling_param {
    pool: MAX
    kernel_size: 3
    stride: 2
  }
}
layer {
  name: "fc4"
  type: "InnerProduct"
  bottom: "pool3"
  top: "fc4"
  param {
    lr_mult: 1
    decay_mult: 0
  }
  param {
    lr_mult: 2
    decay_mult: 0
  }
  inner_product_param {
    num_output: 1024
    weight_filler {
      type: "xavier"
    }
    bias_filler {
      type: "constant"
      value: 0
    }
  }
}
layer {
  name: "relu4"
  type: "ReLU"
  bottom: "fc4"
  top: "fc4"
}
layer {
  name: "dropout4"
  type: "Dropout"
  bottom: "fc4"
  top: "fc4"
  dropout_param {
    dropout_ratio: 0.5
  }
}
layer {
  name: "fc5"
  type: "InnerProduct"
  bottom: "fc4"
  top: "fc5"
  param {
    lr_mult: 1
    decay_mult: 0
  }
  param {
    lr_mult: 2
    decay_mult: 0
  }
  inner_product_param {
    num_output: 20
    weight_filler {
      type: "xavier"
    }
    bias_filler {
      type: "constant"
      value: 0
    }
  }
}
layer {
  name: "loss"
  type: "SoftmaxWithLoss"
  bottom: "fc5"
  bottom: "label"
  top: "loss"
}
layer {
  name: "accuracy"
  type: "Accuracy"
  bottom: "fc5"
  bottom: "label"
  top: "accuracy"
  include {
    phase: TEST
  }
}
I0710 13:36:33.408485  9938 layer_factory.hpp:77] Creating layer data
I0710 13:36:33.408648  9938 net.cpp:91] Creating Layer data
I0710 13:36:33.408660  9938 net.cpp:399] data -> data
I0710 13:36:33.408673  9938 net.cpp:399] data -> label
I0710 13:36:33.408682  9938 data_transformer.cpp:25] Loading mean file from: ../lmdb/mean_file.binaryproto
I0710 13:36:33.409361  9947 db_lmdb.cpp:35] Opened lmdb ../lmdb/val_lmdb
I0710 13:36:33.409559  9938 data_layer.cpp:41] output data size: 128,3,128,128
I0710 13:36:33.464278  9938 net.cpp:141] Setting up data
I0710 13:36:33.464329  9938 net.cpp:148] Top shape: 128 3 128 128 (6291456)
I0710 13:36:33.464336  9938 net.cpp:148] Top shape: 128 (128)
I0710 13:36:33.464341  9938 net.cpp:156] Memory required for data: 25166336
I0710 13:36:33.464354  9938 layer_factory.hpp:77] Creating layer label_data_1_split
I0710 13:36:33.464376  9938 net.cpp:91] Creating Layer label_data_1_split
I0710 13:36:33.464385  9938 net.cpp:425] label_data_1_split <- label
I0710 13:36:33.464397  9938 net.cpp:399] label_data_1_split -> label_data_1_split_0
I0710 13:36:33.464414  9938 net.cpp:399] label_data_1_split -> label_data_1_split_1
I0710 13:36:33.464540  9938 net.cpp:141] Setting up label_data_1_split
I0710 13:36:33.464556  9938 net.cpp:148] Top shape: 128 (128)
I0710 13:36:33.464563  9938 net.cpp:148] Top shape: 128 (128)
I0710 13:36:33.464567  9938 net.cpp:156] Memory required for data: 25167360
I0710 13:36:33.464572  9938 layer_factory.hpp:77] Creating layer conv1
I0710 13:36:33.464597  9938 net.cpp:91] Creating Layer conv1
I0710 13:36:33.464608  9938 net.cpp:425] conv1 <- data
I0710 13:36:33.464619  9938 net.cpp:399] conv1 -> conv1
I0710 13:36:33.470288  9938 net.cpp:141] Setting up conv1
I0710 13:36:33.470316  9938 net.cpp:148] Top shape: 128 64 61 61 (30482432)
I0710 13:36:33.470322  9938 net.cpp:156] Memory required for data: 147097088
I0710 13:36:33.470338  9938 layer_factory.hpp:77] Creating layer relu1
I0710 13:36:33.470350  9938 net.cpp:91] Creating Layer relu1
I0710 13:36:33.470355  9938 net.cpp:425] relu1 <- conv1
I0710 13:36:33.470365  9938 net.cpp:386] relu1 -> conv1 (in-place)
I0710 13:36:33.470525  9938 net.cpp:141] Setting up relu1
I0710 13:36:33.470544  9938 net.cpp:148] Top shape: 128 64 61 61 (30482432)
I0710 13:36:33.470549  9938 net.cpp:156] Memory required for data: 269026816
I0710 13:36:33.470556  9938 layer_factory.hpp:77] Creating layer pool1
I0710 13:36:33.470568  9938 net.cpp:91] Creating Layer pool1
I0710 13:36:33.470574  9938 net.cpp:425] pool1 <- conv1
I0710 13:36:33.470582  9938 net.cpp:399] pool1 -> pool1
I0710 13:36:33.470635  9938 net.cpp:141] Setting up pool1
I0710 13:36:33.470651  9938 net.cpp:148] Top shape: 128 64 30 30 (7372800)
I0710 13:36:33.470656  9938 net.cpp:156] Memory required for data: 298518016
I0710 13:36:33.470661  9938 layer_factory.hpp:77] Creating layer conv2
I0710 13:36:33.470676  9938 net.cpp:91] Creating Layer conv2
I0710 13:36:33.470708  9938 net.cpp:425] conv2 <- pool1
I0710 13:36:33.470721  9938 net.cpp:399] conv2 -> conv2
I0710 13:36:33.473763  9938 net.cpp:141] Setting up conv2
I0710 13:36:33.473788  9938 net.cpp:148] Top shape: 128 128 13 13 (2768896)
I0710 13:36:33.473793  9938 net.cpp:156] Memory required for data: 309593600
I0710 13:36:33.473806  9938 layer_factory.hpp:77] Creating layer relu2
I0710 13:36:33.473816  9938 net.cpp:91] Creating Layer relu2
I0710 13:36:33.473821  9938 net.cpp:425] relu2 <- conv2
I0710 13:36:33.473829  9938 net.cpp:386] relu2 -> conv2 (in-place)
I0710 13:36:33.474097  9938 net.cpp:141] Setting up relu2
I0710 13:36:33.474119  9938 net.cpp:148] Top shape: 128 128 13 13 (2768896)
I0710 13:36:33.474124  9938 net.cpp:156] Memory required for data: 320669184
I0710 13:36:33.474129  9938 layer_factory.hpp:77] Creating layer conv3
I0710 13:36:33.474144  9938 net.cpp:91] Creating Layer conv3
I0710 13:36:33.474150  9938 net.cpp:425] conv3 <- conv2
I0710 13:36:33.474159  9938 net.cpp:399] conv3 -> conv3
I0710 13:36:33.477793  9938 net.cpp:141] Setting up conv3
I0710 13:36:33.477824  9938 net.cpp:148] Top shape: 128 256 11 11 (3964928)
I0710 13:36:33.477830  9938 net.cpp:156] Memory required for data: 336528896
I0710 13:36:33.477849  9938 layer_factory.hpp:77] Creating layer relu3
I0710 13:36:33.477862  9938 net.cpp:91] Creating Layer relu3
I0710 13:36:33.477869  9938 net.cpp:425] relu3 <- conv3
I0710 13:36:33.477875  9938 net.cpp:386] relu3 -> conv3 (in-place)
I0710 13:36:33.478123  9938 net.cpp:141] Setting up relu3
I0710 13:36:33.478143  9938 net.cpp:148] Top shape: 128 256 11 11 (3964928)
I0710 13:36:33.478149  9938 net.cpp:156] Memory required for data: 352388608
I0710 13:36:33.478154  9938 layer_factory.hpp:77] Creating layer pool3
I0710 13:36:33.478164  9938 net.cpp:91] Creating Layer pool3
I0710 13:36:33.478169  9938 net.cpp:425] pool3 <- conv3
I0710 13:36:33.478180  9938 net.cpp:399] pool3 -> pool3
I0710 13:36:33.478240  9938 net.cpp:141] Setting up pool3
I0710 13:36:33.478256  9938 net.cpp:148] Top shape: 128 256 5 5 (819200)
I0710 13:36:33.478261  9938 net.cpp:156] Memory required for data: 355665408
I0710 13:36:33.478266  9938 layer_factory.hpp:77] Creating layer fc4
I0710 13:36:33.478281  9938 net.cpp:91] Creating Layer fc4
I0710 13:36:33.478286  9938 net.cpp:425] fc4 <- pool3
I0710 13:36:33.478293  9938 net.cpp:399] fc4 -> fc4
I0710 13:36:33.541066  9938 net.cpp:141] Setting up fc4
I0710 13:36:33.541112  9938 net.cpp:148] Top shape: 128 1024 (131072)
I0710 13:36:33.541118  9938 net.cpp:156] Memory required for data: 356189696
I0710 13:36:33.541136  9938 layer_factory.hpp:77] Creating layer relu4
I0710 13:36:33.541152  9938 net.cpp:91] Creating Layer relu4
I0710 13:36:33.541159  9938 net.cpp:425] relu4 <- fc4
I0710 13:36:33.541170  9938 net.cpp:386] relu4 -> fc4 (in-place)
I0710 13:36:33.541618  9938 net.cpp:141] Setting up relu4
I0710 13:36:33.541640  9938 net.cpp:148] Top shape: 128 1024 (131072)
I0710 13:36:33.541645  9938 net.cpp:156] Memory required for data: 356713984
I0710 13:36:33.541651  9938 layer_factory.hpp:77] Creating layer dropout4
I0710 13:36:33.541661  9938 net.cpp:91] Creating Layer dropout4
I0710 13:36:33.541666  9938 net.cpp:425] dropout4 <- fc4
I0710 13:36:33.541676  9938 net.cpp:386] dropout4 -> fc4 (in-place)
I0710 13:36:33.541707  9938 net.cpp:141] Setting up dropout4
I0710 13:36:33.541725  9938 net.cpp:148] Top shape: 128 1024 (131072)
I0710 13:36:33.541731  9938 net.cpp:156] Memory required for data: 357238272
I0710 13:36:33.541736  9938 layer_factory.hpp:77] Creating layer fc5
I0710 13:36:33.541746  9938 net.cpp:91] Creating Layer fc5
I0710 13:36:33.541751  9938 net.cpp:425] fc5 <- fc4
I0710 13:36:33.541761  9938 net.cpp:399] fc5 -> fc5
I0710 13:36:33.542079  9938 net.cpp:141] Setting up fc5
I0710 13:36:33.542098  9938 net.cpp:148] Top shape: 128 20 (2560)
I0710 13:36:33.542104  9938 net.cpp:156] Memory required for data: 357248512
I0710 13:36:33.542119  9938 layer_factory.hpp:77] Creating layer fc5_fc5_0_split
I0710 13:36:33.542142  9938 net.cpp:91] Creating Layer fc5_fc5_0_split
I0710 13:36:33.542168  9938 net.cpp:425] fc5_fc5_0_split <- fc5
I0710 13:36:33.542176  9938 net.cpp:399] fc5_fc5_0_split -> fc5_fc5_0_split_0
I0710 13:36:33.542188  9938 net.cpp:399] fc5_fc5_0_split -> fc5_fc5_0_split_1
I0710 13:36:33.542230  9938 net.cpp:141] Setting up fc5_fc5_0_split
I0710 13:36:33.542246  9938 net.cpp:148] Top shape: 128 20 (2560)
I0710 13:36:33.542253  9938 net.cpp:148] Top shape: 128 20 (2560)
I0710 13:36:33.542256  9938 net.cpp:156] Memory required for data: 357268992
I0710 13:36:33.542261  9938 layer_factory.hpp:77] Creating layer loss
I0710 13:36:33.542270  9938 net.cpp:91] Creating Layer loss
I0710 13:36:33.542274  9938 net.cpp:425] loss <- fc5_fc5_0_split_0
I0710 13:36:33.542280  9938 net.cpp:425] loss <- label_data_1_split_0
I0710 13:36:33.542292  9938 net.cpp:399] loss -> loss
…
