…
I0710 12:40:49.359498  9866 net.cpp:313] The NetState phase (0) differed from the phase (1) specified by a rule in layer data
I0710 12:40:49.359527  9866 net.cpp:313] The NetState phase (0) differed from the phase (1) specified by a rule in layer accuracy
I0710 12:40:49.359686  9866 net.cpp:49] Initializing net from parameters: 
name: "Model2"
state {
  phase: TRAIN
}
layer {
  name: "data"
  type: "Data"
  top: "data"
  top: "label"
  include {
    phase: TRAIN
  }
  transform_param {
    mirror: true
    mean_file: "../lmdb/mean_file.binaryproto"
  }
  data_param {
    source: "../lmdb/train_lmdb"
    batch_size: 256
    backend: LMDB
  }
}
layer {
  name: "conv1"
  type: "Convolution"
  bottom: "data"
  top: "conv1"
  param {
    lr_mult: 1
    decay_mult: 0
  }
  param {
    lr_mult: 2
    decay_mult: 0
  }
  convolution_param {
    num_output: 64
    kernel_size: 7
    stride: 2
    weight_filler {
      type: "xavier"
    }
    bias_filler {
      type: "constant"
      value: 0.1
    }
  }
}
layer {
  name: "relu1"
  type: "ReLU"
  bottom: "conv1"
  top: "conv1"
}
layer {
  name: "pool1"
  type: "Pooling"
  bottom: "conv1"
  top: "pool1"
  pooling_param {
    pool: MAX
    kernel_size: 3
    stride: 2
  }
}
layer {
  name: "conv2"
  type: "Convolution"
  bottom: "pool1"
  top: "conv2"
  param {
    lr_mult: 1
    decay_mult: 0
  }
  param {
    lr_mult: 2
    decay_mult: 0
  }
  convolution_param {
    num_output: 128
    kernel_size: 5
    stride: 2
    weight_filler {
      type: "xavier"
    }
    bias_filler {
      type: "constant"
      value: 0.1
    }
  }
}
layer {
  name: "relu2"
  type: "ReLU"
  bottom: "conv2"
  top: "conv2"
}
layer {
  name: "conv3"
  type: "Convolution"
  bottom: "conv2"
  top: "conv3"
  param {
    lr_mult: 1
    decay_mult: 0
  }
  param {
    lr_mult: 2
    decay_mult: 0
  }
  convolution_param {
    num_output: 256
    kernel_size: 3
    stride: 1
    weight_filler {
      type: "xavier"
    }
    bias_filler {
      type: "constant"
      value: 0.1
    }
  }
}
layer {
  name: "relu3"
  type: "ReLU"
  bottom: "conv3"
  top: "conv3"
}
layer {
  name: "pool3"
  type: "Pooling"
  bottom: "conv3"
  top: "pool3"
  pooling_param {
    pool: MAX
    kernel_size: 3
    stride: 2
  }
}
layer {
  name: "fc4"
  type: "InnerProduct"
  bottom: "pool3"
  top: "fc4"
  param {
    lr_mult: 1
    decay_mult: 0
  }
  param {
    lr_mult: 2
    decay_mult: 0
  }
  inner_product_param {
    num_output: 1024
    weight_filler {
      type: "xavier"
    }
    bias_filler {
      type: "constant"
      value: 0
    }
  }
}
layer {
  name: "relu4"
  type: "ReLU"
  bottom: "fc4"
  top: "fc4"
}
layer {
  name: "dropout4"
  type: "Dropout"
  bottom: "fc4"
  top: "fc4"
  dropout_param {
    dropout_ratio: 0.5
  }
}
layer {
  name: "fc5"
  type: "InnerProduct"
  bottom: "fc4"
  top: "fc5"
  param {
    lr_mult: 1
    decay_mult: 0
  }
  param {
    lr_mult: 2
    decay_mult: 0
  }
  inner_product_param {
    num_output: 20
    weight_filler {
      type: "xavier"
    }
    bias_filler {
      type: "constant"
      value: 0
    }
  }
}
layer {
  name: "loss"
  type: "SoftmaxWithLoss"
  bottom: "fc5"
  bottom: "label"
  top: "loss"
}
layer {
  name: "accuracy"
  type: "Accuracy"
  bottom: "fc5"
  bottom: "label"
  top: "accuracy"
  include {
    phase: TRAIN
  }
}
I0710 12:40:49.359848  9866 layer_factory.hpp:77] Creating layer data
I0710 12:40:49.360533  9866 net.cpp:91] Creating Layer data
I0710 12:40:49.360565  9866 net.cpp:399] data -> data
I0710 12:40:49.360608  9866 net.cpp:399] data -> label
I0710 12:40:49.360637  9866 data_transformer.cpp:25] Loading mean file from: ../lmdb/mean_file.binaryproto
I0710 12:40:49.361264  9873 db_lmdb.cpp:35] Opened lmdb ../lmdb/train_lmdb
I0710 12:40:49.374346  9866 data_layer.cpp:41] output data size: 256,3,128,128
I0710 12:40:49.485507  9866 net.cpp:141] Setting up data
I0710 12:40:49.485569  9866 net.cpp:148] Top shape: 256 3 128 128 (12582912)
I0710 12:40:49.485579  9866 net.cpp:148] Top shape: 256 (256)
I0710 12:40:49.485584  9866 net.cpp:156] Memory required for data: 50332672
I0710 12:40:49.485599  9866 layer_factory.hpp:77] Creating layer label_data_1_split
I0710 12:40:49.485625  9866 net.cpp:91] Creating Layer label_data_1_split
I0710 12:40:49.485640  9866 net.cpp:425] label_data_1_split <- label
I0710 12:40:49.485661  9866 net.cpp:399] label_data_1_split -> label_data_1_split_0
I0710 12:40:49.485685  9866 net.cpp:399] label_data_1_split -> label_data_1_split_1
I0710 12:40:49.485744  9866 net.cpp:141] Setting up label_data_1_split
I0710 12:40:49.485760  9866 net.cpp:148] Top shape: 256 (256)
I0710 12:40:49.485766  9866 net.cpp:148] Top shape: 256 (256)
I0710 12:40:49.485771  9866 net.cpp:156] Memory required for data: 50334720
I0710 12:40:49.485776  9866 layer_factory.hpp:77] Creating layer conv1
I0710 12:40:49.485808  9866 net.cpp:91] Creating Layer conv1
I0710 12:40:49.485819  9866 net.cpp:425] conv1 <- data
I0710 12:40:49.485831  9866 net.cpp:399] conv1 -> conv1
I0710 12:40:49.673307  9866 net.cpp:141] Setting up conv1
I0710 12:40:49.673358  9866 net.cpp:148] Top shape: 256 64 61 61 (60964864)
I0710 12:40:49.673365  9866 net.cpp:156] Memory required for data: 294194176
I0710 12:40:49.673398  9866 layer_factory.hpp:77] Creating layer relu1
I0710 12:40:49.673418  9866 net.cpp:91] Creating Layer relu1
I0710 12:40:49.673426  9866 net.cpp:425] relu1 <- conv1
I0710 12:40:49.673435  9866 net.cpp:386] relu1 -> conv1 (in-place)
I0710 12:40:49.673616  9866 net.cpp:141] Setting up relu1
I0710 12:40:49.673636  9866 net.cpp:148] Top shape: 256 64 61 61 (60964864)
I0710 12:40:49.673642  9866 net.cpp:156] Memory required for data: 538053632
I0710 12:40:49.673648  9866 layer_factory.hpp:77] Creating layer pool1
I0710 12:40:49.673669  9866 net.cpp:91] Creating Layer pool1
I0710 12:40:49.673677  9866 net.cpp:425] pool1 <- conv1
I0710 12:40:49.673686  9866 net.cpp:399] pool1 -> pool1
I0710 12:40:49.673760  9866 net.cpp:141] Setting up pool1
I0710 12:40:49.673784  9866 net.cpp:148] Top shape: 256 64 30 30 (14745600)
I0710 12:40:49.673789  9866 net.cpp:156] Memory required for data: 597036032
I0710 12:40:49.673794  9866 layer_factory.hpp:77] Creating layer conv2
I0710 12:40:49.673810  9866 net.cpp:91] Creating Layer conv2
I0710 12:40:49.673815  9866 net.cpp:425] conv2 <- pool1
I0710 12:40:49.673823  9866 net.cpp:399] conv2 -> conv2
I0710 12:40:49.676795  9866 net.cpp:141] Setting up conv2
I0710 12:40:49.676827  9866 net.cpp:148] Top shape: 256 128 13 13 (5537792)
I0710 12:40:49.676833  9866 net.cpp:156] Memory required for data: 619187200
I0710 12:40:49.676846  9866 layer_factory.hpp:77] Creating layer relu2
I0710 12:40:49.676854  9866 net.cpp:91] Creating Layer relu2
I0710 12:40:49.676859  9866 net.cpp:425] relu2 <- conv2
I0710 12:40:49.676867  9866 net.cpp:386] relu2 -> conv2 (in-place)
I0710 12:40:49.677129  9866 net.cpp:141] Setting up relu2
I0710 12:40:49.677148  9866 net.cpp:148] Top shape: 256 128 13 13 (5537792)
I0710 12:40:49.677153  9866 net.cpp:156] Memory required for data: 641338368
I0710 12:40:49.677160  9866 layer_factory.hpp:77] Creating layer conv3
I0710 12:40:49.677175  9866 net.cpp:91] Creating Layer conv3
I0710 12:40:49.677181  9866 net.cpp:425] conv3 <- conv2
I0710 12:40:49.677192  9866 net.cpp:399] conv3 -> conv3
I0710 12:40:49.680802  9866 net.cpp:141] Setting up conv3
I0710 12:40:49.680825  9866 net.cpp:148] Top shape: 256 256 11 11 (7929856)
I0710 12:40:49.680831  9866 net.cpp:156] Memory required for data: 673057792
I0710 12:40:49.680843  9866 layer_factory.hpp:77] Creating layer relu3
I0710 12:40:49.680853  9866 net.cpp:91] Creating Layer relu3
I0710 12:40:49.680858  9866 net.cpp:425] relu3 <- conv3
I0710 12:40:49.680899  9866 net.cpp:386] relu3 -> conv3 (in-place)
I0710 12:40:49.681156  9866 net.cpp:141] Setting up relu3
I0710 12:40:49.681176  9866 net.cpp:148] Top shape: 256 256 11 11 (7929856)
I0710 12:40:49.681182  9866 net.cpp:156] Memory required for data: 704777216
I0710 12:40:49.681187  9866 layer_factory.hpp:77] Creating layer pool3
I0710 12:40:49.681195  9866 net.cpp:91] Creating Layer pool3
I0710 12:40:49.681200  9866 net.cpp:425] pool3 <- conv3
I0710 12:40:49.681211  9866 net.cpp:399] pool3 -> pool3
I0710 12:40:49.681267  9866 net.cpp:141] Setting up pool3
I0710 12:40:49.681284  9866 net.cpp:148] Top shape: 256 256 5 5 (1638400)
I0710 12:40:49.681289  9866 net.cpp:156] Memory required for data: 711330816
I0710 12:40:49.681294  9866 layer_factory.hpp:77] Creating layer fc4
I0710 12:40:49.681309  9866 net.cpp:91] Creating Layer fc4
I0710 12:40:49.681314  9866 net.cpp:425] fc4 <- pool3
I0710 12:40:49.681324  9866 net.cpp:399] fc4 -> fc4
I0710 12:40:49.742568  9866 net.cpp:141] Setting up fc4
I0710 12:40:49.742624  9866 net.cpp:148] Top shape: 256 1024 (262144)
I0710 12:40:49.742630  9866 net.cpp:156] Memory required for data: 712379392
I0710 12:40:49.742646  9866 layer_factory.hpp:77] Creating layer relu4
I0710 12:40:49.742663  9866 net.cpp:91] Creating Layer relu4
I0710 12:40:49.742671  9866 net.cpp:425] relu4 <- fc4
I0710 12:40:49.742689  9866 net.cpp:386] relu4 -> fc4 (in-place)
I0710 12:40:49.742977  9866 net.cpp:141] Setting up relu4
I0710 12:40:49.742997  9866 net.cpp:148] Top shape: 256 1024 (262144)
I0710 12:40:49.743003  9866 net.cpp:156] Memory required for data: 713427968
I0710 12:40:49.743008  9866 layer_factory.hpp:77] Creating layer dropout4
I0710 12:40:49.743024  9866 net.cpp:91] Creating Layer dropout4
I0710 12:40:49.743031  9866 net.cpp:425] dropout4 <- fc4
I0710 12:40:49.743037  9866 net.cpp:386] dropout4 -> fc4 (in-place)
I0710 12:40:49.743074  9866 net.cpp:141] Setting up dropout4
I0710 12:40:49.743090  9866 net.cpp:148] Top shape: 256 1024 (262144)
I0710 12:40:49.743094  9866 net.cpp:156] Memory required for data: 714476544
I0710 12:40:49.743099  9866 layer_factory.hpp:77] Creating layer fc5
I0710 12:40:49.743115  9866 net.cpp:91] Creating Layer fc5
I0710 12:40:49.743120  9866 net.cpp:425] fc5 <- fc4
I0710 12:40:49.743131  9866 net.cpp:399] fc5 -> fc5
I0710 12:40:49.743407  9866 net.cpp:141] Setting up fc5
I0710 12:40:49.743427  9866 net.cpp:148] Top shape: 256 20 (5120)
I0710 12:40:49.743432  9866 net.cpp:156] Memory required for data: 714497024
I0710 12:40:49.743448  9866 layer_factory.hpp:77] Creating layer fc5_fc5_0_split
I0710 12:40:49.743460  9866 net.cpp:91] Creating Layer fc5_fc5_0_split
I0710 12:40:49.743465  9866 net.cpp:425] fc5_fc5_0_split <- fc5
I0710 12:40:49.743471  9866 net.cpp:399] fc5_fc5_0_split -> fc5_fc5_0_split_0
I0710 12:40:49.743479  9866 net.cpp:399] fc5_fc5_0_split -> fc5_fc5_0_split_1
I0710 12:40:49.743520  9866 net.cpp:141] Setting up fc5_fc5_0_split
I0710 12:40:49.743535  9866 net.cpp:148] Top shape: 256 20 (5120)
I0710 12:40:49.743541  9866 net.cpp:148] Top shape: 256 20 (5120)
I0710 12:40:49.743546  9866 net.cpp:156] Memory required for data: 714537984
I0710 12:40:49.743551  9866 layer_factory.hpp:77] Creating layer loss
I0710 12:40:49.743562  9866 net.cpp:91] Creating Layer loss
I0710 12:40:49.743566  9866 net.cpp:425] loss <- fc5_fc5_0_split_0
I0710 12:40:49.743573  9866 net.cpp:425] loss <- label_data_1_split_0
I0710 12:40:49.743583  9866 net.cpp:399] loss -> loss
…
I0710 12:40:49.744966  9866 net.cpp:313] The NetState phase (1) differed from the phase (0) specified by a rule in layer data
I0710 12:40:49.744992  9866 net.cpp:313] The NetState phase (1) differed from the phase (0) specified by a rule in layer accuracy
I0710 12:40:49.745141  9866 net.cpp:49] Initializing net from parameters: 
name: "Model2"
state {
  phase: TEST
}
layer {
  name: "data"
  type: "Data"
  top: "data"
  top: "label"
  include {
    phase: TEST
  }
  transform_param {
    mirror: false
    mean_file: "../lmdb/mean_file.binaryproto"
  }
  data_param {
    source: "../lmdb/val_lmdb"
    batch_size: 128
    backend: LMDB
  }
}
layer {
  name: "conv1"
  type: "Convolution"
  bottom: "data"
  top: "conv1"
  param {
    lr_mult: 1
    decay_mult: 0
  }
  param {
    lr_mult: 2
    decay_mult: 0
  }
  convolution_param {
    num_output: 64
    kernel_size: 7
    stride: 2
    weight_filler {
      type: "xavier"
    }
    bias_filler {
      type: "constant"
      value: 0.1
    }
  }
}
layer {
  name: "relu1"
  type: "ReLU"
  bottom: "conv1"
  top: "conv1"
}
layer {
  name: "pool1"
  type: "Pooling"
  bottom: "conv1"
  top: "pool1"
  pooling_param {
    pool: MAX
    kernel_size: 3
    stride: 2
  }
}
layer {
  name: "conv2"
  type: "Convolution"
  bottom: "pool1"
  top: "conv2"
  param {
    lr_mult: 1
    decay_mult: 0
  }
  param {
    lr_mult: 2
    decay_mult: 0
  }
  convolution_param {
    num_output: 128
    kernel_size: 5
    stride: 2
    weight_filler {
      type: "xavier"
    }
    bias_filler {
      type: "constant"
      value: 0.1
    }
  }
}
layer {
  name: "relu2"
  type: "ReLU"
  bottom: "conv2"
  top: "conv2"
}
layer {
  name: "conv3"
  type: "Convolution"
  bottom: "conv2"
  top: "conv3"
  param {
    lr_mult: 1
    decay_mult: 0
  }
  param {
    lr_mult: 2
    decay_mult: 0
  }
  convolution_param {
    num_output: 256
    kernel_size: 3
    stride: 1
    weight_filler {
      type: "xavier"
    }
    bias_filler {
      type: "constant"
      value: 0.1
    }
  }
}
layer {
  name: "relu3"
  type: "ReLU"
  bottom: "conv3"
  top: "conv3"
}
layer {
  name: "pool3"
  type: "Pooling"
  bottom: "conv3"
  top: "pool3"
  pooling_param {
    pool: MAX
    kernel_size: 3
    stride: 2
  }
}
layer {
  name: "fc4"
  type: "InnerProduct"
  bottom: "pool3"
  top: "fc4"
  param {
    lr_mult: 1
    decay_mult: 0
  }
  param {
    lr_mult: 2
    decay_mult: 0
  }
  inner_product_param {
    num_output: 1024
    weight_filler {
      type: "xavier"
    }
    bias_filler {
      type: "constant"
      value: 0
    }
  }
}
layer {
  name: "relu4"
  type: "ReLU"
  bottom: "fc4"
  top: "fc4"
}
layer {
  name: "dropout4"
  type: "Dropout"
  bottom: "fc4"
  top: "fc4"
  dropout_param {
    dropout_ratio: 0.5
  }
}
layer {
  name: "fc5"
  type: "InnerProduct"
  bottom: "fc4"
  top: "fc5"
  param {
    lr_mult: 1
    decay_mult: 0
  }
  param {
    lr_mult: 2
    decay_mult: 0
  }
  inner_product_param {
    num_output: 20
    weight_filler {
      type: "xavier"
    }
    bias_filler {
      type: "constant"
      value: 0
    }
  }
}
layer {
  name: "loss"
  type: "SoftmaxWithLoss"
  bottom: "fc5"
  bottom: "label"
  top: "loss"
}
layer {
  name: "accuracy"
  type: "Accuracy"
  bottom: "fc5"
  bottom: "label"
  top: "accuracy"
  include {
    phase: TEST
  }
}
I0710 12:40:49.745268  9866 layer_factory.hpp:77] Creating layer data
I0710 12:40:49.745421  9866 net.cpp:91] Creating Layer data
I0710 12:40:49.745434  9866 net.cpp:399] data -> data
I0710 12:40:49.745445  9866 net.cpp:399] data -> label
I0710 12:40:49.745457  9866 data_transformer.cpp:25] Loading mean file from: ../lmdb/mean_file.binaryproto
I0710 12:40:49.746151  9875 db_lmdb.cpp:35] Opened lmdb ../lmdb/val_lmdb
I0710 12:40:49.746338  9866 data_layer.cpp:41] output data size: 128,3,128,128
I0710 12:40:49.795848  9866 net.cpp:141] Setting up data
I0710 12:40:49.795898  9866 net.cpp:148] Top shape: 128 3 128 128 (6291456)
I0710 12:40:49.795905  9866 net.cpp:148] Top shape: 128 (128)
I0710 12:40:49.795910  9866 net.cpp:156] Memory required for data: 25166336
I0710 12:40:49.795922  9866 layer_factory.hpp:77] Creating layer label_data_1_split
I0710 12:40:49.795943  9866 net.cpp:91] Creating Layer label_data_1_split
I0710 12:40:49.795950  9866 net.cpp:425] label_data_1_split <- label
I0710 12:40:49.795961  9866 net.cpp:399] label_data_1_split -> label_data_1_split_0
I0710 12:40:49.795990  9866 net.cpp:399] label_data_1_split -> label_data_1_split_1
I0710 12:40:49.796149  9866 net.cpp:141] Setting up label_data_1_split
I0710 12:40:49.796176  9866 net.cpp:148] Top shape: 128 (128)
I0710 12:40:49.796187  9866 net.cpp:148] Top shape: 128 (128)
I0710 12:40:49.796192  9866 net.cpp:156] Memory required for data: 25167360
I0710 12:40:49.796197  9866 layer_factory.hpp:77] Creating layer conv1
I0710 12:40:49.796219  9866 net.cpp:91] Creating Layer conv1
I0710 12:40:49.796231  9866 net.cpp:425] conv1 <- data
I0710 12:40:49.796241  9866 net.cpp:399] conv1 -> conv1
I0710 12:40:49.801853  9866 net.cpp:141] Setting up conv1
I0710 12:40:49.801877  9866 net.cpp:148] Top shape: 128 64 61 61 (30482432)
I0710 12:40:49.801883  9866 net.cpp:156] Memory required for data: 147097088
I0710 12:40:49.801898  9866 layer_factory.hpp:77] Creating layer relu1
I0710 12:40:49.801910  9866 net.cpp:91] Creating Layer relu1
I0710 12:40:49.801921  9866 net.cpp:425] relu1 <- conv1
I0710 12:40:49.801929  9866 net.cpp:386] relu1 -> conv1 (in-place)
I0710 12:40:49.802084  9866 net.cpp:141] Setting up relu1
I0710 12:40:49.802103  9866 net.cpp:148] Top shape: 128 64 61 61 (30482432)
I0710 12:40:49.802109  9866 net.cpp:156] Memory required for data: 269026816
I0710 12:40:49.802114  9866 layer_factory.hpp:77] Creating layer pool1
I0710 12:40:49.802125  9866 net.cpp:91] Creating Layer pool1
I0710 12:40:49.802130  9866 net.cpp:425] pool1 <- conv1
I0710 12:40:49.802137  9866 net.cpp:399] pool1 -> pool1
I0710 12:40:49.802187  9866 net.cpp:141] Setting up pool1
I0710 12:40:49.802203  9866 net.cpp:148] Top shape: 128 64 30 30 (7372800)
I0710 12:40:49.802208  9866 net.cpp:156] Memory required for data: 298518016
I0710 12:40:49.802213  9866 layer_factory.hpp:77] Creating layer conv2
I0710 12:40:49.802227  9866 net.cpp:91] Creating Layer conv2
I0710 12:40:49.802258  9866 net.cpp:425] conv2 <- pool1
I0710 12:40:49.802268  9866 net.cpp:399] conv2 -> conv2
I0710 12:40:49.805276  9866 net.cpp:141] Setting up conv2
I0710 12:40:49.805300  9866 net.cpp:148] Top shape: 128 128 13 13 (2768896)
I0710 12:40:49.805305  9866 net.cpp:156] Memory required for data: 309593600
I0710 12:40:49.805318  9866 layer_factory.hpp:77] Creating layer relu2
I0710 12:40:49.805327  9866 net.cpp:91] Creating Layer relu2
I0710 12:40:49.805332  9866 net.cpp:425] relu2 <- conv2
I0710 12:40:49.805341  9866 net.cpp:386] relu2 -> conv2 (in-place)
I0710 12:40:49.805586  9866 net.cpp:141] Setting up relu2
I0710 12:40:49.805608  9866 net.cpp:148] Top shape: 128 128 13 13 (2768896)
I0710 12:40:49.805613  9866 net.cpp:156] Memory required for data: 320669184
I0710 12:40:49.805620  9866 layer_factory.hpp:77] Creating layer conv3
I0710 12:40:49.805634  9866 net.cpp:91] Creating Layer conv3
I0710 12:40:49.805639  9866 net.cpp:425] conv3 <- conv2
I0710 12:40:49.805649  9866 net.cpp:399] conv3 -> conv3
I0710 12:40:49.810106  9866 net.cpp:141] Setting up conv3
I0710 12:40:49.810137  9866 net.cpp:148] Top shape: 128 256 11 11 (3964928)
I0710 12:40:49.810143  9866 net.cpp:156] Memory required for data: 336528896
I0710 12:40:49.810163  9866 layer_factory.hpp:77] Creating layer relu3
I0710 12:40:49.810175  9866 net.cpp:91] Creating Layer relu3
I0710 12:40:49.810181  9866 net.cpp:425] relu3 <- conv3
I0710 12:40:49.810189  9866 net.cpp:386] relu3 -> conv3 (in-place)
I0710 12:40:49.810443  9866 net.cpp:141] Setting up relu3
I0710 12:40:49.810464  9866 net.cpp:148] Top shape: 128 256 11 11 (3964928)
I0710 12:40:49.810469  9866 net.cpp:156] Memory required for data: 352388608
I0710 12:40:49.810474  9866 layer_factory.hpp:77] Creating layer pool3
I0710 12:40:49.810487  9866 net.cpp:91] Creating Layer pool3
I0710 12:40:49.810493  9866 net.cpp:425] pool3 <- conv3
I0710 12:40:49.810500  9866 net.cpp:399] pool3 -> pool3
I0710 12:40:49.810564  9866 net.cpp:141] Setting up pool3
I0710 12:40:49.810580  9866 net.cpp:148] Top shape: 128 256 5 5 (819200)
I0710 12:40:49.810585  9866 net.cpp:156] Memory required for data: 355665408
I0710 12:40:49.810590  9866 layer_factory.hpp:77] Creating layer fc4
I0710 12:40:49.810605  9866 net.cpp:91] Creating Layer fc4
I0710 12:40:49.810612  9866 net.cpp:425] fc4 <- pool3
I0710 12:40:49.810621  9866 net.cpp:399] fc4 -> fc4
I0710 12:40:49.873890  9866 net.cpp:141] Setting up fc4
I0710 12:40:49.873941  9866 net.cpp:148] Top shape: 128 1024 (131072)
I0710 12:40:49.873947  9866 net.cpp:156] Memory required for data: 356189696
I0710 12:40:49.873963  9866 layer_factory.hpp:77] Creating layer relu4
I0710 12:40:49.873981  9866 net.cpp:91] Creating Layer relu4
I0710 12:40:49.873989  9866 net.cpp:425] relu4 <- fc4
I0710 12:40:49.874001  9866 net.cpp:386] relu4 -> fc4 (in-place)
I0710 12:40:49.874490  9866 net.cpp:141] Setting up relu4
I0710 12:40:49.874511  9866 net.cpp:148] Top shape: 128 1024 (131072)
I0710 12:40:49.874516  9866 net.cpp:156] Memory required for data: 356713984
I0710 12:40:49.874521  9866 layer_factory.hpp:77] Creating layer dropout4
I0710 12:40:49.874536  9866 net.cpp:91] Creating Layer dropout4
I0710 12:40:49.874541  9866 net.cpp:425] dropout4 <- fc4
I0710 12:40:49.874548  9866 net.cpp:386] dropout4 -> fc4 (in-place)
I0710 12:40:49.874578  9866 net.cpp:141] Setting up dropout4
I0710 12:40:49.874598  9866 net.cpp:148] Top shape: 128 1024 (131072)
I0710 12:40:49.874603  9866 net.cpp:156] Memory required for data: 357238272
I0710 12:40:49.874608  9866 layer_factory.hpp:77] Creating layer fc5
I0710 12:40:49.874619  9866 net.cpp:91] Creating Layer fc5
I0710 12:40:49.874624  9866 net.cpp:425] fc5 <- fc4
I0710 12:40:49.874634  9866 net.cpp:399] fc5 -> fc5
I0710 12:40:49.874961  9866 net.cpp:141] Setting up fc5
I0710 12:40:49.874981  9866 net.cpp:148] Top shape: 128 20 (2560)
I0710 12:40:49.874986  9866 net.cpp:156] Memory required for data: 357248512
I0710 12:40:49.875001  9866 layer_factory.hpp:77] Creating layer fc5_fc5_0_split
I0710 12:40:49.875018  9866 net.cpp:91] Creating Layer fc5_fc5_0_split
I0710 12:40:49.875048  9866 net.cpp:425] fc5_fc5_0_split <- fc5
I0710 12:40:49.875057  9866 net.cpp:399] fc5_fc5_0_split -> fc5_fc5_0_split_0
I0710 12:40:49.875071  9866 net.cpp:399] fc5_fc5_0_split -> fc5_fc5_0_split_1
I0710 12:40:49.875113  9866 net.cpp:141] Setting up fc5_fc5_0_split
I0710 12:40:49.875129  9866 net.cpp:148] Top shape: 128 20 (2560)
I0710 12:40:49.875135  9866 net.cpp:148] Top shape: 128 20 (2560)
I0710 12:40:49.875139  9866 net.cpp:156] Memory required for data: 357268992
I0710 12:40:49.875144  9866 layer_factory.hpp:77] Creating layer loss
I0710 12:40:49.875152  9866 net.cpp:91] Creating Layer loss
I0710 12:40:49.875157  9866 net.cpp:425] loss <- fc5_fc5_0_split_0
I0710 12:40:49.875164  9866 net.cpp:425] loss <- label_data_1_split_0
I0710 12:40:49.875174  9866 net.cpp:399] loss -> loss
…
