…
I0711 04:24:10.581435  2030 net.cpp:313] The NetState phase (0) differed from the phase (1) specified by a rule in layer data
I0711 04:24:10.581477  2030 net.cpp:313] The NetState phase (0) differed from the phase (1) specified by a rule in layer accuracy_test
I0711 04:24:10.581723  2030 net.cpp:49] Initializing net from parameters: 
name: "Model3"
state {
  phase: TRAIN
}
layer {
  name: "data"
  type: "Data"
  top: "data"
  top: "label"
  include {
    phase: TRAIN
  }
  transform_param {
    mirror: true
    mean_file: "../lmdb/mean_file.binaryproto"
  }
  data_param {
    source: "../lmdb/train_lmdb"
    batch_size: 256
    backend: LMDB
  }
}
layer {
  name: "conv1"
  type: "Convolution"
  bottom: "data"
  top: "conv1"
  param {
    lr_mult: 0
    decay_mult: 1
  }
  param {
    lr_mult: 0
    decay_mult: 0
  }
  convolution_param {
    num_output: 96
    kernel_size: 11
    stride: 4
    weight_filler {
      type: "gaussian"
      std: 0.01
    }
    bias_filler {
      type: "constant"
      value: 0
    }
  }
}
layer {
  name: "relu1"
  type: "ReLU"
  bottom: "conv1"
  top: "conv1"
}
layer {
  name: "norm1"
  type: "LRN"
  bottom: "conv1"
  top: "norm1"
  lrn_param {
    local_size: 5
    alpha: 0.0001
    beta: 0.75
  }
}
layer {
  name: "pool1"
  type: "Pooling"
  bottom: "norm1"
  top: "pool1"
  pooling_param {
    pool: MAX
    kernel_size: 3
    stride: 2
  }
}
layer {
  name: "conv2"
  type: "Convolution"
  bottom: "pool1"
  top: "conv2"
  param {
    lr_mult: 0
    decay_mult: 1
  }
  param {
    lr_mult: 0
    decay_mult: 0
  }
  convolution_param {
    num_output: 256
    pad: 2
    kernel_size: 5
    group: 2
    weight_filler {
      type: "gaussian"
      std: 0.01
    }
    bias_filler {
      type: "constant"
      value: 0.1
    }
  }
}
layer {
  name: "relu2"
  type: "ReLU"
  bottom: "conv2"
  top: "conv2"
}
layer {
  name: "norm2"
  type: "LRN"
  bottom: "conv2"
  top: "norm2"
  lrn_param {
    local_size: 5
    alpha: 0.0001
    beta: 0.75
  }
}
layer {
  name: "pool2"
  type: "Pooling"
  bottom: "norm2"
  top: "pool2"
  pooling_param {
    pool: MAX
    kernel_size: 3
    stride: 2
  }
}
layer {
  name: "conv3"
  type: "Convolution"
  bottom: "pool2"
  top: "conv3"
  param {
    lr_mult: 0
    decay_mult: 1
  }
  param {
    lr_mult: 0
    decay_mult: 0
  }
  convolution_param {
    num_output: 384
    pad: 1
    kernel_size: 3
    weight_filler {
      type: "gaussian"
      std: 0.01
    }
    bias_filler {
      type: "constant"
      value: 0
    }
  }
}
layer {
  name: "relu3"
  type: "ReLU"
  bottom: "conv3"
  top: "conv3"
}
layer {
  name: "conv4"
  type: "Convolution"
  bottom: "conv3"
  top: "conv4"
  param {
    lr_mult: 0
    decay_mult: 1
  }
  param {
    lr_mult: 0
    decay_mult: 0
  }
  convolution_param {
    num_output: 384
    pad: 1
    kernel_size: 3
    group: 2
    weight_filler {
      type: "gaussian"
      std: 0.01
    }
    bias_filler {
      type: "constant"
      value: 0.1
    }
  }
}
layer {
  name: "relu4"
  type: "ReLU"
  bottom: "conv4"
  top: "conv4"
}
layer {
  name: "conv5"
  type: "Convolution"
  bottom: "conv4"
  top: "conv5"
  param {
    lr_mult: 0
    decay_mult: 1
  }
  param {
    lr_mult: 0
    decay_mult: 0
  }
  convolution_param {
    num_output: 256
    pad: 1
    kernel_size: 3
    group: 2
    weight_filler {
      type: "gaussian"
      std: 0.01
    }
    bias_filler {
      type: "constant"
      value: 0.1
    }
  }
}
layer {
  name: "relu5"
  type: "ReLU"
  bottom: "conv5"
  top: "conv5"
}
layer {
  name: "pool5"
  type: "Pooling"
  bottom: "conv5"
  top: "pool5"
  pooling_param {
    pool: MAX
    kernel_size: 3
    stride: 2
  }
}
layer {
  name: "model3_fc6"
  type: "InnerProduct"
  bottom: "pool5"
  top: "model3_fc6"
  param {
    lr_mult: 1
    decay_mult: 1
  }
  param {
    lr_mult: 2
    decay_mult: 0
  }
  inner_product_param {
    num_output: 4096
    weight_filler {
      type: "gaussian"
      std: 0.005
    }
    bias_filler {
      type: "constant"
      value: 0.1
    }
  }
}
layer {
  name: "relu6"
  type: "ReLU"
  bottom: "model3_fc6"
  top: "model3_fc6"
}
layer {
  name: "drop6"
  type: "Dropout"
  bottom: "model3_fc6"
  top: "model3_fc6"
  dropout_param {
    dropout_ratio: 0.5
  }
}
layer {
  name: "model3_fc7"
  type: "InnerProduct"
  bottom: "model3_fc6"
  top: "model3_fc7"
  param {
    lr_mult: 1
    decay_mult: 1
  }
  param {
    lr_mult: 2
    decay_mult: 0
  }
  inner_product_param {
    num_output: 4096
    weight_filler {
      type: "gaussian"
      std: 0.005
    }
    bias_filler {
      type: "constant"
      value: 0.1
    }
  }
}
layer {
  name: "relu7"
  type: "ReLU"
  bottom: "model3_fc7"
  top: "model3_fc7"
}
layer {
  name: "drop7"
  type: "Dropout"
  bottom: "model3_fc7"
  top: "model3_fc7"
  dropout_param {
    dropout_ratio: 0.5
  }
}
layer {
  name: "model3_fc8"
  type: "InnerProduct"
  bottom: "model3_fc7"
  top: "model3_fc8"
  param {
    lr_mult: 1
    decay_mult: 1
  }
  param {
    lr_mult: 2
    decay_mult: 0
  }
  inner_product_param {
    num_output: 20
    weight_filler {
      type: "gaussian"
      std: 0.01
    }
    bias_filler {
      type: "constant"
      value: 0
    }
  }
}
layer {
  name: "accuracy_train"
  type: "Accuracy"
  bottom: "model3_fc8"
  bottom: "label"
  top: "accuracy_train"
  include {
    phase: TRAIN
  }
}
layer {
  name: "loss"
  type: "SoftmaxWithLoss"
  bottom: "model3_fc8"
  bottom: "label"
  top: "loss"
}
I0711 04:24:10.581938  2030 layer_factory.hpp:77] Creating layer data
I0711 04:24:10.582579  2030 net.cpp:91] Creating Layer data
I0711 04:24:10.582603  2030 net.cpp:399] data -> data
I0711 04:24:10.582687  2030 net.cpp:399] data -> label
I0711 04:24:10.582712  2030 data_transformer.cpp:25] Loading mean file from: ../lmdb/mean_file.binaryproto
I0711 04:24:10.583330  2037 db_lmdb.cpp:35] Opened lmdb ../lmdb/train_lmdb
I0711 04:24:10.596019  2030 data_layer.cpp:41] output data size: 256,3,128,128
I0711 04:24:10.688594  2030 net.cpp:141] Setting up data
I0711 04:24:10.688657  2030 net.cpp:148] Top shape: 256 3 128 128 (12582912)
I0711 04:24:10.688665  2030 net.cpp:148] Top shape: 256 (256)
I0711 04:24:10.688670  2030 net.cpp:156] Memory required for data: 50332672
I0711 04:24:10.688686  2030 layer_factory.hpp:77] Creating layer label_data_1_split
I0711 04:24:10.688710  2030 net.cpp:91] Creating Layer label_data_1_split
I0711 04:24:10.688720  2030 net.cpp:425] label_data_1_split <- label
I0711 04:24:10.688742  2030 net.cpp:399] label_data_1_split -> label_data_1_split_0
I0711 04:24:10.688766  2030 net.cpp:399] label_data_1_split -> label_data_1_split_1
I0711 04:24:10.688823  2030 net.cpp:141] Setting up label_data_1_split
I0711 04:24:10.688841  2030 net.cpp:148] Top shape: 256 (256)
I0711 04:24:10.688848  2030 net.cpp:148] Top shape: 256 (256)
I0711 04:24:10.688853  2030 net.cpp:156] Memory required for data: 50334720
I0711 04:24:10.688858  2030 layer_factory.hpp:77] Creating layer conv1
I0711 04:24:10.688894  2030 net.cpp:91] Creating Layer conv1
I0711 04:24:10.688906  2030 net.cpp:425] conv1 <- data
I0711 04:24:10.688916  2030 net.cpp:399] conv1 -> conv1
I0711 04:24:10.865736  2030 net.cpp:141] Setting up conv1
I0711 04:24:10.865787  2030 net.cpp:148] Top shape: 256 96 30 30 (22118400)
I0711 04:24:10.865794  2030 net.cpp:156] Memory required for data: 138808320
I0711 04:24:10.865823  2030 layer_factory.hpp:77] Creating layer relu1
I0711 04:24:10.865842  2030 net.cpp:91] Creating Layer relu1
I0711 04:24:10.865849  2030 net.cpp:425] relu1 <- conv1
I0711 04:24:10.865859  2030 net.cpp:386] relu1 -> conv1 (in-place)
I0711 04:24:10.866036  2030 net.cpp:141] Setting up relu1
I0711 04:24:10.866073  2030 net.cpp:148] Top shape: 256 96 30 30 (22118400)
I0711 04:24:10.866080  2030 net.cpp:156] Memory required for data: 227281920
I0711 04:24:10.866086  2030 layer_factory.hpp:77] Creating layer norm1
I0711 04:24:10.866106  2030 net.cpp:91] Creating Layer norm1
I0711 04:24:10.866117  2030 net.cpp:425] norm1 <- conv1
I0711 04:24:10.866127  2030 net.cpp:399] norm1 -> norm1
I0711 04:24:10.866427  2030 net.cpp:141] Setting up norm1
I0711 04:24:10.866449  2030 net.cpp:148] Top shape: 256 96 30 30 (22118400)
I0711 04:24:10.866456  2030 net.cpp:156] Memory required for data: 315755520
I0711 04:24:10.866461  2030 layer_factory.hpp:77] Creating layer pool1
I0711 04:24:10.866472  2030 net.cpp:91] Creating Layer pool1
I0711 04:24:10.866480  2030 net.cpp:425] pool1 <- norm1
I0711 04:24:10.866488  2030 net.cpp:399] pool1 -> pool1
I0711 04:24:10.866549  2030 net.cpp:141] Setting up pool1
I0711 04:24:10.866566  2030 net.cpp:148] Top shape: 256 96 15 15 (5529600)
I0711 04:24:10.866571  2030 net.cpp:156] Memory required for data: 337873920
I0711 04:24:10.866577  2030 layer_factory.hpp:77] Creating layer conv2
I0711 04:24:10.866596  2030 net.cpp:91] Creating Layer conv2
I0711 04:24:10.866608  2030 net.cpp:425] conv2 <- pool1
I0711 04:24:10.866617  2030 net.cpp:399] conv2 -> conv2
I0711 04:24:10.878350  2030 net.cpp:141] Setting up conv2
I0711 04:24:10.878378  2030 net.cpp:148] Top shape: 256 256 15 15 (14745600)
I0711 04:24:10.878386  2030 net.cpp:156] Memory required for data: 396856320
I0711 04:24:10.878398  2030 layer_factory.hpp:77] Creating layer relu2
I0711 04:24:10.878407  2030 net.cpp:91] Creating Layer relu2
I0711 04:24:10.878420  2030 net.cpp:425] relu2 <- conv2
I0711 04:24:10.878432  2030 net.cpp:386] relu2 -> conv2 (in-place)
I0711 04:24:10.878677  2030 net.cpp:141] Setting up relu2
I0711 04:24:10.878701  2030 net.cpp:148] Top shape: 256 256 15 15 (14745600)
I0711 04:24:10.878707  2030 net.cpp:156] Memory required for data: 455838720
I0711 04:24:10.878713  2030 layer_factory.hpp:77] Creating layer norm2
I0711 04:24:10.878726  2030 net.cpp:91] Creating Layer norm2
I0711 04:24:10.878731  2030 net.cpp:425] norm2 <- conv2
I0711 04:24:10.878738  2030 net.cpp:399] norm2 -> norm2
I0711 04:24:10.878917  2030 net.cpp:141] Setting up norm2
I0711 04:24:10.878937  2030 net.cpp:148] Top shape: 256 256 15 15 (14745600)
I0711 04:24:10.878942  2030 net.cpp:156] Memory required for data: 514821120
I0711 04:24:10.878948  2030 layer_factory.hpp:77] Creating layer pool2
I0711 04:24:10.878962  2030 net.cpp:91] Creating Layer pool2
I0711 04:24:10.878967  2030 net.cpp:425] pool2 <- norm2
I0711 04:24:10.878974  2030 net.cpp:399] pool2 -> pool2
I0711 04:24:10.879019  2030 net.cpp:141] Setting up pool2
I0711 04:24:10.879035  2030 net.cpp:148] Top shape: 256 256 7 7 (3211264)
I0711 04:24:10.879040  2030 net.cpp:156] Memory required for data: 527666176
I0711 04:24:10.879046  2030 layer_factory.hpp:77] Creating layer conv3
I0711 04:24:10.879060  2030 net.cpp:91] Creating Layer conv3
I0711 04:24:10.879065  2030 net.cpp:425] conv3 <- pool2
I0711 04:24:10.879076  2030 net.cpp:399] conv3 -> conv3
I0711 04:24:10.909507  2030 net.cpp:141] Setting up conv3
I0711 04:24:10.909534  2030 net.cpp:148] Top shape: 256 384 7 7 (4816896)
I0711 04:24:10.909541  2030 net.cpp:156] Memory required for data: 546933760
I0711 04:24:10.909562  2030 layer_factory.hpp:77] Creating layer relu3
I0711 04:24:10.909574  2030 net.cpp:91] Creating Layer relu3
I0711 04:24:10.909580  2030 net.cpp:425] relu3 <- conv3
I0711 04:24:10.909589  2030 net.cpp:386] relu3 -> conv3 (in-place)
I0711 04:24:10.909857  2030 net.cpp:141] Setting up relu3
I0711 04:24:10.909878  2030 net.cpp:148] Top shape: 256 384 7 7 (4816896)
I0711 04:24:10.909883  2030 net.cpp:156] Memory required for data: 566201344
I0711 04:24:10.909888  2030 layer_factory.hpp:77] Creating layer conv4
I0711 04:24:10.909909  2030 net.cpp:91] Creating Layer conv4
I0711 04:24:10.909916  2030 net.cpp:425] conv4 <- conv3
I0711 04:24:10.909925  2030 net.cpp:399] conv4 -> conv4
I0711 04:24:10.933409  2030 net.cpp:141] Setting up conv4
I0711 04:24:10.933451  2030 net.cpp:148] Top shape: 256 384 7 7 (4816896)
I0711 04:24:10.933459  2030 net.cpp:156] Memory required for data: 585468928
I0711 04:24:10.933467  2030 layer_factory.hpp:77] Creating layer relu4
I0711 04:24:10.933476  2030 net.cpp:91] Creating Layer relu4
I0711 04:24:10.933481  2030 net.cpp:425] relu4 <- conv4
I0711 04:24:10.933491  2030 net.cpp:386] relu4 -> conv4 (in-place)
I0711 04:24:10.933740  2030 net.cpp:141] Setting up relu4
I0711 04:24:10.933763  2030 net.cpp:148] Top shape: 256 384 7 7 (4816896)
I0711 04:24:10.933769  2030 net.cpp:156] Memory required for data: 604736512
I0711 04:24:10.933774  2030 layer_factory.hpp:77] Creating layer conv5
I0711 04:24:10.933791  2030 net.cpp:91] Creating Layer conv5
I0711 04:24:10.933810  2030 net.cpp:425] conv5 <- conv4
I0711 04:24:10.933820  2030 net.cpp:399] conv5 -> conv5
I0711 04:24:10.950172  2030 net.cpp:141] Setting up conv5
I0711 04:24:10.950196  2030 net.cpp:148] Top shape: 256 256 7 7 (3211264)
I0711 04:24:10.950201  2030 net.cpp:156] Memory required for data: 617581568
I0711 04:24:10.950215  2030 layer_factory.hpp:77] Creating layer relu5
I0711 04:24:10.950227  2030 net.cpp:91] Creating Layer relu5
I0711 04:24:10.950234  2030 net.cpp:425] relu5 <- conv5
I0711 04:24:10.950242  2030 net.cpp:386] relu5 -> conv5 (in-place)
I0711 04:24:10.950399  2030 net.cpp:141] Setting up relu5
I0711 04:24:10.950418  2030 net.cpp:148] Top shape: 256 256 7 7 (3211264)
I0711 04:24:10.950424  2030 net.cpp:156] Memory required for data: 630426624
I0711 04:24:10.950429  2030 layer_factory.hpp:77] Creating layer pool5
I0711 04:24:10.950448  2030 net.cpp:91] Creating Layer pool5
I0711 04:24:10.950456  2030 net.cpp:425] pool5 <- conv5
I0711 04:24:10.950464  2030 net.cpp:399] pool5 -> pool5
I0711 04:24:10.950517  2030 net.cpp:141] Setting up pool5
I0711 04:24:10.950533  2030 net.cpp:148] Top shape: 256 256 3 3 (589824)
I0711 04:24:10.950538  2030 net.cpp:156] Memory required for data: 632785920
I0711 04:24:10.950543  2030 layer_factory.hpp:77] Creating layer model3_fc6
I0711 04:24:10.950561  2030 net.cpp:91] Creating Layer model3_fc6
I0711 04:24:10.950567  2030 net.cpp:425] model3_fc6 <- pool5
I0711 04:24:10.950575  2030 net.cpp:399] model3_fc6 -> model3_fc6
I0711 04:24:11.265983  2030 net.cpp:141] Setting up model3_fc6
I0711 04:24:11.266038  2030 net.cpp:148] Top shape: 256 4096 (1048576)
I0711 04:24:11.266046  2030 net.cpp:156] Memory required for data: 636980224
I0711 04:24:11.266060  2030 layer_factory.hpp:77] Creating layer relu6
I0711 04:24:11.266075  2030 net.cpp:91] Creating Layer relu6
I0711 04:24:11.266083  2030 net.cpp:425] relu6 <- model3_fc6
I0711 04:24:11.266093  2030 net.cpp:386] relu6 -> model3_fc6 (in-place)
I0711 04:24:11.266433  2030 net.cpp:141] Setting up relu6
I0711 04:24:11.266455  2030 net.cpp:148] Top shape: 256 4096 (1048576)
I0711 04:24:11.266461  2030 net.cpp:156] Memory required for data: 641174528
I0711 04:24:11.266466  2030 layer_factory.hpp:77] Creating layer drop6
I0711 04:24:11.266479  2030 net.cpp:91] Creating Layer drop6
I0711 04:24:11.266485  2030 net.cpp:425] drop6 <- model3_fc6
I0711 04:24:11.266495  2030 net.cpp:386] drop6 -> model3_fc6 (in-place)
I0711 04:24:11.266535  2030 net.cpp:141] Setting up drop6
I0711 04:24:11.266561  2030 net.cpp:148] Top shape: 256 4096 (1048576)
I0711 04:24:11.266566  2030 net.cpp:156] Memory required for data: 645368832
I0711 04:24:11.266571  2030 layer_factory.hpp:77] Creating layer model3_fc7
I0711 04:24:11.266585  2030 net.cpp:91] Creating Layer model3_fc7
I0711 04:24:11.266592  2030 net.cpp:425] model3_fc7 <- model3_fc6
I0711 04:24:11.266602  2030 net.cpp:399] model3_fc7 -> model3_fc7
I0711 04:24:11.826630  2030 net.cpp:141] Setting up model3_fc7
I0711 04:24:11.826685  2030 net.cpp:148] Top shape: 256 4096 (1048576)
I0711 04:24:11.826692  2030 net.cpp:156] Memory required for data: 649563136
I0711 04:24:11.826709  2030 layer_factory.hpp:77] Creating layer relu7
I0711 04:24:11.826724  2030 net.cpp:91] Creating Layer relu7
I0711 04:24:11.826730  2030 net.cpp:425] relu7 <- model3_fc7
I0711 04:24:11.826769  2030 net.cpp:386] relu7 -> model3_fc7 (in-place)
I0711 04:24:11.827013  2030 net.cpp:141] Setting up relu7
I0711 04:24:11.827033  2030 net.cpp:148] Top shape: 256 4096 (1048576)
I0711 04:24:11.827039  2030 net.cpp:156] Memory required for data: 653757440
I0711 04:24:11.827045  2030 layer_factory.hpp:77] Creating layer drop7
I0711 04:24:11.827060  2030 net.cpp:91] Creating Layer drop7
I0711 04:24:11.827065  2030 net.cpp:425] drop7 <- model3_fc7
I0711 04:24:11.827072  2030 net.cpp:386] drop7 -> model3_fc7 (in-place)
I0711 04:24:11.827105  2030 net.cpp:141] Setting up drop7
I0711 04:24:11.827127  2030 net.cpp:148] Top shape: 256 4096 (1048576)
I0711 04:24:11.827137  2030 net.cpp:156] Memory required for data: 657951744
I0711 04:24:11.827147  2030 layer_factory.hpp:77] Creating layer model3_fc8
I0711 04:24:11.827158  2030 net.cpp:91] Creating Layer model3_fc8
I0711 04:24:11.827165  2030 net.cpp:425] model3_fc8 <- model3_fc7
I0711 04:24:11.827177  2030 net.cpp:399] model3_fc8 -> model3_fc8
I0711 04:24:11.830482  2030 net.cpp:141] Setting up model3_fc8
I0711 04:24:11.830504  2030 net.cpp:148] Top shape: 256 20 (5120)
I0711 04:24:11.830510  2030 net.cpp:156] Memory required for data: 657972224
I0711 04:24:11.830519  2030 layer_factory.hpp:77] Creating layer model3_fc8_model3_fc8_0_split
I0711 04:24:11.830529  2030 net.cpp:91] Creating Layer model3_fc8_model3_fc8_0_split
I0711 04:24:11.830534  2030 net.cpp:425] model3_fc8_model3_fc8_0_split <- model3_fc8
I0711 04:24:11.830541  2030 net.cpp:399] model3_fc8_model3_fc8_0_split -> model3_fc8_model3_fc8_0_split_0
I0711 04:24:11.830551  2030 net.cpp:399] model3_fc8_model3_fc8_0_split -> model3_fc8_model3_fc8_0_split_1
I0711 04:24:11.830595  2030 net.cpp:141] Setting up model3_fc8_model3_fc8_0_split
I0711 04:24:11.830610  2030 net.cpp:148] Top shape: 256 20 (5120)
I0711 04:24:11.830617  2030 net.cpp:148] Top shape: 256 20 (5120)
I0711 04:24:11.830622  2030 net.cpp:156] Memory required for data: 658013184
I0711 04:24:11.830627  2030 layer_factory.hpp:77] Creating layer accuracy_train
I0711 04:24:11.830641  2030 net.cpp:91] Creating Layer accuracy_train
I0711 04:24:11.830646  2030 net.cpp:425] accuracy_train <- model3_fc8_model3_fc8_0_split_0
I0711 04:24:11.830653  2030 net.cpp:425] accuracy_train <- label_data_1_split_0
…
I0711 04:24:11.832830  2030 net.cpp:313] The NetState phase (1) differed from the phase (0) specified by a rule in layer data
I0711 04:24:11.832875  2030 net.cpp:313] The NetState phase (1) differed from the phase (0) specified by a rule in layer accuracy_train
I0711 04:24:11.833092  2030 net.cpp:49] Initializing net from parameters: 
name: "Model3"
state {
  phase: TEST
}
layer {
  name: "data"
  type: "Data"
  top: "data"
  top: "label"
  include {
    phase: TEST
  }
  transform_param {
    mirror: false
    mean_file: "../lmdb/mean_file.binaryproto"
  }
  data_param {
    source: "../lmdb/val_lmdb"
    batch_size: 50
    backend: LMDB
  }
}
layer {
  name: "conv1"
  type: "Convolution"
  bottom: "data"
  top: "conv1"
  param {
    lr_mult: 0
    decay_mult: 1
  }
  param {
    lr_mult: 0
    decay_mult: 0
  }
  convolution_param {
    num_output: 96
    kernel_size: 11
    stride: 4
    weight_filler {
      type: "gaussian"
      std: 0.01
    }
    bias_filler {
      type: "constant"
      value: 0
    }
  }
}
layer {
  name: "relu1"
  type: "ReLU"
  bottom: "conv1"
  top: "conv1"
}
layer {
  name: "norm1"
  type: "LRN"
  bottom: "conv1"
  top: "norm1"
  lrn_param {
    local_size: 5
    alpha: 0.0001
    beta: 0.75
  }
}
layer {
  name: "pool1"
  type: "Pooling"
  bottom: "norm1"
  top: "pool1"
  pooling_param {
    pool: MAX
    kernel_size: 3
    stride: 2
  }
}
layer {
  name: "conv2"
  type: "Convolution"
  bottom: "pool1"
  top: "conv2"
  param {
    lr_mult: 0
    decay_mult: 1
  }
  param {
    lr_mult: 0
    decay_mult: 0
  }
  convolution_param {
    num_output: 256
    pad: 2
    kernel_size: 5
    group: 2
    weight_filler {
      type: "gaussian"
      std: 0.01
    }
    bias_filler {
      type: "constant"
      value: 0.1
    }
  }
}
layer {
  name: "relu2"
  type: "ReLU"
  bottom: "conv2"
  top: "conv2"
}
layer {
  name: "norm2"
  type: "LRN"
  bottom: "conv2"
  top: "norm2"
  lrn_param {
    local_size: 5
    alpha: 0.0001
    beta: 0.75
  }
}
layer {
  name: "pool2"
  type: "Pooling"
  bottom: "norm2"
  top: "pool2"
  pooling_param {
    pool: MAX
    kernel_size: 3
    stride: 2
  }
}
layer {
  name: "conv3"
  type: "Convolution"
  bottom: "pool2"
  top: "conv3"
  param {
    lr_mult: 0
    decay_mult: 1
  }
  param {
    lr_mult: 0
    decay_mult: 0
  }
  convolution_param {
    num_output: 384
    pad: 1
    kernel_size: 3
    weight_filler {
      type: "gaussian"
      std: 0.01
    }
    bias_filler {
      type: "constant"
      value: 0
    }
  }
}
layer {
  name: "relu3"
  type: "ReLU"
  bottom: "conv3"
  top: "conv3"
}
layer {
  name: "conv4"
  type: "Convolution"
  bottom: "conv3"
  top: "conv4"
  param {
    lr_mult: 0
    decay_mult: 1
  }
  param {
    lr_mult: 0
    decay_mult: 0
  }
  convolution_param {
    num_output: 384
    pad: 1
    kernel_size: 3
    group: 2
    weight_filler {
      type: "gaussian"
      std: 0.01
    }
    bias_filler {
      type: "constant"
      value: 0.1
    }
  }
}
layer {
  name: "relu4"
  type: "ReLU"
  bottom: "conv4"
  top: "conv4"
}
layer {
  name: "conv5"
  type: "Convolution"
  bottom: "conv4"
  top: "conv5"
  param {
    lr_mult: 0
    decay_mult: 1
  }
  param {
    lr_mult: 0
    decay_mult: 0
  }
  convolution_param {
    num_output: 256
    pad: 1
    kernel_size: 3
    group: 2
    weight_filler {
      type: "gaussian"
      std: 0.01
    }
    bias_filler {
      type: "constant"
      value: 0.1
    }
  }
}
layer {
  name: "relu5"
  type: "ReLU"
  bottom: "conv5"
  top: "conv5"
}
layer {
  name: "pool5"
  type: "Pooling"
  bottom: "conv5"
  top: "pool5"
  pooling_param {
    pool: MAX
    kernel_size: 3
    stride: 2
  }
}
layer {
  name: "model3_fc6"
  type: "InnerProduct"
  bottom: "pool5"
  top: "model3_fc6"
  param {
    lr_mult: 1
    decay_mult: 1
  }
  param {
    lr_mult: 2
    decay_mult: 0
  }
  inner_product_param {
    num_output: 4096
    weight_filler {
      type: "gaussian"
      std: 0.005
    }
    bias_filler {
      type: "constant"
      value: 0.1
    }
  }
}
layer {
  name: "relu6"
  type: "ReLU"
  bottom: "model3_fc6"
  top: "model3_fc6"
}
layer {
  name: "drop6"
  type: "Dropout"
  bottom: "model3_fc6"
  top: "model3_fc6"
  dropout_param {
    dropout_ratio: 0.5
  }
}
layer {
  name: "model3_fc7"
  type: "InnerProduct"
  bottom: "model3_fc6"
  top: "model3_fc7"
  param {
    lr_mult: 1
    decay_mult: 1
  }
  param {
    lr_mult: 2
    decay_mult: 0
  }
  inner_product_param {
    num_output: 4096
    weight_filler {
      type: "gaussian"
      std: 0.005
    }
    bias_filler {
      type: "constant"
      value: 0.1
    }
  }
}
layer {
  name: "relu7"
  type: "ReLU"
  bottom: "model3_fc7"
  top: "model3_fc7"
}
layer {
  name: "drop7"
  type: "Dropout"
  bottom: "model3_fc7"
  top: "model3_fc7"
  dropout_param {
    dropout_ratio: 0.5
  }
}
layer {
  name: "model3_fc8"
  type: "InnerProduct"
  bottom: "model3_fc7"
  top: "model3_fc8"
  param {
    lr_mult: 1
    decay_mult: 1
  }
  param {
    lr_mult: 2
    decay_mult: 0
  }
  inner_product_param {
    num_output: 20
    weight_filler {
      type: "gaussian"
      std: 0.01
    }
    bias_filler {
      type: "constant"
      value: 0
    }
  }
}
layer {
  name: "accuracy_test"
  type: "Accuracy"
  bottom: "model3_fc8"
  bottom: "label"
  top: "accuracy_test"
  include {
    phase: TEST
  }
}
layer {
  name: "loss"
  type: "SoftmaxWithLoss"
  bottom: "model3_fc8"
  bottom: "label"
  top: "loss"
}
I0711 04:24:11.833248  2030 layer_factory.hpp:77] Creating layer data
I0711 04:24:11.833364  2030 net.cpp:91] Creating Layer data
I0711 04:24:11.833379  2030 net.cpp:399] data -> data
I0711 04:24:11.833392  2030 net.cpp:399] data -> label
I0711 04:24:11.833408  2030 data_transformer.cpp:25] Loading mean file from: ../lmdb/mean_file.binaryproto
I0711 04:24:11.834089  2039 db_lmdb.cpp:35] Opened lmdb ../lmdb/val_lmdb
I0711 04:24:11.834280  2030 data_layer.cpp:41] output data size: 50,3,128,128
I0711 04:24:11.851222  2030 net.cpp:141] Setting up data
I0711 04:24:11.851269  2030 net.cpp:148] Top shape: 50 3 128 128 (2457600)
I0711 04:24:11.851276  2030 net.cpp:148] Top shape: 50 (50)
I0711 04:24:11.851281  2030 net.cpp:156] Memory required for data: 9830600
I0711 04:24:11.851291  2030 layer_factory.hpp:77] Creating layer label_data_1_split
I0711 04:24:11.851311  2030 net.cpp:91] Creating Layer label_data_1_split
I0711 04:24:11.851317  2030 net.cpp:425] label_data_1_split <- label
I0711 04:24:11.851366  2030 net.cpp:399] label_data_1_split -> label_data_1_split_0
I0711 04:24:11.851384  2030 net.cpp:399] label_data_1_split -> label_data_1_split_1
I0711 04:24:11.851469  2030 net.cpp:141] Setting up label_data_1_split
I0711 04:24:11.851485  2030 net.cpp:148] Top shape: 50 (50)
I0711 04:24:11.851490  2030 net.cpp:148] Top shape: 50 (50)
I0711 04:24:11.851495  2030 net.cpp:156] Memory required for data: 9831000
I0711 04:24:11.851500  2030 layer_factory.hpp:77] Creating layer conv1
I0711 04:24:11.851522  2030 net.cpp:91] Creating Layer conv1
I0711 04:24:11.851533  2030 net.cpp:425] conv1 <- data
I0711 04:24:11.851543  2030 net.cpp:399] conv1 -> conv1
I0711 04:24:11.854223  2030 net.cpp:141] Setting up conv1
I0711 04:24:11.854249  2030 net.cpp:148] Top shape: 50 96 30 30 (4320000)
I0711 04:24:11.854256  2030 net.cpp:156] Memory required for data: 27111000
I0711 04:24:11.854271  2030 layer_factory.hpp:77] Creating layer relu1
I0711 04:24:11.854282  2030 net.cpp:91] Creating Layer relu1
I0711 04:24:11.854288  2030 net.cpp:425] relu1 <- conv1
I0711 04:24:11.854295  2030 net.cpp:386] relu1 -> conv1 (in-place)
I0711 04:24:11.854452  2030 net.cpp:141] Setting up relu1
I0711 04:24:11.854471  2030 net.cpp:148] Top shape: 50 96 30 30 (4320000)
I0711 04:24:11.854477  2030 net.cpp:156] Memory required for data: 44391000
I0711 04:24:11.854483  2030 layer_factory.hpp:77] Creating layer norm1
I0711 04:24:11.854496  2030 net.cpp:91] Creating Layer norm1
I0711 04:24:11.854501  2030 net.cpp:425] norm1 <- conv1
I0711 04:24:11.854508  2030 net.cpp:399] norm1 -> norm1
I0711 04:24:11.854792  2030 net.cpp:141] Setting up norm1
I0711 04:24:11.854814  2030 net.cpp:148] Top shape: 50 96 30 30 (4320000)
I0711 04:24:11.854818  2030 net.cpp:156] Memory required for data: 61671000
I0711 04:24:11.854825  2030 layer_factory.hpp:77] Creating layer pool1
I0711 04:24:11.854835  2030 net.cpp:91] Creating Layer pool1
I0711 04:24:11.854840  2030 net.cpp:425] pool1 <- norm1
I0711 04:24:11.854848  2030 net.cpp:399] pool1 -> pool1
I0711 04:24:11.854895  2030 net.cpp:141] Setting up pool1
I0711 04:24:11.854912  2030 net.cpp:148] Top shape: 50 96 15 15 (1080000)
I0711 04:24:11.854918  2030 net.cpp:156] Memory required for data: 65991000
I0711 04:24:11.854923  2030 layer_factory.hpp:77] Creating layer conv2
I0711 04:24:11.854934  2030 net.cpp:91] Creating Layer conv2
I0711 04:24:11.854940  2030 net.cpp:425] conv2 <- pool1
I0711 04:24:11.854949  2030 net.cpp:399] conv2 -> conv2
I0711 04:24:11.866787  2030 net.cpp:141] Setting up conv2
I0711 04:24:11.866832  2030 net.cpp:148] Top shape: 50 256 15 15 (2880000)
I0711 04:24:11.866838  2030 net.cpp:156] Memory required for data: 77511000
I0711 04:24:11.866855  2030 layer_factory.hpp:77] Creating layer relu2
I0711 04:24:11.866869  2030 net.cpp:91] Creating Layer relu2
I0711 04:24:11.866878  2030 net.cpp:425] relu2 <- conv2
I0711 04:24:11.866890  2030 net.cpp:386] relu2 -> conv2 (in-place)
I0711 04:24:11.867151  2030 net.cpp:141] Setting up relu2
I0711 04:24:11.867174  2030 net.cpp:148] Top shape: 50 256 15 15 (2880000)
I0711 04:24:11.867180  2030 net.cpp:156] Memory required for data: 89031000
I0711 04:24:11.867185  2030 layer_factory.hpp:77] Creating layer norm2
I0711 04:24:11.867199  2030 net.cpp:91] Creating Layer norm2
I0711 04:24:11.867204  2030 net.cpp:425] norm2 <- conv2
I0711 04:24:11.867214  2030 net.cpp:399] norm2 -> norm2
I0711 04:24:11.867429  2030 net.cpp:141] Setting up norm2
I0711 04:24:11.867449  2030 net.cpp:148] Top shape: 50 256 15 15 (2880000)
I0711 04:24:11.867455  2030 net.cpp:156] Memory required for data: 100551000
I0711 04:24:11.867460  2030 layer_factory.hpp:77] Creating layer pool2
I0711 04:24:11.867470  2030 net.cpp:91] Creating Layer pool2
I0711 04:24:11.867475  2030 net.cpp:425] pool2 <- norm2
I0711 04:24:11.867486  2030 net.cpp:399] pool2 -> pool2
I0711 04:24:11.867550  2030 net.cpp:141] Setting up pool2
I0711 04:24:11.867568  2030 net.cpp:148] Top shape: 50 256 7 7 (627200)
I0711 04:24:11.867573  2030 net.cpp:156] Memory required for data: 103059800
I0711 04:24:11.867606  2030 layer_factory.hpp:77] Creating layer conv3
I0711 04:24:11.867627  2030 net.cpp:91] Creating Layer conv3
I0711 04:24:11.867632  2030 net.cpp:425] conv3 <- pool2
I0711 04:24:11.867641  2030 net.cpp:399] conv3 -> conv3
I0711 04:24:11.898294  2030 net.cpp:141] Setting up conv3
I0711 04:24:11.898341  2030 net.cpp:148] Top shape: 50 384 7 7 (940800)
I0711 04:24:11.898349  2030 net.cpp:156] Memory required for data: 106823000
I0711 04:24:11.898366  2030 layer_factory.hpp:77] Creating layer relu3
I0711 04:24:11.898385  2030 net.cpp:91] Creating Layer relu3
I0711 04:24:11.898391  2030 net.cpp:425] relu3 <- conv3
I0711 04:24:11.898401  2030 net.cpp:386] relu3 -> conv3 (in-place)
I0711 04:24:11.898663  2030 net.cpp:141] Setting up relu3
I0711 04:24:11.898684  2030 net.cpp:148] Top shape: 50 384 7 7 (940800)
I0711 04:24:11.898689  2030 net.cpp:156] Memory required for data: 110586200
I0711 04:24:11.898694  2030 layer_factory.hpp:77] Creating layer conv4
I0711 04:24:11.898715  2030 net.cpp:91] Creating Layer conv4
I0711 04:24:11.898722  2030 net.cpp:425] conv4 <- conv3
I0711 04:24:11.898758  2030 net.cpp:399] conv4 -> conv4
I0711 04:24:11.922454  2030 net.cpp:141] Setting up conv4
I0711 04:24:11.922478  2030 net.cpp:148] Top shape: 50 384 7 7 (940800)
I0711 04:24:11.922484  2030 net.cpp:156] Memory required for data: 114349400
I0711 04:24:11.922494  2030 layer_factory.hpp:77] Creating layer relu4
I0711 04:24:11.922505  2030 net.cpp:91] Creating Layer relu4
I0711 04:24:11.922511  2030 net.cpp:425] relu4 <- conv4
I0711 04:24:11.922520  2030 net.cpp:386] relu4 -> conv4 (in-place)
I0711 04:24:11.922796  2030 net.cpp:141] Setting up relu4
I0711 04:24:11.922817  2030 net.cpp:148] Top shape: 50 384 7 7 (940800)
I0711 04:24:11.922823  2030 net.cpp:156] Memory required for data: 118112600
I0711 04:24:11.922829  2030 layer_factory.hpp:77] Creating layer conv5
I0711 04:24:11.922844  2030 net.cpp:91] Creating Layer conv5
I0711 04:24:11.922854  2030 net.cpp:425] conv5 <- conv4
I0711 04:24:11.922863  2030 net.cpp:399] conv5 -> conv5
I0711 04:24:11.939097  2030 net.cpp:141] Setting up conv5
I0711 04:24:11.939121  2030 net.cpp:148] Top shape: 50 256 7 7 (627200)
I0711 04:24:11.939127  2030 net.cpp:156] Memory required for data: 120621400
I0711 04:24:11.939141  2030 layer_factory.hpp:77] Creating layer relu5
I0711 04:24:11.939149  2030 net.cpp:91] Creating Layer relu5
I0711 04:24:11.939154  2030 net.cpp:425] relu5 <- conv5
I0711 04:24:11.939164  2030 net.cpp:386] relu5 -> conv5 (in-place)
I0711 04:24:11.939443  2030 net.cpp:141] Setting up relu5
I0711 04:24:11.939465  2030 net.cpp:148] Top shape: 50 256 7 7 (627200)
I0711 04:24:11.939471  2030 net.cpp:156] Memory required for data: 123130200
I0711 04:24:11.939476  2030 layer_factory.hpp:77] Creating layer pool5
I0711 04:24:11.939491  2030 net.cpp:91] Creating Layer pool5
I0711 04:24:11.939496  2030 net.cpp:425] pool5 <- conv5
I0711 04:24:11.939507  2030 net.cpp:399] pool5 -> pool5
I0711 04:24:11.939571  2030 net.cpp:141] Setting up pool5
I0711 04:24:11.939589  2030 net.cpp:148] Top shape: 50 256 3 3 (115200)
I0711 04:24:11.939594  2030 net.cpp:156] Memory required for data: 123591000
I0711 04:24:11.939599  2030 layer_factory.hpp:77] Creating layer model3_fc6
I0711 04:24:11.939613  2030 net.cpp:91] Creating Layer model3_fc6
I0711 04:24:11.939618  2030 net.cpp:425] model3_fc6 <- pool5
I0711 04:24:11.939628  2030 net.cpp:399] model3_fc6 -> model3_fc6
I0711 04:24:12.255817  2030 net.cpp:141] Setting up model3_fc6
I0711 04:24:12.255875  2030 net.cpp:148] Top shape: 50 4096 (204800)
I0711 04:24:12.255882  2030 net.cpp:156] Memory required for data: 124410200
I0711 04:24:12.255897  2030 layer_factory.hpp:77] Creating layer relu6
I0711 04:24:12.255913  2030 net.cpp:91] Creating Layer relu6
I0711 04:24:12.255920  2030 net.cpp:425] relu6 <- model3_fc6
I0711 04:24:12.255934  2030 net.cpp:386] relu6 -> model3_fc6 (in-place)
I0711 04:24:12.256175  2030 net.cpp:141] Setting up relu6
I0711 04:24:12.256194  2030 net.cpp:148] Top shape: 50 4096 (204800)
I0711 04:24:12.256199  2030 net.cpp:156] Memory required for data: 125229400
I0711 04:24:12.256242  2030 layer_factory.hpp:77] Creating layer drop6
I0711 04:24:12.256253  2030 net.cpp:91] Creating Layer drop6
I0711 04:24:12.256259  2030 net.cpp:425] drop6 <- model3_fc6
I0711 04:24:12.256271  2030 net.cpp:386] drop6 -> model3_fc6 (in-place)
I0711 04:24:12.256312  2030 net.cpp:141] Setting up drop6
I0711 04:24:12.256328  2030 net.cpp:148] Top shape: 50 4096 (204800)
I0711 04:24:12.256333  2030 net.cpp:156] Memory required for data: 126048600
I0711 04:24:12.256338  2030 layer_factory.hpp:77] Creating layer model3_fc7
I0711 04:24:12.256352  2030 net.cpp:91] Creating Layer model3_fc7
I0711 04:24:12.256357  2030 net.cpp:425] model3_fc7 <- model3_fc6
I0711 04:24:12.256366  2030 net.cpp:399] model3_fc7 -> model3_fc7
I0711 04:24:12.816156  2030 net.cpp:141] Setting up model3_fc7
I0711 04:24:12.816211  2030 net.cpp:148] Top shape: 50 4096 (204800)
I0711 04:24:12.816217  2030 net.cpp:156] Memory required for data: 126867800
I0711 04:24:12.816232  2030 layer_factory.hpp:77] Creating layer relu7
I0711 04:24:12.816251  2030 net.cpp:91] Creating Layer relu7
I0711 04:24:12.816259  2030 net.cpp:425] relu7 <- model3_fc7
I0711 04:24:12.816270  2030 net.cpp:386] relu7 -> model3_fc7 (in-place)
I0711 04:24:12.816694  2030 net.cpp:141] Setting up relu7
I0711 04:24:12.816715  2030 net.cpp:148] Top shape: 50 4096 (204800)
I0711 04:24:12.816720  2030 net.cpp:156] Memory required for data: 127687000
I0711 04:24:12.816726  2030 layer_factory.hpp:77] Creating layer drop7
I0711 04:24:12.816740  2030 net.cpp:91] Creating Layer drop7
I0711 04:24:12.816745  2030 net.cpp:425] drop7 <- model3_fc7
I0711 04:24:12.816752  2030 net.cpp:386] drop7 -> model3_fc7 (in-place)
I0711 04:24:12.816792  2030 net.cpp:141] Setting up drop7
I0711 04:24:12.816819  2030 net.cpp:148] Top shape: 50 4096 (204800)
I0711 04:24:12.816830  2030 net.cpp:156] Memory required for data: 128506200
I0711 04:24:12.816836  2030 layer_factory.hpp:77] Creating layer model3_fc8
I0711 04:24:12.816848  2030 net.cpp:91] Creating Layer model3_fc8
I0711 04:24:12.816853  2030 net.cpp:425] model3_fc8 <- model3_fc7
I0711 04:24:12.816864  2030 net.cpp:399] model3_fc8 -> model3_fc8
I0711 04:24:12.819634  2030 net.cpp:141] Setting up model3_fc8
I0711 04:24:12.819654  2030 net.cpp:148] Top shape: 50 20 (1000)
I0711 04:24:12.819659  2030 net.cpp:156] Memory required for data: 128510200
I0711 04:24:12.819669  2030 layer_factory.hpp:77] Creating layer model3_fc8_model3_fc8_0_split
I0711 04:24:12.819679  2030 net.cpp:91] Creating Layer model3_fc8_model3_fc8_0_split
I0711 04:24:12.819684  2030 net.cpp:425] model3_fc8_model3_fc8_0_split <- model3_fc8
I0711 04:24:12.819694  2030 net.cpp:399] model3_fc8_model3_fc8_0_split -> model3_fc8_model3_fc8_0_split_0
I0711 04:24:12.819702  2030 net.cpp:399] model3_fc8_model3_fc8_0_split -> model3_fc8_model3_fc8_0_split_1
I0711 04:24:12.819752  2030 net.cpp:141] Setting up model3_fc8_model3_fc8_0_split
I0711 04:24:12.819775  2030 net.cpp:148] Top shape: 50 20 (1000)
I0711 04:24:12.819782  2030 net.cpp:148] Top shape: 50 20 (1000)
I0711 04:24:12.819787  2030 net.cpp:156] Memory required for data: 128518200
I0711 04:24:12.819792  2030 layer_factory.hpp:77] Creating layer accuracy_test
I0711 04:24:12.819804  2030 net.cpp:91] Creating Layer accuracy_test
I0711 04:24:12.819813  2030 net.cpp:425] accuracy_test <- model3_fc8_model3_fc8_0_split_0
I0711 04:24:12.819819  2030 net.cpp:425] accuracy_test <- label_data_1_split_0
…
