I0708 11:12:58.458467  7982 caffe.cpp:178] Use CPU.
I0708 11:12:58.458791  7982 solver.cpp:48] Initializing solver from parameters: 
test_iter: 1000
test_interval: 1000
base_lr: 0.01
display: 100
max_iter: 45000
lr_policy: "step"
gamma: 0.1
momentum: 0.9
weight_decay: 0.0005
stepsize: 10000
snapshot: 10000
snapshot_prefix: "snapshots/model1"
solver_mode: CPU
net: "model1_trainval.prototxt"
I0708 11:12:58.458957  7982 solver.cpp:91] Creating training net from net file: model1_trainval.prototxt
I0708 11:12:58.465493  7982 net.cpp:313] The NetState phase (0) differed from the phase (1) specified by a rule in layer data
I0708 11:12:58.465539  7982 net.cpp:313] The NetState phase (0) differed from the phase (1) specified by a rule in layer accuracy
I0708 11:12:58.465674  7982 net.cpp:49] Initializing net from parameters: 
name: "Model1"
state {
  phase: TRAIN
}
layer {
  name: "data"
  type: "Data"
  top: "data"
  top: "label"
  include {
    phase: TRAIN
  }
  transform_param {
    mirror: true
    mean_file: "../lmdb/mean_file.binaryproto"
  }
  data_param {
    source: "../lmdb/train_lmdb"
    batch_size: 200
    backend: LMDB
  }
}
layer {
  name: "conv1"
  type: "Convolution"
  bottom: "data"
  top: "conv1"
  param {
    lr_mult: 1
    decay_mult: 0
  }
  param {
    lr_mult: 2
    decay_mult: 0
  }
  convolution_param {
    num_output: 64
    kernel_size: 5
    stride: 2
    weight_filler {
      type: "xavier"
    }
    bias_filler {
      type: "constant"
      value: 0
    }
  }
}
layer {
  name: "relu1"
  type: "ReLU"
  bottom: "conv1"
  top: "conv1"
}
layer {
  name: "fc2"
  type: "InnerProduct"
  bottom: "conv1"
  top: "fc2"
  param {
    lr_mult: 1
    decay_mult: 0
  }
  param {
    lr_mult: 2
    decay_mult: 0
  }
  inner_product_param {
    num_output: 1024
    weight_filler {
      type: "xavier"
    }
    bias_filler {
      type: "constant"
      value: 0
    }
  }
}
layer {
  name: "relu2"
  type: "ReLU"
  bottom: "fc2"
  top: "fc2"
}
layer {
  name: "fc3"
  type: "InnerProduct"
  bottom: "fc2"
  top: "fc3"
  param {
    lr_mult: 1
    decay_mult: 0
  }
  param {
    lr_mult: 2
    decay_mult: 0
  }
  inner_product_param {
    num_output: 20
    weight_filler {
      type: "xavier"
    }
    bias_filler {
      type: "constant"
      value: 0
    }
  }
}
layer {
  name: "loss"
  type: "SoftmaxWithLoss"
  bottom: "fc3"
  bottom: "label"
  top: "loss"
}
layer {
  name: "accuracy"
  type: "Accuracy"
  bottom: "fc3"
  bottom: "label"
  top: "accuracy"
  include {
    phase: TRAIN
  }
}
I0708 11:12:58.469163  7982 layer_factory.hpp:77] Creating layer data
I0708 11:12:58.469667  7982 net.cpp:91] Creating Layer data
I0708 11:12:58.469686  7982 net.cpp:399] data -> data
I0708 11:12:58.469728  7982 net.cpp:399] data -> label
I0708 11:12:58.469753  7982 data_transformer.cpp:25] Loading mean file from: ../lmdb/mean_file.binaryproto
F0708 11:12:58.469761  7985 db_lmdb.hpp:15] Check failed: mdb_status == 0 (2 vs. 0) No such file or directory
*** Check failure stack trace: ***
F0708 11:12:58.469781  7982 io.cpp:54] Check failed: fd != -1 (-1 vs. -1) File not found: ../lmdb/mean_file.binaryproto
*** Check failure stack trace: ***
