…
I0708 10:11:15.201010  1658 net.cpp:313] The NetState phase (0) differed from the phase (1) specified by a rule in layer data
I0708 10:11:15.201050  1658 net.cpp:313] The NetState phase (0) differed from the phase (1) specified by a rule in layer accuracy
I0708 10:11:15.201189  1658 net.cpp:49] Initializing net from parameters: 
name: "Model1"
state {
  phase: TRAIN
}
layer {
  name: "data"
  type: "Data"
  top: "data"
  top: "label"
  include {
    phase: TRAIN
  }
  transform_param {
    mirror: true
    mean_file: "../lmdb/mean_file.binaryproto"
  }
  data_param {
    source: "../lmdb/train_lmdb"
    batch_size: 256
    backend: LMDB
  }
}
layer {
  name: "conv1"
  type: "Convolution"
  bottom: "data"
  top: "conv1"
  param {
    lr_mult: 1
    decay_mult: 0
  }
  param {
    lr_mult: 2
    decay_mult: 0
  }
  convolution_param {
    num_output: 32
    kernel_size: 5
    stride: 2
    weight_filler {
      type: "xavier"
    }
    bias_filler {
      type: "constant"
      value: 0
    }
  }
}
layer {
  name: "relu1"
  type: "ReLU"
  bottom: "conv1"
  top: "conv1"
}
layer {
  name: "fc2"
  type: "InnerProduct"
  bottom: "conv1"
  top: "fc2"
  param {
    lr_mult: 1
    decay_mult: 0
  }
  param {
    lr_mult: 2
    decay_mult: 0
  }
  inner_product_param {
    num_output: 1024
    weight_filler {
      type: "xavier"
    }
    bias_filler {
      type: "constant"
      value: 0
    }
  }
}
layer {
  name: "relu2"
  type: "ReLU"
  bottom: "fc2"
  top: "fc2"
}
layer {
  name: "fc3"
  type: "InnerProduct"
  bottom: "fc2"
  top: "fc3"
  param {
    lr_mult: 1
    decay_mult: 0
  }
  param {
    lr_mult: 2
    decay_mult: 0
  }
  inner_product_param {
    num_output: 20
    weight_filler {
      type: "xavier"
    }
    bias_filler {
      type: "constant"
      value: 0
    }
  }
}
layer {
  name: "loss"
  type: "SoftmaxWithLoss"
  bottom: "fc3"
  bottom: "label"
  top: "loss"
}
layer {
  name: "accuracy"
  type: "Accuracy"
  bottom: "fc3"
  bottom: "label"
  top: "accuracy"
  include {
    phase: TRAIN
  }
}
I0708 10:11:15.201405  1658 layer_factory.hpp:77] Creating layer data
I0708 10:11:15.202723  1658 net.cpp:91] Creating Layer data
I0708 10:11:15.202780  1658 net.cpp:399] data -> data
I0708 10:11:15.202870  1658 net.cpp:399] data -> label
I0708 10:11:15.202924  1658 data_transformer.cpp:25] Loading mean file from: ../lmdb/mean_file.binaryproto
I0708 10:11:15.203547  1665 db_lmdb.cpp:35] Opened lmdb ../lmdb/train_lmdb
I0708 10:11:15.217447  1658 data_layer.cpp:41] output data size: 256,3,128,128
I0708 10:11:15.322597  1658 net.cpp:141] Setting up data
I0708 10:11:15.322674  1658 net.cpp:148] Top shape: 256 3 128 128 (12582912)
I0708 10:11:15.322690  1658 net.cpp:148] Top shape: 256 (256)
I0708 10:11:15.322706  1658 net.cpp:156] Memory required for data: 50332672
I0708 10:11:15.322728  1658 layer_factory.hpp:77] Creating layer label_data_1_split
I0708 10:11:15.322768  1658 net.cpp:91] Creating Layer label_data_1_split
I0708 10:11:15.322795  1658 net.cpp:425] label_data_1_split <- label
I0708 10:11:15.322829  1658 net.cpp:399] label_data_1_split -> label_data_1_split_0
I0708 10:11:15.322865  1658 net.cpp:399] label_data_1_split -> label_data_1_split_1
I0708 10:11:15.322940  1658 net.cpp:141] Setting up label_data_1_split
I0708 10:11:15.322968  1658 net.cpp:148] Top shape: 256 (256)
I0708 10:11:15.322981  1658 net.cpp:148] Top shape: 256 (256)
I0708 10:11:15.322990  1658 net.cpp:156] Memory required for data: 50334720
I0708 10:11:15.323000  1658 layer_factory.hpp:77] Creating layer conv1
I0708 10:11:15.323055  1658 net.cpp:91] Creating Layer conv1
I0708 10:11:15.323096  1658 net.cpp:425] conv1 <- data
I0708 10:11:15.323113  1658 net.cpp:399] conv1 -> conv1
I0708 10:11:15.518982  1658 net.cpp:141] Setting up conv1
I0708 10:11:15.519049  1658 net.cpp:148] Top shape: 256 32 62 62 (31490048)
I0708 10:11:15.519060  1658 net.cpp:156] Memory required for data: 176294912
I0708 10:11:15.519112  1658 layer_factory.hpp:77] Creating layer relu1
I0708 10:11:15.519141  1658 net.cpp:91] Creating Layer relu1
I0708 10:11:15.519155  1658 net.cpp:425] relu1 <- conv1
I0708 10:11:15.519170  1658 net.cpp:386] relu1 -> conv1 (in-place)
I0708 10:11:15.519369  1658 net.cpp:141] Setting up relu1
I0708 10:11:15.519393  1658 net.cpp:148] Top shape: 256 32 62 62 (31490048)
I0708 10:11:15.519403  1658 net.cpp:156] Memory required for data: 302255104
I0708 10:11:15.519413  1658 layer_factory.hpp:77] Creating layer fc2
I0708 10:11:15.519465  1658 net.cpp:91] Creating Layer fc2
I0708 10:11:15.519481  1658 net.cpp:425] fc2 <- conv1
I0708 10:11:15.519501  1658 net.cpp:399] fc2 -> fc2
I0708 10:11:16.687959  1658 net.cpp:141] Setting up fc2
I0708 10:11:16.688024  1658 net.cpp:148] Top shape: 256 1024 (262144)
I0708 10:11:16.688036  1658 net.cpp:156] Memory required for data: 303303680
I0708 10:11:16.688069  1658 layer_factory.hpp:77] Creating layer relu2
I0708 10:11:16.688097  1658 net.cpp:91] Creating Layer relu2
I0708 10:11:16.688109  1658 net.cpp:425] relu2 <- fc2
I0708 10:11:16.688128  1658 net.cpp:386] relu2 -> fc2 (in-place)
I0708 10:11:16.688558  1658 net.cpp:141] Setting up relu2
I0708 10:11:16.688583  1658 net.cpp:148] Top shape: 256 1024 (262144)
I0708 10:11:16.688593  1658 net.cpp:156] Memory required for data: 304352256
I0708 10:11:16.688603  1658 layer_factory.hpp:77] Creating layer fc3
I0708 10:11:16.688627  1658 net.cpp:91] Creating Layer fc3
I0708 10:11:16.688637  1658 net.cpp:425] fc3 <- fc2
I0708 10:11:16.688654  1658 net.cpp:399] fc3 -> fc3
I0708 10:11:16.688971  1658 net.cpp:141] Setting up fc3
I0708 10:11:16.688999  1658 net.cpp:148] Top shape: 256 20 (5120)
I0708 10:11:16.689009  1658 net.cpp:156] Memory required for data: 304372736
I0708 10:11:16.689031  1658 layer_factory.hpp:77] Creating layer fc3_fc3_0_split
I0708 10:11:16.689049  1658 net.cpp:91] Creating Layer fc3_fc3_0_split
I0708 10:11:16.689059  1658 net.cpp:425] fc3_fc3_0_split <- fc3
I0708 10:11:16.689074  1658 net.cpp:399] fc3_fc3_0_split -> fc3_fc3_0_split_0
I0708 10:11:16.689091  1658 net.cpp:399] fc3_fc3_0_split -> fc3_fc3_0_split_1
I0708 10:11:16.689152  1658 net.cpp:141] Setting up fc3_fc3_0_split
I0708 10:11:16.689174  1658 net.cpp:148] Top shape: 256 20 (5120)
I0708 10:11:16.689188  1658 net.cpp:148] Top shape: 256 20 (5120)
I0708 10:11:16.689198  1658 net.cpp:156] Memory required for data: 304413696
I0708 10:11:16.689208  1658 layer_factory.hpp:77] Creating layer loss
I0708 10:11:16.689236  1658 net.cpp:91] Creating Layer loss
I0708 10:11:16.689255  1658 net.cpp:425] loss <- fc3_fc3_0_split_0
I0708 10:11:16.689267  1658 net.cpp:425] loss <- label_data_1_split_0
I0708 10:11:16.689282  1658 net.cpp:399] loss -> loss
…
I0708 10:11:16.691076  1658 net.cpp:313] The NetState phase (1) differed from the phase (0) specified by a rule in layer data
I0708 10:11:16.691123  1658 net.cpp:313] The NetState phase (1) differed from the phase (0) specified by a rule in layer accuracy
I0708 10:11:16.691258  1658 net.cpp:49] Initializing net from parameters: 
name: "Model1"
state {
  phase: TEST
}
layer {
  name: "data"
  type: "Data"
  top: "data"
  top: "label"
  include {
    phase: TEST
  }
  transform_param {
    mirror: false
    mean_file: "../lmdb/mean_file.binaryproto"
  }
  data_param {
    source: "../lmdb/val_lmdb"
    batch_size: 100
    backend: LMDB
  }
}
layer {
  name: "conv1"
  type: "Convolution"
  bottom: "data"
  top: "conv1"
  param {
    lr_mult: 1
    decay_mult: 0
  }
  param {
    lr_mult: 2
    decay_mult: 0
  }
  convolution_param {
    num_output: 32
    kernel_size: 5
    stride: 2
    weight_filler {
      type: "xavier"
    }
    bias_filler {
      type: "constant"
      value: 0
    }
  }
}
layer {
  name: "relu1"
  type: "ReLU"
  bottom: "conv1"
  top: "conv1"
}
layer {
  name: "fc2"
  type: "InnerProduct"
  bottom: "conv1"
  top: "fc2"
  param {
    lr_mult: 1
    decay_mult: 0
  }
  param {
    lr_mult: 2
    decay_mult: 0
  }
  inner_product_param {
    num_output: 1024
    weight_filler {
      type: "xavier"
    }
    bias_filler {
      type: "constant"
      value: 0
    }
  }
}
layer {
  name: "relu2"
  type: "ReLU"
  bottom: "fc2"
  top: "fc2"
}
layer {
  name: "fc3"
  type: "InnerProduct"
  bottom: "fc2"
  top: "fc3"
  param {
    lr_mult: 1
    decay_mult: 0
  }
  param {
    lr_mult: 2
    decay_mult: 0
  }
  inner_product_param {
    num_output: 20
    weight_filler {
      type: "xavier"
    }
    bias_filler {
      type: "constant"
      value: 0
    }
  }
}
layer {
  name: "loss"
  type: "SoftmaxWithLoss"
  bottom: "fc3"
  bottom: "label"
  top: "loss"
}
layer {
  name: "accuracy"
  type: "Accuracy"
  bottom: "fc3"
  bottom: "label"
  top: "accuracy"
  include {
    phase: TEST
  }
}
I0708 10:11:16.691395  1658 layer_factory.hpp:77] Creating layer data
I0708 10:11:16.691689  1658 net.cpp:91] Creating Layer data
I0708 10:11:16.691709  1658 net.cpp:399] data -> data
I0708 10:11:16.691728  1658 net.cpp:399] data -> label
I0708 10:11:16.691753  1658 data_transformer.cpp:25] Loading mean file from: ../lmdb/mean_file.binaryproto
I0708 10:11:16.692447  1667 db_lmdb.cpp:35] Opened lmdb ../lmdb/val_lmdb
I0708 10:11:16.692659  1658 data_layer.cpp:41] output data size: 100,3,128,128
I0708 10:11:16.733209  1658 net.cpp:141] Setting up data
I0708 10:11:16.733266  1658 net.cpp:148] Top shape: 100 3 128 128 (4915200)
I0708 10:11:16.733280  1658 net.cpp:148] Top shape: 100 (100)
I0708 10:11:16.733289  1658 net.cpp:156] Memory required for data: 19661200
I0708 10:11:16.733302  1658 layer_factory.hpp:77] Creating layer label_data_1_split
I0708 10:11:16.733331  1658 net.cpp:91] Creating Layer label_data_1_split
I0708 10:11:16.733343  1658 net.cpp:425] label_data_1_split <- label
I0708 10:11:16.733362  1658 net.cpp:399] label_data_1_split -> label_data_1_split_0
I0708 10:11:16.733424  1658 net.cpp:399] label_data_1_split -> label_data_1_split_1
I0708 10:11:16.733512  1658 net.cpp:141] Setting up label_data_1_split
I0708 10:11:16.733537  1658 net.cpp:148] Top shape: 100 (100)
I0708 10:11:16.733549  1658 net.cpp:148] Top shape: 100 (100)
I0708 10:11:16.733559  1658 net.cpp:156] Memory required for data: 19662000
I0708 10:11:16.733569  1658 layer_factory.hpp:77] Creating layer conv1
I0708 10:11:16.733603  1658 net.cpp:91] Creating Layer conv1
I0708 10:11:16.733621  1658 net.cpp:425] conv1 <- data
I0708 10:11:16.733640  1658 net.cpp:399] conv1 -> conv1
I0708 10:11:16.737090  1658 net.cpp:141] Setting up conv1
I0708 10:11:16.737121  1658 net.cpp:148] Top shape: 100 32 62 62 (12300800)
I0708 10:11:16.737131  1658 net.cpp:156] Memory required for data: 68865200
I0708 10:11:16.737159  1658 layer_factory.hpp:77] Creating layer relu1
I0708 10:11:16.737176  1658 net.cpp:91] Creating Layer relu1
I0708 10:11:16.737186  1658 net.cpp:425] relu1 <- conv1
I0708 10:11:16.737201  1658 net.cpp:386] relu1 -> conv1 (in-place)
I0708 10:11:16.737474  1658 net.cpp:141] Setting up relu1
I0708 10:11:16.737500  1658 net.cpp:148] Top shape: 100 32 62 62 (12300800)
I0708 10:11:16.737509  1658 net.cpp:156] Memory required for data: 118068400
I0708 10:11:16.737519  1658 layer_factory.hpp:77] Creating layer fc2
I0708 10:11:16.737542  1658 net.cpp:91] Creating Layer fc2
I0708 10:11:16.737552  1658 net.cpp:425] fc2 <- conv1
I0708 10:11:16.737571  1658 net.cpp:399] fc2 -> fc2
I0708 10:11:17.913496  1658 net.cpp:141] Setting up fc2
I0708 10:11:17.913557  1658 net.cpp:148] Top shape: 100 1024 (102400)
I0708 10:11:17.913568  1658 net.cpp:156] Memory required for data: 118478000
I0708 10:11:17.913601  1658 layer_factory.hpp:77] Creating layer relu2
I0708 10:11:17.913625  1658 net.cpp:91] Creating Layer relu2
I0708 10:11:17.913638  1658 net.cpp:425] relu2 <- fc2
I0708 10:11:17.913655  1658 net.cpp:386] relu2 -> fc2 (in-place)
I0708 10:11:17.913929  1658 net.cpp:141] Setting up relu2
I0708 10:11:17.913952  1658 net.cpp:148] Top shape: 100 1024 (102400)
I0708 10:11:17.913961  1658 net.cpp:156] Memory required for data: 118887600
I0708 10:11:17.913972  1658 layer_factory.hpp:77] Creating layer fc3
I0708 10:11:17.913993  1658 net.cpp:91] Creating Layer fc3
I0708 10:11:17.914003  1658 net.cpp:425] fc3 <- fc2
I0708 10:11:17.914021  1658 net.cpp:399] fc3 -> fc3
I0708 10:11:17.914324  1658 net.cpp:141] Setting up fc3
I0708 10:11:17.914348  1658 net.cpp:148] Top shape: 100 20 (2000)
I0708 10:11:17.914357  1658 net.cpp:156] Memory required for data: 118895600
I0708 10:11:17.914383  1658 layer_factory.hpp:77] Creating layer fc3_fc3_0_split
I0708 10:11:17.914402  1658 net.cpp:91] Creating Layer fc3_fc3_0_split
I0708 10:11:17.914412  1658 net.cpp:425] fc3_fc3_0_split <- fc3
I0708 10:11:17.914427  1658 net.cpp:399] fc3_fc3_0_split -> fc3_fc3_0_split_0
I0708 10:11:17.914444  1658 net.cpp:399] fc3_fc3_0_split -> fc3_fc3_0_split_1
I0708 10:11:17.914510  1658 net.cpp:141] Setting up fc3_fc3_0_split
I0708 10:11:17.914532  1658 net.cpp:148] Top shape: 100 20 (2000)
I0708 10:11:17.914546  1658 net.cpp:148] Top shape: 100 20 (2000)
I0708 10:11:17.914556  1658 net.cpp:156] Memory required for data: 118911600
I0708 10:11:17.914566  1658 layer_factory.hpp:77] Creating layer loss
I0708 10:11:17.914584  1658 net.cpp:91] Creating Layer loss
I0708 10:11:17.914594  1658 net.cpp:425] loss <- fc3_fc3_0_split_0
I0708 10:11:17.914607  1658 net.cpp:425] loss <- label_data_1_split_0
I0708 10:11:17.914620  1658 net.cpp:399] loss -> loss
…
